program(1.0)
[buildInfo = dict<tensor<string, []>, tensor<string, []>>({{"coremlc-component-MIL", "3500.11.1"}, {"coremlc-version", "3500.21.1"}, {"coremltools-component-torch", "2.7.1"}, {"coremltools-source-dialect", "TorchScript"}, {"coremltools-version", "8.3.0"}})]
{
    func main<ios16>(tensor<fp16, [1, 80, 1, 3000]> melspectrogram_features) {
            tensor<string, []> var_54_pad_type_0 = const()[name = tensor<string, []>("op_54_pad_type_0"), val = tensor<string, []>("custom")];
            tensor<int32, [4]> var_54_pad_0 = const()[name = tensor<string, []>("op_54_pad_0"), val = tensor<int32, [4]>([0, 0, 1, 1])];
            tensor<int32, [2]> var_54_strides_0 = const()[name = tensor<string, []>("op_54_strides_0"), val = tensor<int32, [2]>([1, 1])];
            tensor<int32, [2]> var_54_dilations_0 = const()[name = tensor<string, []>("op_54_dilations_0"), val = tensor<int32, [2]>([1, 1])];
            tensor<int32, []> var_54_groups_0 = const()[name = tensor<string, []>("op_54_groups_0"), val = tensor<int32, []>(1)];
            tensor<fp16, [512, 80, 1, 3]> var_29_to_fp16 = const()[name = tensor<string, []>("op_29_to_fp16"), val = tensor<fp16, [512, 80, 1, 3]>(BLOBFILE(path = tensor<string, []>("@model_path/weights/weight.bin"), offset = tensor<uint64, []>(64)))];
            tensor<fp16, [512]> var_35_to_fp16 = const()[name = tensor<string, []>("op_35_to_fp16"), val = tensor<fp16, [512]>(BLOBFILE(path = tensor<string, []>("@model_path/weights/weight.bin"), offset = tensor<uint64, []>(245888)))];
            tensor<fp16, [1, 512, 1, 3000]> var_54_cast_fp16 = conv(bias = var_35_to_fp16, dilations = var_54_dilations_0, groups = var_54_groups_0, pad = var_54_pad_0, pad_type = var_54_pad_type_0, strides = var_54_strides_0, weight = var_29_to_fp16, x = melspectrogram_features)[name = tensor<string, []>("op_54_cast_fp16")];
            tensor<string, []> hidden_states_1_mode_0 = const()[name = tensor<string, []>("hidden_states_1_mode_0"), val = tensor<string, []>("EXACT")];
            tensor<fp16, [1, 512, 1, 3000]> hidden_states_1_cast_fp16 = gelu(mode = hidden_states_1_mode_0, x = var_54_cast_fp16)[name = tensor<string, []>("hidden_states_1_cast_fp16")];
            tensor<string, []> var_94_pad_type_0 = const()[name = tensor<string, []>("op_94_pad_type_0"), val = tensor<string, []>("custom")];
            tensor<int32, [4]> var_94_pad_0 = const()[name = tensor<string, []>("op_94_pad_0"), val = tensor<int32, [4]>([0, 0, 1, 1])];
            tensor<int32, [2]> var_94_strides_0 = const()[name = tensor<string, []>("op_94_strides_0"), val = tensor<int32, [2]>([2, 2])];
            tensor<int32, [2]> var_94_dilations_0 = const()[name = tensor<string, []>("op_94_dilations_0"), val = tensor<int32, [2]>([1, 1])];
            tensor<int32, []> var_94_groups_0 = const()[name = tensor<string, []>("op_94_groups_0"), val = tensor<int32, []>(1)];
            tensor<fp16, [512, 512, 1, 3]> var_69_to_fp16 = const()[name = tensor<string, []>("op_69_to_fp16"), val = tensor<fp16, [512, 512, 1, 3]>(BLOBFILE(path = tensor<string, []>("@model_path/weights/weight.bin"), offset = tensor<uint64, []>(246976)))];
            tensor<fp16, [512]> var_75_to_fp16 = const()[name = tensor<string, []>("op_75_to_fp16"), val = tensor<fp16, [512]>(BLOBFILE(path = tensor<string, []>("@model_path/weights/weight.bin"), offset = tensor<uint64, []>(1819904)))];
            tensor<fp16, [1, 512, 1, 1500]> var_94_cast_fp16 = conv(bias = var_75_to_fp16, dilations = var_94_dilations_0, groups = var_94_groups_0, pad = var_94_pad_0, pad_type = var_94_pad_type_0, strides = var_94_strides_0, weight = var_69_to_fp16, x = hidden_states_1_cast_fp16)[name = tensor<string, []>("op_94_cast_fp16")];
            tensor<string, []> hidden_states_3_mode_0 = const()[name = tensor<string, []>("hidden_states_3_mode_0"), val = tensor<string, []>("EXACT")];
            tensor<fp16, [1, 512, 1, 1500]> hidden_states_3_cast_fp16 = gelu(mode = hidden_states_3_mode_0, x = var_94_cast_fp16)[name = tensor<string, []>("hidden_states_3_cast_fp16")];
            tensor<fp16, [1, 512, 1, 1500]> var_112_to_fp16 = const()[name = tensor<string, []>("op_112_to_fp16"), val = tensor<fp16, [1, 512, 1, 1500]>(BLOBFILE(path = tensor<string, []>("@model_path/weights/weight.bin"), offset = tensor<uint64, []>(1820992)))];
            tensor<fp16, [1, 512, 1, 1500]> inputs_1_cast_fp16 = add(x = hidden_states_3_cast_fp16, y = var_112_to_fp16)[name = tensor<string, []>("inputs_1_cast_fp16")];
            tensor<int32, []> var_125 = const()[name = tensor<string, []>("op_125"), val = tensor<int32, []>(3)];
            tensor<int32, []> var_138 = const()[name = tensor<string, []>("op_138"), val = tensor<int32, []>(1)];
            tensor<int32, [1]> out_1_axes_0 = const()[name = tensor<string, []>("out_1_axes_0"), val = tensor<int32, [1]>([1])];
            tensor<fp16, []> var_155_to_fp16 = const()[name = tensor<string, []>("op_155_to_fp16"), val = tensor<fp16, []>(0x1.5p-17)];
            tensor<fp16, [1, 512, 1, 1500]> out_1_cast_fp16 = layer_norm(axes = out_1_axes_0, epsilon = var_155_to_fp16, x = inputs_1_cast_fp16)[name = tensor<string, []>("out_1_cast_fp16")];
            tensor<fp16, [512]> obj_1_mean_0_to_fp16 = const()[name = tensor<string, []>("obj_1_mean_0_to_fp16"), val = tensor<fp16, [512]>(BLOBFILE(path = tensor<string, []>("@model_path/weights/weight.bin"), offset = tensor<uint64, []>(3357056)))];
            tensor<fp16, [512]> obj_1_variance_0_to_fp16 = const()[name = tensor<string, []>("obj_1_variance_0_to_fp16"), val = tensor<fp16, [512]>(BLOBFILE(path = tensor<string, []>("@model_path/weights/weight.bin"), offset = tensor<uint64, []>(3358144)))];
            tensor<fp16, [512]> obj_1_gamma_0_to_fp16 = const()[name = tensor<string, []>("obj_1_gamma_0_to_fp16"), val = tensor<fp16, [512]>(BLOBFILE(path = tensor<string, []>("@model_path/weights/weight.bin"), offset = tensor<uint64, []>(3359232)))];
            tensor<fp16, [512]> obj_1_beta_0_to_fp16 = const()[name = tensor<string, []>("obj_1_beta_0_to_fp16"), val = tensor<fp16, [512]>(BLOBFILE(path = tensor<string, []>("@model_path/weights/weight.bin"), offset = tensor<uint64, []>(3360320)))];
            tensor<fp16, []> obj_1_epsilon_0_to_fp16 = const()[name = tensor<string, []>("obj_1_epsilon_0_to_fp16"), val = tensor<fp16, []>(0x1.5p-17)];
            tensor<fp16, [1, 512, 1, 1500]> obj_1_cast_fp16 = batch_norm(beta = obj_1_beta_0_to_fp16, epsilon = obj_1_epsilon_0_to_fp16, gamma = obj_1_gamma_0_to_fp16, mean = obj_1_mean_0_to_fp16, variance = obj_1_variance_0_to_fp16, x = out_1_cast_fp16)[name = tensor<string, []>("obj_1_cast_fp16")];
            tensor<string, []> query_1_pad_type_0 = const()[name = tensor<string, []>("query_1_pad_type_0"), val = tensor<string, []>("valid")];
            tensor<int32, [2]> query_1_strides_0 = const()[name = tensor<string, []>("query_1_strides_0"), val = tensor<int32, [2]>([1, 1])];
            tensor<int32, [4]> query_1_pad_0 = const()[name = tensor<string, []>("query_1_pad_0"), val = tensor<int32, [4]>([0, 0, 0, 0])];
            tensor<int32, [2]> query_1_dilations_0 = const()[name = tensor<string, []>("query_1_dilations_0"), val = tensor<int32, [2]>([1, 1])];
            tensor<int32, []> query_1_groups_0 = const()[name = tensor<string, []>("query_1_groups_0"), val = tensor<int32, []>(1)];
            tensor<fp16, [512, 512, 1, 1]> layers_0_self_attn_q_proj_weight_to_fp16 = const()[name = tensor<string, []>("layers_0_self_attn_q_proj_weight_to_fp16"), val = tensor<fp16, [512, 512, 1, 1]>(BLOBFILE(path = tensor<string, []>("@model_path/weights/weight.bin"), offset = tensor<uint64, []>(3361408)))];
            tensor<fp16, [512]> layers_0_self_attn_q_proj_bias_to_fp16 = const()[name = tensor<string, []>("layers_0_self_attn_q_proj_bias_to_fp16"), val = tensor<fp16, [512]>(BLOBFILE(path = tensor<string, []>("@model_path/weights/weight.bin"), offset = tensor<uint64, []>(3885760)))];
            tensor<fp16, [1, 512, 1, 1500]> query_1_cast_fp16 = conv(bias = layers_0_self_attn_q_proj_bias_to_fp16, dilations = query_1_dilations_0, groups = query_1_groups_0, pad = query_1_pad_0, pad_type = query_1_pad_type_0, strides = query_1_strides_0, weight = layers_0_self_attn_q_proj_weight_to_fp16, x = obj_1_cast_fp16)[name = tensor<string, []>("query_1_cast_fp16")];
            tensor<string, []> key_1_pad_type_0 = const()[name = tensor<string, []>("key_1_pad_type_0"), val = tensor<string, []>("valid")];
            tensor<int32, [2]> key_1_strides_0 = const()[name = tensor<string, []>("key_1_strides_0"), val = tensor<int32, [2]>([1, 1])];
            tensor<int32, [4]> key_1_pad_0 = const()[name = tensor<string, []>("key_1_pad_0"), val = tensor<int32, [4]>([0, 0, 0, 0])];
            tensor<int32, [2]> key_1_dilations_0 = const()[name = tensor<string, []>("key_1_dilations_0"), val = tensor<int32, [2]>([1, 1])];
            tensor<int32, []> key_1_groups_0 = const()[name = tensor<string, []>("key_1_groups_0"), val = tensor<int32, []>(1)];
            tensor<fp16, [512, 512, 1, 1]> layers_0_self_attn_k_proj_weight_to_fp16 = const()[name = tensor<string, []>("layers_0_self_attn_k_proj_weight_to_fp16"), val = tensor<fp16, [512, 512, 1, 1]>(BLOBFILE(path = tensor<string, []>("@model_path/weights/weight.bin"), offset = tensor<uint64, []>(3886848)))];
            tensor<fp16, [1, 512, 1, 1500]> key_1_cast_fp16 = conv(dilations = key_1_dilations_0, groups = key_1_groups_0, pad = key_1_pad_0, pad_type = key_1_pad_type_0, strides = key_1_strides_0, weight = layers_0_self_attn_k_proj_weight_to_fp16, x = obj_1_cast_fp16)[name = tensor<string, []>("key_1_cast_fp16")];
            tensor<string, []> value_1_pad_type_0 = const()[name = tensor<string, []>("value_1_pad_type_0"), val = tensor<string, []>("valid")];
            tensor<int32, [2]> value_1_strides_0 = const()[name = tensor<string, []>("value_1_strides_0"), val = tensor<int32, [2]>([1, 1])];
            tensor<int32, [4]> value_1_pad_0 = const()[name = tensor<string, []>("value_1_pad_0"), val = tensor<int32, [4]>([0, 0, 0, 0])];
            tensor<int32, [2]> value_1_dilations_0 = const()[name = tensor<string, []>("value_1_dilations_0"), val = tensor<int32, [2]>([1, 1])];
            tensor<int32, []> value_1_groups_0 = const()[name = tensor<string, []>("value_1_groups_0"), val = tensor<int32, []>(1)];
            tensor<fp16, [512, 512, 1, 1]> layers_0_self_attn_v_proj_weight_to_fp16 = const()[name = tensor<string, []>("layers_0_self_attn_v_proj_weight_to_fp16"), val = tensor<fp16, [512, 512, 1, 1]>(BLOBFILE(path = tensor<string, []>("@model_path/weights/weight.bin"), offset = tensor<uint64, []>(4411200)))];
            tensor<fp16, [512]> layers_0_self_attn_v_proj_bias_to_fp16 = const()[name = tensor<string, []>("layers_0_self_attn_v_proj_bias_to_fp16"), val = tensor<fp16, [512]>(BLOBFILE(path = tensor<string, []>("@model_path/weights/weight.bin"), offset = tensor<uint64, []>(4935552)))];
            tensor<fp16, [1, 512, 1, 1500]> value_1_cast_fp16 = conv(bias = layers_0_self_attn_v_proj_bias_to_fp16, dilations = value_1_dilations_0, groups = value_1_groups_0, pad = value_1_pad_0, pad_type = value_1_pad_type_0, strides = value_1_strides_0, weight = layers_0_self_attn_v_proj_weight_to_fp16, x = obj_1_cast_fp16)[name = tensor<string, []>("value_1_cast_fp16")];
            tensor<int32, [4]> var_190_begin_0 = const()[name = tensor<string, []>("op_190_begin_0"), val = tensor<int32, [4]>([0, 0, 0, 0])];
            tensor<int32, [4]> var_190_end_0 = const()[name = tensor<string, []>("op_190_end_0"), val = tensor<int32, [4]>([1, 64, 1, 1500])];
            tensor<bool, [4]> var_190_end_mask_0 = const()[name = tensor<string, []>("op_190_end_mask_0"), val = tensor<bool, [4]>([true, false, true, true])];
            tensor<fp16, [1, 64, 1, 1500]> var_190_cast_fp16 = slice_by_index(begin = var_190_begin_0, end = var_190_end_0, end_mask = var_190_end_mask_0, x = query_1_cast_fp16)[name = tensor<string, []>("op_190_cast_fp16")];
            tensor<int32, [4]> var_194_begin_0 = const()[name = tensor<string, []>("op_194_begin_0"), val = tensor<int32, [4]>([0, 64, 0, 0])];
            tensor<int32, [4]> var_194_end_0 = const()[name = tensor<string, []>("op_194_end_0"), val = tensor<int32, [4]>([1, 128, 1, 1500])];
            tensor<bool, [4]> var_194_end_mask_0 = const()[name = tensor<string, []>("op_194_end_mask_0"), val = tensor<bool, [4]>([true, false, true, true])];
            tensor<fp16, [1, 64, 1, 1500]> var_194_cast_fp16 = slice_by_index(begin = var_194_begin_0, end = var_194_end_0, end_mask = var_194_end_mask_0, x = query_1_cast_fp16)[name = tensor<string, []>("op_194_cast_fp16")];
            tensor<int32, [4]> var_198_begin_0 = const()[name = tensor<string, []>("op_198_begin_0"), val = tensor<int32, [4]>([0, 128, 0, 0])];
            tensor<int32, [4]> var_198_end_0 = const()[name = tensor<string, []>("op_198_end_0"), val = tensor<int32, [4]>([1, 192, 1, 1500])];
            tensor<bool, [4]> var_198_end_mask_0 = const()[name = tensor<string, []>("op_198_end_mask_0"), val = tensor<bool, [4]>([true, false, true, true])];
            tensor<fp16, [1, 64, 1, 1500]> var_198_cast_fp16 = slice_by_index(begin = var_198_begin_0, end = var_198_end_0, end_mask = var_198_end_mask_0, x = query_1_cast_fp16)[name = tensor<string, []>("op_198_cast_fp16")];
            tensor<int32, [4]> var_202_begin_0 = const()[name = tensor<string, []>("op_202_begin_0"), val = tensor<int32, [4]>([0, 192, 0, 0])];
            tensor<int32, [4]> var_202_end_0 = const()[name = tensor<string, []>("op_202_end_0"), val = tensor<int32, [4]>([1, 256, 1, 1500])];
            tensor<bool, [4]> var_202_end_mask_0 = const()[name = tensor<string, []>("op_202_end_mask_0"), val = tensor<bool, [4]>([true, false, true, true])];
            tensor<fp16, [1, 64, 1, 1500]> var_202_cast_fp16 = slice_by_index(begin = var_202_begin_0, end = var_202_end_0, end_mask = var_202_end_mask_0, x = query_1_cast_fp16)[name = tensor<string, []>("op_202_cast_fp16")];
            tensor<int32, [4]> var_206_begin_0 = const()[name = tensor<string, []>("op_206_begin_0"), val = tensor<int32, [4]>([0, 256, 0, 0])];
            tensor<int32, [4]> var_206_end_0 = const()[name = tensor<string, []>("op_206_end_0"), val = tensor<int32, [4]>([1, 320, 1, 1500])];
            tensor<bool, [4]> var_206_end_mask_0 = const()[name = tensor<string, []>("op_206_end_mask_0"), val = tensor<bool, [4]>([true, false, true, true])];
            tensor<fp16, [1, 64, 1, 1500]> var_206_cast_fp16 = slice_by_index(begin = var_206_begin_0, end = var_206_end_0, end_mask = var_206_end_mask_0, x = query_1_cast_fp16)[name = tensor<string, []>("op_206_cast_fp16")];
            tensor<int32, [4]> var_210_begin_0 = const()[name = tensor<string, []>("op_210_begin_0"), val = tensor<int32, [4]>([0, 320, 0, 0])];
            tensor<int32, [4]> var_210_end_0 = const()[name = tensor<string, []>("op_210_end_0"), val = tensor<int32, [4]>([1, 384, 1, 1500])];
            tensor<bool, [4]> var_210_end_mask_0 = const()[name = tensor<string, []>("op_210_end_mask_0"), val = tensor<bool, [4]>([true, false, true, true])];
            tensor<fp16, [1, 64, 1, 1500]> var_210_cast_fp16 = slice_by_index(begin = var_210_begin_0, end = var_210_end_0, end_mask = var_210_end_mask_0, x = query_1_cast_fp16)[name = tensor<string, []>("op_210_cast_fp16")];
            tensor<int32, [4]> var_214_begin_0 = const()[name = tensor<string, []>("op_214_begin_0"), val = tensor<int32, [4]>([0, 384, 0, 0])];
            tensor<int32, [4]> var_214_end_0 = const()[name = tensor<string, []>("op_214_end_0"), val = tensor<int32, [4]>([1, 448, 1, 1500])];
            tensor<bool, [4]> var_214_end_mask_0 = const()[name = tensor<string, []>("op_214_end_mask_0"), val = tensor<bool, [4]>([true, false, true, true])];
            tensor<fp16, [1, 64, 1, 1500]> var_214_cast_fp16 = slice_by_index(begin = var_214_begin_0, end = var_214_end_0, end_mask = var_214_end_mask_0, x = query_1_cast_fp16)[name = tensor<string, []>("op_214_cast_fp16")];
            tensor<int32, [4]> var_218_begin_0 = const()[name = tensor<string, []>("op_218_begin_0"), val = tensor<int32, [4]>([0, 448, 0, 0])];
            tensor<int32, [4]> var_218_end_0 = const()[name = tensor<string, []>("op_218_end_0"), val = tensor<int32, [4]>([1, 1, 1, 1500])];
            tensor<bool, [4]> var_218_end_mask_0 = const()[name = tensor<string, []>("op_218_end_mask_0"), val = tensor<bool, [4]>([true, true, true, true])];
            tensor<fp16, [1, 64, 1, 1500]> var_218_cast_fp16 = slice_by_index(begin = var_218_begin_0, end = var_218_end_0, end_mask = var_218_end_mask_0, x = query_1_cast_fp16)[name = tensor<string, []>("op_218_cast_fp16")];
            tensor<int32, [4]> var_221_begin_0 = const()[name = tensor<string, []>("op_221_begin_0"), val = tensor<int32, [4]>([0, 0, 0, 0])];
            tensor<int32, [4]> var_221_end_0 = const()[name = tensor<string, []>("op_221_end_0"), val = tensor<int32, [4]>([1, 64, 1, 256])];
            tensor<bool, [4]> var_221_end_mask_0 = const()[name = tensor<string, []>("op_221_end_mask_0"), val = tensor<bool, [4]>([true, true, true, false])];
            tensor<fp16, [1, 64, 1, 256]> var_221_cast_fp16 = slice_by_index(begin = var_221_begin_0, end = var_221_end_0, end_mask = var_221_end_mask_0, x = var_190_cast_fp16)[name = tensor<string, []>("op_221_cast_fp16")];
            tensor<int32, [4]> var_222_begin_0 = const()[name = tensor<string, []>("op_222_begin_0"), val = tensor<int32, [4]>([0, 0, 0, 256])];
            tensor<int32, [4]> var_222_end_0 = const()[name = tensor<string, []>("op_222_end_0"), val = tensor<int32, [4]>([1, 64, 1, 512])];
            tensor<bool, [4]> var_222_end_mask_0 = const()[name = tensor<string, []>("op_222_end_mask_0"), val = tensor<bool, [4]>([true, true, true, false])];
            tensor<fp16, [1, 64, 1, 256]> var_222_cast_fp16 = slice_by_index(begin = var_222_begin_0, end = var_222_end_0, end_mask = var_222_end_mask_0, x = var_190_cast_fp16)[name = tensor<string, []>("op_222_cast_fp16")];
            tensor<int32, [4]> var_223_begin_0 = const()[name = tensor<string, []>("op_223_begin_0"), val = tensor<int32, [4]>([0, 0, 0, 512])];
            tensor<int32, [4]> var_223_end_0 = const()[name = tensor<string, []>("op_223_end_0"), val = tensor<int32, [4]>([1, 64, 1, 768])];
            tensor<bool, [4]> var_223_end_mask_0 = const()[name = tensor<string, []>("op_223_end_mask_0"), val = tensor<bool, [4]>([true, true, true, false])];
            tensor<fp16, [1, 64, 1, 256]> var_223_cast_fp16 = slice_by_index(begin = var_223_begin_0, end = var_223_end_0, end_mask = var_223_end_mask_0, x = var_190_cast_fp16)[name = tensor<string, []>("op_223_cast_fp16")];
            tensor<int32, [4]> var_224_begin_0 = const()[name = tensor<string, []>("op_224_begin_0"), val = tensor<int32, [4]>([0, 0, 0, 768])];
            tensor<int32, [4]> var_224_end_0 = const()[name = tensor<string, []>("op_224_end_0"), val = tensor<int32, [4]>([1, 64, 1, 1024])];
            tensor<bool, [4]> var_224_end_mask_0 = const()[name = tensor<string, []>("op_224_end_mask_0"), val = tensor<bool, [4]>([true, true, true, false])];
            tensor<fp16, [1, 64, 1, 256]> var_224_cast_fp16 = slice_by_index(begin = var_224_begin_0, end = var_224_end_0, end_mask = var_224_end_mask_0, x = var_190_cast_fp16)[name = tensor<string, []>("op_224_cast_fp16")];
            tensor<int32, [4]> var_225_begin_0 = const()[name = tensor<string, []>("op_225_begin_0"), val = tensor<int32, [4]>([0, 0, 0, 1024])];
            tensor<int32, [4]> var_225_end_0 = const()[name = tensor<string, []>("op_225_end_0"), val = tensor<int32, [4]>([1, 64, 1, 1280])];
            tensor<bool, [4]> var_225_end_mask_0 = const()[name = tensor<string, []>("op_225_end_mask_0"), val = tensor<bool, [4]>([true, true, true, false])];
            tensor<fp16, [1, 64, 1, 256]> var_225_cast_fp16 = slice_by_index(begin = var_225_begin_0, end = var_225_end_0, end_mask = var_225_end_mask_0, x = var_190_cast_fp16)[name = tensor<string, []>("op_225_cast_fp16")];
            tensor<int32, [4]> var_226_begin_0 = const()[name = tensor<string, []>("op_226_begin_0"), val = tensor<int32, [4]>([0, 0, 0, 1280])];
            tensor<int32, [4]> var_226_end_0 = const()[name = tensor<string, []>("op_226_end_0"), val = tensor<int32, [4]>([1, 64, 1, 1])];
            tensor<bool, [4]> var_226_end_mask_0 = const()[name = tensor<string, []>("op_226_end_mask_0"), val = tensor<bool, [4]>([true, true, true, true])];
            tensor<fp16, [1, 64, 1, 220]> var_226_cast_fp16 = slice_by_index(begin = var_226_begin_0, end = var_226_end_0, end_mask = var_226_end_mask_0, x = var_190_cast_fp16)[name = tensor<string, []>("op_226_cast_fp16")];
            tensor<int32, [4]> var_227_begin_0 = const()[name = tensor<string, []>("op_227_begin_0"), val = tensor<int32, [4]>([0, 0, 0, 0])];
            tensor<int32, [4]> var_227_end_0 = const()[name = tensor<string, []>("op_227_end_0"), val = tensor<int32, [4]>([1, 64, 1, 256])];
            tensor<bool, [4]> var_227_end_mask_0 = const()[name = tensor<string, []>("op_227_end_mask_0"), val = tensor<bool, [4]>([true, true, true, false])];
            tensor<fp16, [1, 64, 1, 256]> var_227_cast_fp16 = slice_by_index(begin = var_227_begin_0, end = var_227_end_0, end_mask = var_227_end_mask_0, x = var_194_cast_fp16)[name = tensor<string, []>("op_227_cast_fp16")];
            tensor<int32, [4]> var_228_begin_0 = const()[name = tensor<string, []>("op_228_begin_0"), val = tensor<int32, [4]>([0, 0, 0, 256])];
            tensor<int32, [4]> var_228_end_0 = const()[name = tensor<string, []>("op_228_end_0"), val = tensor<int32, [4]>([1, 64, 1, 512])];
            tensor<bool, [4]> var_228_end_mask_0 = const()[name = tensor<string, []>("op_228_end_mask_0"), val = tensor<bool, [4]>([true, true, true, false])];
            tensor<fp16, [1, 64, 1, 256]> var_228_cast_fp16 = slice_by_index(begin = var_228_begin_0, end = var_228_end_0, end_mask = var_228_end_mask_0, x = var_194_cast_fp16)[name = tensor<string, []>("op_228_cast_fp16")];
            tensor<int32, [4]> var_229_begin_0 = const()[name = tensor<string, []>("op_229_begin_0"), val = tensor<int32, [4]>([0, 0, 0, 512])];
            tensor<int32, [4]> var_229_end_0 = const()[name = tensor<string, []>("op_229_end_0"), val = tensor<int32, [4]>([1, 64, 1, 768])];
            tensor<bool, [4]> var_229_end_mask_0 = const()[name = tensor<string, []>("op_229_end_mask_0"), val = tensor<bool, [4]>([true, true, true, false])];
            tensor<fp16, [1, 64, 1, 256]> var_229_cast_fp16 = slice_by_index(begin = var_229_begin_0, end = var_229_end_0, end_mask = var_229_end_mask_0, x = var_194_cast_fp16)[name = tensor<string, []>("op_229_cast_fp16")];
            tensor<int32, [4]> var_230_begin_0 = const()[name = tensor<string, []>("op_230_begin_0"), val = tensor<int32, [4]>([0, 0, 0, 768])];
            tensor<int32, [4]> var_230_end_0 = const()[name = tensor<string, []>("op_230_end_0"), val = tensor<int32, [4]>([1, 64, 1, 1024])];
            tensor<bool, [4]> var_230_end_mask_0 = const()[name = tensor<string, []>("op_230_end_mask_0"), val = tensor<bool, [4]>([true, true, true, false])];
            tensor<fp16, [1, 64, 1, 256]> var_230_cast_fp16 = slice_by_index(begin = var_230_begin_0, end = var_230_end_0, end_mask = var_230_end_mask_0, x = var_194_cast_fp16)[name = tensor<string, []>("op_230_cast_fp16")];
            tensor<int32, [4]> var_231_begin_0 = const()[name = tensor<string, []>("op_231_begin_0"), val = tensor<int32, [4]>([0, 0, 0, 1024])];
            tensor<int32, [4]> var_231_end_0 = const()[name = tensor<string, []>("op_231_end_0"), val = tensor<int32, [4]>([1, 64, 1, 1280])];
            tensor<bool, [4]> var_231_end_mask_0 = const()[name = tensor<string, []>("op_231_end_mask_0"), val = tensor<bool, [4]>([true, true, true, false])];
            tensor<fp16, [1, 64, 1, 256]> var_231_cast_fp16 = slice_by_index(begin = var_231_begin_0, end = var_231_end_0, end_mask = var_231_end_mask_0, x = var_194_cast_fp16)[name = tensor<string, []>("op_231_cast_fp16")];
            tensor<int32, [4]> var_232_begin_0 = const()[name = tensor<string, []>("op_232_begin_0"), val = tensor<int32, [4]>([0, 0, 0, 1280])];
            tensor<int32, [4]> var_232_end_0 = const()[name = tensor<string, []>("op_232_end_0"), val = tensor<int32, [4]>([1, 64, 1, 1])];
            tensor<bool, [4]> var_232_end_mask_0 = const()[name = tensor<string, []>("op_232_end_mask_0"), val = tensor<bool, [4]>([true, true, true, true])];
            tensor<fp16, [1, 64, 1, 220]> var_232_cast_fp16 = slice_by_index(begin = var_232_begin_0, end = var_232_end_0, end_mask = var_232_end_mask_0, x = var_194_cast_fp16)[name = tensor<string, []>("op_232_cast_fp16")];
            tensor<int32, [4]> var_233_begin_0 = const()[name = tensor<string, []>("op_233_begin_0"), val = tensor<int32, [4]>([0, 0, 0, 0])];
            tensor<int32, [4]> var_233_end_0 = const()[name = tensor<string, []>("op_233_end_0"), val = tensor<int32, [4]>([1, 64, 1, 256])];
            tensor<bool, [4]> var_233_end_mask_0 = const()[name = tensor<string, []>("op_233_end_mask_0"), val = tensor<bool, [4]>([true, true, true, false])];
            tensor<fp16, [1, 64, 1, 256]> var_233_cast_fp16 = slice_by_index(begin = var_233_begin_0, end = var_233_end_0, end_mask = var_233_end_mask_0, x = var_198_cast_fp16)[name = tensor<string, []>("op_233_cast_fp16")];
            tensor<int32, [4]> var_234_begin_0 = const()[name = tensor<string, []>("op_234_begin_0"), val = tensor<int32, [4]>([0, 0, 0, 256])];
            tensor<int32, [4]> var_234_end_0 = const()[name = tensor<string, []>("op_234_end_0"), val = tensor<int32, [4]>([1, 64, 1, 512])];
            tensor<bool, [4]> var_234_end_mask_0 = const()[name = tensor<string, []>("op_234_end_mask_0"), val = tensor<bool, [4]>([true, true, true, false])];
            tensor<fp16, [1, 64, 1, 256]> var_234_cast_fp16 = slice_by_index(begin = var_234_begin_0, end = var_234_end_0, end_mask = var_234_end_mask_0, x = var_198_cast_fp16)[name = tensor<string, []>("op_234_cast_fp16")];
            tensor<int32, [4]> var_235_begin_0 = const()[name = tensor<string, []>("op_235_begin_0"), val = tensor<int32, [4]>([0, 0, 0, 512])];
            tensor<int32, [4]> var_235_end_0 = const()[name = tensor<string, []>("op_235_end_0"), val = tensor<int32, [4]>([1, 64, 1, 768])];
            tensor<bool, [4]> var_235_end_mask_0 = const()[name = tensor<string, []>("op_235_end_mask_0"), val = tensor<bool, [4]>([true, true, true, false])];
            tensor<fp16, [1, 64, 1, 256]> var_235_cast_fp16 = slice_by_index(begin = var_235_begin_0, end = var_235_end_0, end_mask = var_235_end_mask_0, x = var_198_cast_fp16)[name = tensor<string, []>("op_235_cast_fp16")];
            tensor<int32, [4]> var_236_begin_0 = const()[name = tensor<string, []>("op_236_begin_0"), val = tensor<int32, [4]>([0, 0, 0, 768])];
            tensor<int32, [4]> var_236_end_0 = const()[name = tensor<string, []>("op_236_end_0"), val = tensor<int32, [4]>([1, 64, 1, 1024])];
            tensor<bool, [4]> var_236_end_mask_0 = const()[name = tensor<string, []>("op_236_end_mask_0"), val = tensor<bool, [4]>([true, true, true, false])];
            tensor<fp16, [1, 64, 1, 256]> var_236_cast_fp16 = slice_by_index(begin = var_236_begin_0, end = var_236_end_0, end_mask = var_236_end_mask_0, x = var_198_cast_fp16)[name = tensor<string, []>("op_236_cast_fp16")];
            tensor<int32, [4]> var_237_begin_0 = const()[name = tensor<string, []>("op_237_begin_0"), val = tensor<int32, [4]>([0, 0, 0, 1024])];
            tensor<int32, [4]> var_237_end_0 = const()[name = tensor<string, []>("op_237_end_0"), val = tensor<int32, [4]>([1, 64, 1, 1280])];
            tensor<bool, [4]> var_237_end_mask_0 = const()[name = tensor<string, []>("op_237_end_mask_0"), val = tensor<bool, [4]>([true, true, true, false])];
            tensor<fp16, [1, 64, 1, 256]> var_237_cast_fp16 = slice_by_index(begin = var_237_begin_0, end = var_237_end_0, end_mask = var_237_end_mask_0, x = var_198_cast_fp16)[name = tensor<string, []>("op_237_cast_fp16")];
            tensor<int32, [4]> var_238_begin_0 = const()[name = tensor<string, []>("op_238_begin_0"), val = tensor<int32, [4]>([0, 0, 0, 1280])];
            tensor<int32, [4]> var_238_end_0 = const()[name = tensor<string, []>("op_238_end_0"), val = tensor<int32, [4]>([1, 64, 1, 1])];
            tensor<bool, [4]> var_238_end_mask_0 = const()[name = tensor<string, []>("op_238_end_mask_0"), val = tensor<bool, [4]>([true, true, true, true])];
            tensor<fp16, [1, 64, 1, 220]> var_238_cast_fp16 = slice_by_index(begin = var_238_begin_0, end = var_238_end_0, end_mask = var_238_end_mask_0, x = var_198_cast_fp16)[name = tensor<string, []>("op_238_cast_fp16")];
            tensor<int32, [4]> var_239_begin_0 = const()[name = tensor<string, []>("op_239_begin_0"), val = tensor<int32, [4]>([0, 0, 0, 0])];
            tensor<int32, [4]> var_239_end_0 = const()[name = tensor<string, []>("op_239_end_0"), val = tensor<int32, [4]>([1, 64, 1, 256])];
            tensor<bool, [4]> var_239_end_mask_0 = const()[name = tensor<string, []>("op_239_end_mask_0"), val = tensor<bool, [4]>([true, true, true, false])];
            tensor<fp16, [1, 64, 1, 256]> var_239_cast_fp16 = slice_by_index(begin = var_239_begin_0, end = var_239_end_0, end_mask = var_239_end_mask_0, x = var_202_cast_fp16)[name = tensor<string, []>("op_239_cast_fp16")];
            tensor<int32, [4]> var_240_begin_0 = const()[name = tensor<string, []>("op_240_begin_0"), val = tensor<int32, [4]>([0, 0, 0, 256])];
            tensor<int32, [4]> var_240_end_0 = const()[name = tensor<string, []>("op_240_end_0"), val = tensor<int32, [4]>([1, 64, 1, 512])];
            tensor<bool, [4]> var_240_end_mask_0 = const()[name = tensor<string, []>("op_240_end_mask_0"), val = tensor<bool, [4]>([true, true, true, false])];
            tensor<fp16, [1, 64, 1, 256]> var_240_cast_fp16 = slice_by_index(begin = var_240_begin_0, end = var_240_end_0, end_mask = var_240_end_mask_0, x = var_202_cast_fp16)[name = tensor<string, []>("op_240_cast_fp16")];
            tensor<int32, [4]> var_241_begin_0 = const()[name = tensor<string, []>("op_241_begin_0"), val = tensor<int32, [4]>([0, 0, 0, 512])];
            tensor<int32, [4]> var_241_end_0 = const()[name = tensor<string, []>("op_241_end_0"), val = tensor<int32, [4]>([1, 64, 1, 768])];
            tensor<bool, [4]> var_241_end_mask_0 = const()[name = tensor<string, []>("op_241_end_mask_0"), val = tensor<bool, [4]>([true, true, true, false])];
            tensor<fp16, [1, 64, 1, 256]> var_241_cast_fp16 = slice_by_index(begin = var_241_begin_0, end = var_241_end_0, end_mask = var_241_end_mask_0, x = var_202_cast_fp16)[name = tensor<string, []>("op_241_cast_fp16")];
            tensor<int32, [4]> var_242_begin_0 = const()[name = tensor<string, []>("op_242_begin_0"), val = tensor<int32, [4]>([0, 0, 0, 768])];
            tensor<int32, [4]> var_242_end_0 = const()[name = tensor<string, []>("op_242_end_0"), val = tensor<int32, [4]>([1, 64, 1, 1024])];
            tensor<bool, [4]> var_242_end_mask_0 = const()[name = tensor<string, []>("op_242_end_mask_0"), val = tensor<bool, [4]>([true, true, true, false])];
            tensor<fp16, [1, 64, 1, 256]> var_242_cast_fp16 = slice_by_index(begin = var_242_begin_0, end = var_242_end_0, end_mask = var_242_end_mask_0, x = var_202_cast_fp16)[name = tensor<string, []>("op_242_cast_fp16")];
            tensor<int32, [4]> var_243_begin_0 = const()[name = tensor<string, []>("op_243_begin_0"), val = tensor<int32, [4]>([0, 0, 0, 1024])];
            tensor<int32, [4]> var_243_end_0 = const()[name = tensor<string, []>("op_243_end_0"), val = tensor<int32, [4]>([1, 64, 1, 1280])];
            tensor<bool, [4]> var_243_end_mask_0 = const()[name = tensor<string, []>("op_243_end_mask_0"), val = tensor<bool, [4]>([true, true, true, false])];
            tensor<fp16, [1, 64, 1, 256]> var_243_cast_fp16 = slice_by_index(begin = var_243_begin_0, end = var_243_end_0, end_mask = var_243_end_mask_0, x = var_202_cast_fp16)[name = tensor<string, []>("op_243_cast_fp16")];
            tensor<int32, [4]> var_244_begin_0 = const()[name = tensor<string, []>("op_244_begin_0"), val = tensor<int32, [4]>([0, 0, 0, 1280])];
            tensor<int32, [4]> var_244_end_0 = const()[name = tensor<string, []>("op_244_end_0"), val = tensor<int32, [4]>([1, 64, 1, 1])];
            tensor<bool, [4]> var_244_end_mask_0 = const()[name = tensor<string, []>("op_244_end_mask_0"), val = tensor<bool, [4]>([true, true, true, true])];
            tensor<fp16, [1, 64, 1, 220]> var_244_cast_fp16 = slice_by_index(begin = var_244_begin_0, end = var_244_end_0, end_mask = var_244_end_mask_0, x = var_202_cast_fp16)[name = tensor<string, []>("op_244_cast_fp16")];
            tensor<int32, [4]> var_245_begin_0 = const()[name = tensor<string, []>("op_245_begin_0"), val = tensor<int32, [4]>([0, 0, 0, 0])];
            tensor<int32, [4]> var_245_end_0 = const()[name = tensor<string, []>("op_245_end_0"), val = tensor<int32, [4]>([1, 64, 1, 256])];
            tensor<bool, [4]> var_245_end_mask_0 = const()[name = tensor<string, []>("op_245_end_mask_0"), val = tensor<bool, [4]>([true, true, true, false])];
            tensor<fp16, [1, 64, 1, 256]> var_245_cast_fp16 = slice_by_index(begin = var_245_begin_0, end = var_245_end_0, end_mask = var_245_end_mask_0, x = var_206_cast_fp16)[name = tensor<string, []>("op_245_cast_fp16")];
            tensor<int32, [4]> var_246_begin_0 = const()[name = tensor<string, []>("op_246_begin_0"), val = tensor<int32, [4]>([0, 0, 0, 256])];
            tensor<int32, [4]> var_246_end_0 = const()[name = tensor<string, []>("op_246_end_0"), val = tensor<int32, [4]>([1, 64, 1, 512])];
            tensor<bool, [4]> var_246_end_mask_0 = const()[name = tensor<string, []>("op_246_end_mask_0"), val = tensor<bool, [4]>([true, true, true, false])];
            tensor<fp16, [1, 64, 1, 256]> var_246_cast_fp16 = slice_by_index(begin = var_246_begin_0, end = var_246_end_0, end_mask = var_246_end_mask_0, x = var_206_cast_fp16)[name = tensor<string, []>("op_246_cast_fp16")];
            tensor<int32, [4]> var_247_begin_0 = const()[name = tensor<string, []>("op_247_begin_0"), val = tensor<int32, [4]>([0, 0, 0, 512])];
            tensor<int32, [4]> var_247_end_0 = const()[name = tensor<string, []>("op_247_end_0"), val = tensor<int32, [4]>([1, 64, 1, 768])];
            tensor<bool, [4]> var_247_end_mask_0 = const()[name = tensor<string, []>("op_247_end_mask_0"), val = tensor<bool, [4]>([true, true, true, false])];
            tensor<fp16, [1, 64, 1, 256]> var_247_cast_fp16 = slice_by_index(begin = var_247_begin_0, end = var_247_end_0, end_mask = var_247_end_mask_0, x = var_206_cast_fp16)[name = tensor<string, []>("op_247_cast_fp16")];
            tensor<int32, [4]> var_248_begin_0 = const()[name = tensor<string, []>("op_248_begin_0"), val = tensor<int32, [4]>([0, 0, 0, 768])];
            tensor<int32, [4]> var_248_end_0 = const()[name = tensor<string, []>("op_248_end_0"), val = tensor<int32, [4]>([1, 64, 1, 1024])];
            tensor<bool, [4]> var_248_end_mask_0 = const()[name = tensor<string, []>("op_248_end_mask_0"), val = tensor<bool, [4]>([true, true, true, false])];
            tensor<fp16, [1, 64, 1, 256]> var_248_cast_fp16 = slice_by_index(begin = var_248_begin_0, end = var_248_end_0, end_mask = var_248_end_mask_0, x = var_206_cast_fp16)[name = tensor<string, []>("op_248_cast_fp16")];
            tensor<int32, [4]> var_249_begin_0 = const()[name = tensor<string, []>("op_249_begin_0"), val = tensor<int32, [4]>([0, 0, 0, 1024])];
            tensor<int32, [4]> var_249_end_0 = const()[name = tensor<string, []>("op_249_end_0"), val = tensor<int32, [4]>([1, 64, 1, 1280])];
            tensor<bool, [4]> var_249_end_mask_0 = const()[name = tensor<string, []>("op_249_end_mask_0"), val = tensor<bool, [4]>([true, true, true, false])];
            tensor<fp16, [1, 64, 1, 256]> var_249_cast_fp16 = slice_by_index(begin = var_249_begin_0, end = var_249_end_0, end_mask = var_249_end_mask_0, x = var_206_cast_fp16)[name = tensor<string, []>("op_249_cast_fp16")];
            tensor<int32, [4]> var_250_begin_0 = const()[name = tensor<string, []>("op_250_begin_0"), val = tensor<int32, [4]>([0, 0, 0, 1280])];
            tensor<int32, [4]> var_250_end_0 = const()[name = tensor<string, []>("op_250_end_0"), val = tensor<int32, [4]>([1, 64, 1, 1])];
            tensor<bool, [4]> var_250_end_mask_0 = const()[name = tensor<string, []>("op_250_end_mask_0"), val = tensor<bool, [4]>([true, true, true, true])];
            tensor<fp16, [1, 64, 1, 220]> var_250_cast_fp16 = slice_by_index(begin = var_250_begin_0, end = var_250_end_0, end_mask = var_250_end_mask_0, x = var_206_cast_fp16)[name = tensor<string, []>("op_250_cast_fp16")];
            tensor<int32, [4]> var_251_begin_0 = const()[name = tensor<string, []>("op_251_begin_0"), val = tensor<int32, [4]>([0, 0, 0, 0])];
            tensor<int32, [4]> var_251_end_0 = const()[name = tensor<string, []>("op_251_end_0"), val = tensor<int32, [4]>([1, 64, 1, 256])];
            tensor<bool, [4]> var_251_end_mask_0 = const()[name = tensor<string, []>("op_251_end_mask_0"), val = tensor<bool, [4]>([true, true, true, false])];
            tensor<fp16, [1, 64, 1, 256]> var_251_cast_fp16 = slice_by_index(begin = var_251_begin_0, end = var_251_end_0, end_mask = var_251_end_mask_0, x = var_210_cast_fp16)[name = tensor<string, []>("op_251_cast_fp16")];
            tensor<int32, [4]> var_252_begin_0 = const()[name = tensor<string, []>("op_252_begin_0"), val = tensor<int32, [4]>([0, 0, 0, 256])];
            tensor<int32, [4]> var_252_end_0 = const()[name = tensor<string, []>("op_252_end_0"), val = tensor<int32, [4]>([1, 64, 1, 512])];
            tensor<bool, [4]> var_252_end_mask_0 = const()[name = tensor<string, []>("op_252_end_mask_0"), val = tensor<bool, [4]>([true, true, true, false])];
            tensor<fp16, [1, 64, 1, 256]> var_252_cast_fp16 = slice_by_index(begin = var_252_begin_0, end = var_252_end_0, end_mask = var_252_end_mask_0, x = var_210_cast_fp16)[name = tensor<string, []>("op_252_cast_fp16")];
            tensor<int32, [4]> var_253_begin_0 = const()[name = tensor<string, []>("op_253_begin_0"), val = tensor<int32, [4]>([0, 0, 0, 512])];
            tensor<int32, [4]> var_253_end_0 = const()[name = tensor<string, []>("op_253_end_0"), val = tensor<int32, [4]>([1, 64, 1, 768])];
            tensor<bool, [4]> var_253_end_mask_0 = const()[name = tensor<string, []>("op_253_end_mask_0"), val = tensor<bool, [4]>([true, true, true, false])];
            tensor<fp16, [1, 64, 1, 256]> var_253_cast_fp16 = slice_by_index(begin = var_253_begin_0, end = var_253_end_0, end_mask = var_253_end_mask_0, x = var_210_cast_fp16)[name = tensor<string, []>("op_253_cast_fp16")];
            tensor<int32, [4]> var_254_begin_0 = const()[name = tensor<string, []>("op_254_begin_0"), val = tensor<int32, [4]>([0, 0, 0, 768])];
            tensor<int32, [4]> var_254_end_0 = const()[name = tensor<string, []>("op_254_end_0"), val = tensor<int32, [4]>([1, 64, 1, 1024])];
            tensor<bool, [4]> var_254_end_mask_0 = const()[name = tensor<string, []>("op_254_end_mask_0"), val = tensor<bool, [4]>([true, true, true, false])];
            tensor<fp16, [1, 64, 1, 256]> var_254_cast_fp16 = slice_by_index(begin = var_254_begin_0, end = var_254_end_0, end_mask = var_254_end_mask_0, x = var_210_cast_fp16)[name = tensor<string, []>("op_254_cast_fp16")];
            tensor<int32, [4]> var_255_begin_0 = const()[name = tensor<string, []>("op_255_begin_0"), val = tensor<int32, [4]>([0, 0, 0, 1024])];
            tensor<int32, [4]> var_255_end_0 = const()[name = tensor<string, []>("op_255_end_0"), val = tensor<int32, [4]>([1, 64, 1, 1280])];
            tensor<bool, [4]> var_255_end_mask_0 = const()[name = tensor<string, []>("op_255_end_mask_0"), val = tensor<bool, [4]>([true, true, true, false])];
            tensor<fp16, [1, 64, 1, 256]> var_255_cast_fp16 = slice_by_index(begin = var_255_begin_0, end = var_255_end_0, end_mask = var_255_end_mask_0, x = var_210_cast_fp16)[name = tensor<string, []>("op_255_cast_fp16")];
            tensor<int32, [4]> var_256_begin_0 = const()[name = tensor<string, []>("op_256_begin_0"), val = tensor<int32, [4]>([0, 0, 0, 1280])];
            tensor<int32, [4]> var_256_end_0 = const()[name = tensor<string, []>("op_256_end_0"), val = tensor<int32, [4]>([1, 64, 1, 1])];
            tensor<bool, [4]> var_256_end_mask_0 = const()[name = tensor<string, []>("op_256_end_mask_0"), val = tensor<bool, [4]>([true, true, true, true])];
            tensor<fp16, [1, 64, 1, 220]> var_256_cast_fp16 = slice_by_index(begin = var_256_begin_0, end = var_256_end_0, end_mask = var_256_end_mask_0, x = var_210_cast_fp16)[name = tensor<string, []>("op_256_cast_fp16")];
            tensor<int32, [4]> var_257_begin_0 = const()[name = tensor<string, []>("op_257_begin_0"), val = tensor<int32, [4]>([0, 0, 0, 0])];
            tensor<int32, [4]> var_257_end_0 = const()[name = tensor<string, []>("op_257_end_0"), val = tensor<int32, [4]>([1, 64, 1, 256])];
            tensor<bool, [4]> var_257_end_mask_0 = const()[name = tensor<string, []>("op_257_end_mask_0"), val = tensor<bool, [4]>([true, true, true, false])];
            tensor<fp16, [1, 64, 1, 256]> var_257_cast_fp16 = slice_by_index(begin = var_257_begin_0, end = var_257_end_0, end_mask = var_257_end_mask_0, x = var_214_cast_fp16)[name = tensor<string, []>("op_257_cast_fp16")];
            tensor<int32, [4]> var_258_begin_0 = const()[name = tensor<string, []>("op_258_begin_0"), val = tensor<int32, [4]>([0, 0, 0, 256])];
            tensor<int32, [4]> var_258_end_0 = const()[name = tensor<string, []>("op_258_end_0"), val = tensor<int32, [4]>([1, 64, 1, 512])];
            tensor<bool, [4]> var_258_end_mask_0 = const()[name = tensor<string, []>("op_258_end_mask_0"), val = tensor<bool, [4]>([true, true, true, false])];
            tensor<fp16, [1, 64, 1, 256]> var_258_cast_fp16 = slice_by_index(begin = var_258_begin_0, end = var_258_end_0, end_mask = var_258_end_mask_0, x = var_214_cast_fp16)[name = tensor<string, []>("op_258_cast_fp16")];
            tensor<int32, [4]> var_259_begin_0 = const()[name = tensor<string, []>("op_259_begin_0"), val = tensor<int32, [4]>([0, 0, 0, 512])];
            tensor<int32, [4]> var_259_end_0 = const()[name = tensor<string, []>("op_259_end_0"), val = tensor<int32, [4]>([1, 64, 1, 768])];
            tensor<bool, [4]> var_259_end_mask_0 = const()[name = tensor<string, []>("op_259_end_mask_0"), val = tensor<bool, [4]>([true, true, true, false])];
            tensor<fp16, [1, 64, 1, 256]> var_259_cast_fp16 = slice_by_index(begin = var_259_begin_0, end = var_259_end_0, end_mask = var_259_end_mask_0, x = var_214_cast_fp16)[name = tensor<string, []>("op_259_cast_fp16")];
            tensor<int32, [4]> var_260_begin_0 = const()[name = tensor<string, []>("op_260_begin_0"), val = tensor<int32, [4]>([0, 0, 0, 768])];
            tensor<int32, [4]> var_260_end_0 = const()[name = tensor<string, []>("op_260_end_0"), val = tensor<int32, [4]>([1, 64, 1, 1024])];
            tensor<bool, [4]> var_260_end_mask_0 = const()[name = tensor<string, []>("op_260_end_mask_0"), val = tensor<bool, [4]>([true, true, true, false])];
            tensor<fp16, [1, 64, 1, 256]> var_260_cast_fp16 = slice_by_index(begin = var_260_begin_0, end = var_260_end_0, end_mask = var_260_end_mask_0, x = var_214_cast_fp16)[name = tensor<string, []>("op_260_cast_fp16")];
            tensor<int32, [4]> var_261_begin_0 = const()[name = tensor<string, []>("op_261_begin_0"), val = tensor<int32, [4]>([0, 0, 0, 1024])];
            tensor<int32, [4]> var_261_end_0 = const()[name = tensor<string, []>("op_261_end_0"), val = tensor<int32, [4]>([1, 64, 1, 1280])];
            tensor<bool, [4]> var_261_end_mask_0 = const()[name = tensor<string, []>("op_261_end_mask_0"), val = tensor<bool, [4]>([true, true, true, false])];
            tensor<fp16, [1, 64, 1, 256]> var_261_cast_fp16 = slice_by_index(begin = var_261_begin_0, end = var_261_end_0, end_mask = var_261_end_mask_0, x = var_214_cast_fp16)[name = tensor<string, []>("op_261_cast_fp16")];
            tensor<int32, [4]> var_262_begin_0 = const()[name = tensor<string, []>("op_262_begin_0"), val = tensor<int32, [4]>([0, 0, 0, 1280])];
            tensor<int32, [4]> var_262_end_0 = const()[name = tensor<string, []>("op_262_end_0"), val = tensor<int32, [4]>([1, 64, 1, 1])];
            tensor<bool, [4]> var_262_end_mask_0 = const()[name = tensor<string, []>("op_262_end_mask_0"), val = tensor<bool, [4]>([true, true, true, true])];
            tensor<fp16, [1, 64, 1, 220]> var_262_cast_fp16 = slice_by_index(begin = var_262_begin_0, end = var_262_end_0, end_mask = var_262_end_mask_0, x = var_214_cast_fp16)[name = tensor<string, []>("op_262_cast_fp16")];
            tensor<int32, [4]> var_263_begin_0 = const()[name = tensor<string, []>("op_263_begin_0"), val = tensor<int32, [4]>([0, 0, 0, 0])];
            tensor<int32, [4]> var_263_end_0 = const()[name = tensor<string, []>("op_263_end_0"), val = tensor<int32, [4]>([1, 64, 1, 256])];
            tensor<bool, [4]> var_263_end_mask_0 = const()[name = tensor<string, []>("op_263_end_mask_0"), val = tensor<bool, [4]>([true, true, true, false])];
            tensor<fp16, [1, 64, 1, 256]> var_263_cast_fp16 = slice_by_index(begin = var_263_begin_0, end = var_263_end_0, end_mask = var_263_end_mask_0, x = var_218_cast_fp16)[name = tensor<string, []>("op_263_cast_fp16")];
            tensor<int32, [4]> var_264_begin_0 = const()[name = tensor<string, []>("op_264_begin_0"), val = tensor<int32, [4]>([0, 0, 0, 256])];
            tensor<int32, [4]> var_264_end_0 = const()[name = tensor<string, []>("op_264_end_0"), val = tensor<int32, [4]>([1, 64, 1, 512])];
            tensor<bool, [4]> var_264_end_mask_0 = const()[name = tensor<string, []>("op_264_end_mask_0"), val = tensor<bool, [4]>([true, true, true, false])];
            tensor<fp16, [1, 64, 1, 256]> var_264_cast_fp16 = slice_by_index(begin = var_264_begin_0, end = var_264_end_0, end_mask = var_264_end_mask_0, x = var_218_cast_fp16)[name = tensor<string, []>("op_264_cast_fp16")];
            tensor<int32, [4]> var_265_begin_0 = const()[name = tensor<string, []>("op_265_begin_0"), val = tensor<int32, [4]>([0, 0, 0, 512])];
            tensor<int32, [4]> var_265_end_0 = const()[name = tensor<string, []>("op_265_end_0"), val = tensor<int32, [4]>([1, 64, 1, 768])];
            tensor<bool, [4]> var_265_end_mask_0 = const()[name = tensor<string, []>("op_265_end_mask_0"), val = tensor<bool, [4]>([true, true, true, false])];
            tensor<fp16, [1, 64, 1, 256]> var_265_cast_fp16 = slice_by_index(begin = var_265_begin_0, end = var_265_end_0, end_mask = var_265_end_mask_0, x = var_218_cast_fp16)[name = tensor<string, []>("op_265_cast_fp16")];
            tensor<int32, [4]> var_266_begin_0 = const()[name = tensor<string, []>("op_266_begin_0"), val = tensor<int32, [4]>([0, 0, 0, 768])];
            tensor<int32, [4]> var_266_end_0 = const()[name = tensor<string, []>("op_266_end_0"), val = tensor<int32, [4]>([1, 64, 1, 1024])];
            tensor<bool, [4]> var_266_end_mask_0 = const()[name = tensor<string, []>("op_266_end_mask_0"), val = tensor<bool, [4]>([true, true, true, false])];
            tensor<fp16, [1, 64, 1, 256]> var_266_cast_fp16 = slice_by_index(begin = var_266_begin_0, end = var_266_end_0, end_mask = var_266_end_mask_0, x = var_218_cast_fp16)[name = tensor<string, []>("op_266_cast_fp16")];
            tensor<int32, [4]> var_267_begin_0 = const()[name = tensor<string, []>("op_267_begin_0"), val = tensor<int32, [4]>([0, 0, 0, 1024])];
            tensor<int32, [4]> var_267_end_0 = const()[name = tensor<string, []>("op_267_end_0"), val = tensor<int32, [4]>([1, 64, 1, 1280])];
            tensor<bool, [4]> var_267_end_mask_0 = const()[name = tensor<string, []>("op_267_end_mask_0"), val = tensor<bool, [4]>([true, true, true, false])];
            tensor<fp16, [1, 64, 1, 256]> var_267_cast_fp16 = slice_by_index(begin = var_267_begin_0, end = var_267_end_0, end_mask = var_267_end_mask_0, x = var_218_cast_fp16)[name = tensor<string, []>("op_267_cast_fp16")];
            tensor<int32, [4]> var_268_begin_0 = const()[name = tensor<string, []>("op_268_begin_0"), val = tensor<int32, [4]>([0, 0, 0, 1280])];
            tensor<int32, [4]> var_268_end_0 = const()[name = tensor<string, []>("op_268_end_0"), val = tensor<int32, [4]>([1, 64, 1, 1])];
            tensor<bool, [4]> var_268_end_mask_0 = const()[name = tensor<string, []>("op_268_end_mask_0"), val = tensor<bool, [4]>([true, true, true, true])];
            tensor<fp16, [1, 64, 1, 220]> var_268_cast_fp16 = slice_by_index(begin = var_268_begin_0, end = var_268_end_0, end_mask = var_268_end_mask_0, x = var_218_cast_fp16)[name = tensor<string, []>("op_268_cast_fp16")];
            tensor<int32, [4]> k_1_perm_0 = const()[name = tensor<string, []>("k_1_perm_0"), val = tensor<int32, [4]>([0, 3, 2, 1])];
            tensor<int32, [4]> var_273_begin_0 = const()[name = tensor<string, []>("op_273_begin_0"), val = tensor<int32, [4]>([0, 0, 0, 0])];
            tensor<int32, [4]> var_273_end_0 = const()[name = tensor<string, []>("op_273_end_0"), val = tensor<int32, [4]>([1, 1500, 1, 64])];
            tensor<bool, [4]> var_273_end_mask_0 = const()[name = tensor<string, []>("op_273_end_mask_0"), val = tensor<bool, [4]>([true, true, true, false])];
            tensor<fp16, [1, 1500, 1, 512]> k_1_cast_fp16 = transpose(perm = k_1_perm_0, x = key_1_cast_fp16)[name = tensor<string, []>("transpose_5")];
            tensor<fp16, [1, 1500, 1, 64]> var_273_cast_fp16 = slice_by_index(begin = var_273_begin_0, end = var_273_end_0, end_mask = var_273_end_mask_0, x = k_1_cast_fp16)[name = tensor<string, []>("op_273_cast_fp16")];
            tensor<int32, [4]> var_277_begin_0 = const()[name = tensor<string, []>("op_277_begin_0"), val = tensor<int32, [4]>([0, 0, 0, 64])];
            tensor<int32, [4]> var_277_end_0 = const()[name = tensor<string, []>("op_277_end_0"), val = tensor<int32, [4]>([1, 1500, 1, 128])];
            tensor<bool, [4]> var_277_end_mask_0 = const()[name = tensor<string, []>("op_277_end_mask_0"), val = tensor<bool, [4]>([true, true, true, false])];
            tensor<fp16, [1, 1500, 1, 64]> var_277_cast_fp16 = slice_by_index(begin = var_277_begin_0, end = var_277_end_0, end_mask = var_277_end_mask_0, x = k_1_cast_fp16)[name = tensor<string, []>("op_277_cast_fp16")];
            tensor<int32, [4]> var_281_begin_0 = const()[name = tensor<string, []>("op_281_begin_0"), val = tensor<int32, [4]>([0, 0, 0, 128])];
            tensor<int32, [4]> var_281_end_0 = const()[name = tensor<string, []>("op_281_end_0"), val = tensor<int32, [4]>([1, 1500, 1, 192])];
            tensor<bool, [4]> var_281_end_mask_0 = const()[name = tensor<string, []>("op_281_end_mask_0"), val = tensor<bool, [4]>([true, true, true, false])];
            tensor<fp16, [1, 1500, 1, 64]> var_281_cast_fp16 = slice_by_index(begin = var_281_begin_0, end = var_281_end_0, end_mask = var_281_end_mask_0, x = k_1_cast_fp16)[name = tensor<string, []>("op_281_cast_fp16")];
            tensor<int32, [4]> var_285_begin_0 = const()[name = tensor<string, []>("op_285_begin_0"), val = tensor<int32, [4]>([0, 0, 0, 192])];
            tensor<int32, [4]> var_285_end_0 = const()[name = tensor<string, []>("op_285_end_0"), val = tensor<int32, [4]>([1, 1500, 1, 256])];
            tensor<bool, [4]> var_285_end_mask_0 = const()[name = tensor<string, []>("op_285_end_mask_0"), val = tensor<bool, [4]>([true, true, true, false])];
            tensor<fp16, [1, 1500, 1, 64]> var_285_cast_fp16 = slice_by_index(begin = var_285_begin_0, end = var_285_end_0, end_mask = var_285_end_mask_0, x = k_1_cast_fp16)[name = tensor<string, []>("op_285_cast_fp16")];
            tensor<int32, [4]> var_289_begin_0 = const()[name = tensor<string, []>("op_289_begin_0"), val = tensor<int32, [4]>([0, 0, 0, 256])];
            tensor<int32, [4]> var_289_end_0 = const()[name = tensor<string, []>("op_289_end_0"), val = tensor<int32, [4]>([1, 1500, 1, 320])];
            tensor<bool, [4]> var_289_end_mask_0 = const()[name = tensor<string, []>("op_289_end_mask_0"), val = tensor<bool, [4]>([true, true, true, false])];
            tensor<fp16, [1, 1500, 1, 64]> var_289_cast_fp16 = slice_by_index(begin = var_289_begin_0, end = var_289_end_0, end_mask = var_289_end_mask_0, x = k_1_cast_fp16)[name = tensor<string, []>("op_289_cast_fp16")];
            tensor<int32, [4]> var_293_begin_0 = const()[name = tensor<string, []>("op_293_begin_0"), val = tensor<int32, [4]>([0, 0, 0, 320])];
            tensor<int32, [4]> var_293_end_0 = const()[name = tensor<string, []>("op_293_end_0"), val = tensor<int32, [4]>([1, 1500, 1, 384])];
            tensor<bool, [4]> var_293_end_mask_0 = const()[name = tensor<string, []>("op_293_end_mask_0"), val = tensor<bool, [4]>([true, true, true, false])];
            tensor<fp16, [1, 1500, 1, 64]> var_293_cast_fp16 = slice_by_index(begin = var_293_begin_0, end = var_293_end_0, end_mask = var_293_end_mask_0, x = k_1_cast_fp16)[name = tensor<string, []>("op_293_cast_fp16")];
            tensor<int32, [4]> var_297_begin_0 = const()[name = tensor<string, []>("op_297_begin_0"), val = tensor<int32, [4]>([0, 0, 0, 384])];
            tensor<int32, [4]> var_297_end_0 = const()[name = tensor<string, []>("op_297_end_0"), val = tensor<int32, [4]>([1, 1500, 1, 448])];
            tensor<bool, [4]> var_297_end_mask_0 = const()[name = tensor<string, []>("op_297_end_mask_0"), val = tensor<bool, [4]>([true, true, true, false])];
            tensor<fp16, [1, 1500, 1, 64]> var_297_cast_fp16 = slice_by_index(begin = var_297_begin_0, end = var_297_end_0, end_mask = var_297_end_mask_0, x = k_1_cast_fp16)[name = tensor<string, []>("op_297_cast_fp16")];
            tensor<int32, [4]> var_301_begin_0 = const()[name = tensor<string, []>("op_301_begin_0"), val = tensor<int32, [4]>([0, 0, 0, 448])];
            tensor<int32, [4]> var_301_end_0 = const()[name = tensor<string, []>("op_301_end_0"), val = tensor<int32, [4]>([1, 1500, 1, 1])];
            tensor<bool, [4]> var_301_end_mask_0 = const()[name = tensor<string, []>("op_301_end_mask_0"), val = tensor<bool, [4]>([true, true, true, true])];
            tensor<fp16, [1, 1500, 1, 64]> var_301_cast_fp16 = slice_by_index(begin = var_301_begin_0, end = var_301_end_0, end_mask = var_301_end_mask_0, x = k_1_cast_fp16)[name = tensor<string, []>("op_301_cast_fp16")];
            tensor<int32, [4]> var_303_begin_0 = const()[name = tensor<string, []>("op_303_begin_0"), val = tensor<int32, [4]>([0, 0, 0, 0])];
            tensor<int32, [4]> var_303_end_0 = const()[name = tensor<string, []>("op_303_end_0"), val = tensor<int32, [4]>([1, 64, 1, 1500])];
            tensor<bool, [4]> var_303_end_mask_0 = const()[name = tensor<string, []>("op_303_end_mask_0"), val = tensor<bool, [4]>([true, false, true, true])];
            tensor<fp16, [1, 64, 1, 1500]> var_303_cast_fp16 = slice_by_index(begin = var_303_begin_0, end = var_303_end_0, end_mask = var_303_end_mask_0, x = value_1_cast_fp16)[name = tensor<string, []>("op_303_cast_fp16")];
            tensor<int32, [4]> var_307_begin_0 = const()[name = tensor<string, []>("op_307_begin_0"), val = tensor<int32, [4]>([0, 64, 0, 0])];
            tensor<int32, [4]> var_307_end_0 = const()[name = tensor<string, []>("op_307_end_0"), val = tensor<int32, [4]>([1, 128, 1, 1500])];
            tensor<bool, [4]> var_307_end_mask_0 = const()[name = tensor<string, []>("op_307_end_mask_0"), val = tensor<bool, [4]>([true, false, true, true])];
            tensor<fp16, [1, 64, 1, 1500]> var_307_cast_fp16 = slice_by_index(begin = var_307_begin_0, end = var_307_end_0, end_mask = var_307_end_mask_0, x = value_1_cast_fp16)[name = tensor<string, []>("op_307_cast_fp16")];
            tensor<int32, [4]> var_311_begin_0 = const()[name = tensor<string, []>("op_311_begin_0"), val = tensor<int32, [4]>([0, 128, 0, 0])];
            tensor<int32, [4]> var_311_end_0 = const()[name = tensor<string, []>("op_311_end_0"), val = tensor<int32, [4]>([1, 192, 1, 1500])];
            tensor<bool, [4]> var_311_end_mask_0 = const()[name = tensor<string, []>("op_311_end_mask_0"), val = tensor<bool, [4]>([true, false, true, true])];
            tensor<fp16, [1, 64, 1, 1500]> var_311_cast_fp16 = slice_by_index(begin = var_311_begin_0, end = var_311_end_0, end_mask = var_311_end_mask_0, x = value_1_cast_fp16)[name = tensor<string, []>("op_311_cast_fp16")];
            tensor<int32, [4]> var_315_begin_0 = const()[name = tensor<string, []>("op_315_begin_0"), val = tensor<int32, [4]>([0, 192, 0, 0])];
            tensor<int32, [4]> var_315_end_0 = const()[name = tensor<string, []>("op_315_end_0"), val = tensor<int32, [4]>([1, 256, 1, 1500])];
            tensor<bool, [4]> var_315_end_mask_0 = const()[name = tensor<string, []>("op_315_end_mask_0"), val = tensor<bool, [4]>([true, false, true, true])];
            tensor<fp16, [1, 64, 1, 1500]> var_315_cast_fp16 = slice_by_index(begin = var_315_begin_0, end = var_315_end_0, end_mask = var_315_end_mask_0, x = value_1_cast_fp16)[name = tensor<string, []>("op_315_cast_fp16")];
            tensor<int32, [4]> var_319_begin_0 = const()[name = tensor<string, []>("op_319_begin_0"), val = tensor<int32, [4]>([0, 256, 0, 0])];
            tensor<int32, [4]> var_319_end_0 = const()[name = tensor<string, []>("op_319_end_0"), val = tensor<int32, [4]>([1, 320, 1, 1500])];
            tensor<bool, [4]> var_319_end_mask_0 = const()[name = tensor<string, []>("op_319_end_mask_0"), val = tensor<bool, [4]>([true, false, true, true])];
            tensor<fp16, [1, 64, 1, 1500]> var_319_cast_fp16 = slice_by_index(begin = var_319_begin_0, end = var_319_end_0, end_mask = var_319_end_mask_0, x = value_1_cast_fp16)[name = tensor<string, []>("op_319_cast_fp16")];
            tensor<int32, [4]> var_323_begin_0 = const()[name = tensor<string, []>("op_323_begin_0"), val = tensor<int32, [4]>([0, 320, 0, 0])];
            tensor<int32, [4]> var_323_end_0 = const()[name = tensor<string, []>("op_323_end_0"), val = tensor<int32, [4]>([1, 384, 1, 1500])];
            tensor<bool, [4]> var_323_end_mask_0 = const()[name = tensor<string, []>("op_323_end_mask_0"), val = tensor<bool, [4]>([true, false, true, true])];
            tensor<fp16, [1, 64, 1, 1500]> var_323_cast_fp16 = slice_by_index(begin = var_323_begin_0, end = var_323_end_0, end_mask = var_323_end_mask_0, x = value_1_cast_fp16)[name = tensor<string, []>("op_323_cast_fp16")];
            tensor<int32, [4]> var_327_begin_0 = const()[name = tensor<string, []>("op_327_begin_0"), val = tensor<int32, [4]>([0, 384, 0, 0])];
            tensor<int32, [4]> var_327_end_0 = const()[name = tensor<string, []>("op_327_end_0"), val = tensor<int32, [4]>([1, 448, 1, 1500])];
            tensor<bool, [4]> var_327_end_mask_0 = const()[name = tensor<string, []>("op_327_end_mask_0"), val = tensor<bool, [4]>([true, false, true, true])];
            tensor<fp16, [1, 64, 1, 1500]> var_327_cast_fp16 = slice_by_index(begin = var_327_begin_0, end = var_327_end_0, end_mask = var_327_end_mask_0, x = value_1_cast_fp16)[name = tensor<string, []>("op_327_cast_fp16")];
            tensor<int32, [4]> var_331_begin_0 = const()[name = tensor<string, []>("op_331_begin_0"), val = tensor<int32, [4]>([0, 448, 0, 0])];
            tensor<int32, [4]> var_331_end_0 = const()[name = tensor<string, []>("op_331_end_0"), val = tensor<int32, [4]>([1, 1, 1, 1500])];
            tensor<bool, [4]> var_331_end_mask_0 = const()[name = tensor<string, []>("op_331_end_mask_0"), val = tensor<bool, [4]>([true, true, true, true])];
            tensor<fp16, [1, 64, 1, 1500]> var_331_cast_fp16 = slice_by_index(begin = var_331_begin_0, end = var_331_end_0, end_mask = var_331_end_mask_0, x = value_1_cast_fp16)[name = tensor<string, []>("op_331_cast_fp16")];
            tensor<string, []> _SplitHeadsQ__mh_w_1_equation_0 = const()[name = tensor<string, []>("_SplitHeadsQ__mh_w_1_equation_0"), val = tensor<string, []>("bkhc,bchq->bkhq")];
            tensor<fp16, [1, 1500, 1, 256]> _SplitHeadsQ__mh_w_1_cast_fp16 = einsum(equation = _SplitHeadsQ__mh_w_1_equation_0, values = (var_273_cast_fp16, var_221_cast_fp16))[name = tensor<string, []>("_SplitHeadsQ__mh_w_1_cast_fp16")];
            tensor<string, []> _SplitHeadsQ__mh_w_3_equation_0 = const()[name = tensor<string, []>("_SplitHeadsQ__mh_w_3_equation_0"), val = tensor<string, []>("bkhc,bchq->bkhq")];
            tensor<fp16, [1, 1500, 1, 256]> _SplitHeadsQ__mh_w_3_cast_fp16 = einsum(equation = _SplitHeadsQ__mh_w_3_equation_0, values = (var_273_cast_fp16, var_222_cast_fp16))[name = tensor<string, []>("_SplitHeadsQ__mh_w_3_cast_fp16")];
            tensor<string, []> _SplitHeadsQ__mh_w_5_equation_0 = const()[name = tensor<string, []>("_SplitHeadsQ__mh_w_5_equation_0"), val = tensor<string, []>("bkhc,bchq->bkhq")];
            tensor<fp16, [1, 1500, 1, 256]> _SplitHeadsQ__mh_w_5_cast_fp16 = einsum(equation = _SplitHeadsQ__mh_w_5_equation_0, values = (var_273_cast_fp16, var_223_cast_fp16))[name = tensor<string, []>("_SplitHeadsQ__mh_w_5_cast_fp16")];
            tensor<string, []> _SplitHeadsQ__mh_w_7_equation_0 = const()[name = tensor<string, []>("_SplitHeadsQ__mh_w_7_equation_0"), val = tensor<string, []>("bkhc,bchq->bkhq")];
            tensor<fp16, [1, 1500, 1, 256]> _SplitHeadsQ__mh_w_7_cast_fp16 = einsum(equation = _SplitHeadsQ__mh_w_7_equation_0, values = (var_273_cast_fp16, var_224_cast_fp16))[name = tensor<string, []>("_SplitHeadsQ__mh_w_7_cast_fp16")];
            tensor<string, []> _SplitHeadsQ__mh_w_9_equation_0 = const()[name = tensor<string, []>("_SplitHeadsQ__mh_w_9_equation_0"), val = tensor<string, []>("bkhc,bchq->bkhq")];
            tensor<fp16, [1, 1500, 1, 256]> _SplitHeadsQ__mh_w_9_cast_fp16 = einsum(equation = _SplitHeadsQ__mh_w_9_equation_0, values = (var_273_cast_fp16, var_225_cast_fp16))[name = tensor<string, []>("_SplitHeadsQ__mh_w_9_cast_fp16")];
            tensor<string, []> _SplitHeadsQ__mh_w_11_equation_0 = const()[name = tensor<string, []>("_SplitHeadsQ__mh_w_11_equation_0"), val = tensor<string, []>("bkhc,bchq->bkhq")];
            tensor<fp16, [1, 1500, 1, 220]> _SplitHeadsQ__mh_w_11_cast_fp16 = einsum(equation = _SplitHeadsQ__mh_w_11_equation_0, values = (var_273_cast_fp16, var_226_cast_fp16))[name = tensor<string, []>("_SplitHeadsQ__mh_w_11_cast_fp16")];
            tensor<string, []> _SplitHeadsQ__mh_w_13_equation_0 = const()[name = tensor<string, []>("_SplitHeadsQ__mh_w_13_equation_0"), val = tensor<string, []>("bkhc,bchq->bkhq")];
            tensor<fp16, [1, 1500, 1, 256]> _SplitHeadsQ__mh_w_13_cast_fp16 = einsum(equation = _SplitHeadsQ__mh_w_13_equation_0, values = (var_277_cast_fp16, var_227_cast_fp16))[name = tensor<string, []>("_SplitHeadsQ__mh_w_13_cast_fp16")];
            tensor<string, []> _SplitHeadsQ__mh_w_15_equation_0 = const()[name = tensor<string, []>("_SplitHeadsQ__mh_w_15_equation_0"), val = tensor<string, []>("bkhc,bchq->bkhq")];
            tensor<fp16, [1, 1500, 1, 256]> _SplitHeadsQ__mh_w_15_cast_fp16 = einsum(equation = _SplitHeadsQ__mh_w_15_equation_0, values = (var_277_cast_fp16, var_228_cast_fp16))[name = tensor<string, []>("_SplitHeadsQ__mh_w_15_cast_fp16")];
            tensor<string, []> _SplitHeadsQ__mh_w_17_equation_0 = const()[name = tensor<string, []>("_SplitHeadsQ__mh_w_17_equation_0"), val = tensor<string, []>("bkhc,bchq->bkhq")];
            tensor<fp16, [1, 1500, 1, 256]> _SplitHeadsQ__mh_w_17_cast_fp16 = einsum(equation = _SplitHeadsQ__mh_w_17_equation_0, values = (var_277_cast_fp16, var_229_cast_fp16))[name = tensor<string, []>("_SplitHeadsQ__mh_w_17_cast_fp16")];
            tensor<string, []> _SplitHeadsQ__mh_w_19_equation_0 = const()[name = tensor<string, []>("_SplitHeadsQ__mh_w_19_equation_0"), val = tensor<string, []>("bkhc,bchq->bkhq")];
            tensor<fp16, [1, 1500, 1, 256]> _SplitHeadsQ__mh_w_19_cast_fp16 = einsum(equation = _SplitHeadsQ__mh_w_19_equation_0, values = (var_277_cast_fp16, var_230_cast_fp16))[name = tensor<string, []>("_SplitHeadsQ__mh_w_19_cast_fp16")];
            tensor<string, []> _SplitHeadsQ__mh_w_21_equation_0 = const()[name = tensor<string, []>("_SplitHeadsQ__mh_w_21_equation_0"), val = tensor<string, []>("bkhc,bchq->bkhq")];
            tensor<fp16, [1, 1500, 1, 256]> _SplitHeadsQ__mh_w_21_cast_fp16 = einsum(equation = _SplitHeadsQ__mh_w_21_equation_0, values = (var_277_cast_fp16, var_231_cast_fp16))[name = tensor<string, []>("_SplitHeadsQ__mh_w_21_cast_fp16")];
            tensor<string, []> _SplitHeadsQ__mh_w_23_equation_0 = const()[name = tensor<string, []>("_SplitHeadsQ__mh_w_23_equation_0"), val = tensor<string, []>("bkhc,bchq->bkhq")];
            tensor<fp16, [1, 1500, 1, 220]> _SplitHeadsQ__mh_w_23_cast_fp16 = einsum(equation = _SplitHeadsQ__mh_w_23_equation_0, values = (var_277_cast_fp16, var_232_cast_fp16))[name = tensor<string, []>("_SplitHeadsQ__mh_w_23_cast_fp16")];
            tensor<string, []> _SplitHeadsQ__mh_w_25_equation_0 = const()[name = tensor<string, []>("_SplitHeadsQ__mh_w_25_equation_0"), val = tensor<string, []>("bkhc,bchq->bkhq")];
            tensor<fp16, [1, 1500, 1, 256]> _SplitHeadsQ__mh_w_25_cast_fp16 = einsum(equation = _SplitHeadsQ__mh_w_25_equation_0, values = (var_281_cast_fp16, var_233_cast_fp16))[name = tensor<string, []>("_SplitHeadsQ__mh_w_25_cast_fp16")];
            tensor<string, []> _SplitHeadsQ__mh_w_27_equation_0 = const()[name = tensor<string, []>("_SplitHeadsQ__mh_w_27_equation_0"), val = tensor<string, []>("bkhc,bchq->bkhq")];
            tensor<fp16, [1, 1500, 1, 256]> _SplitHeadsQ__mh_w_27_cast_fp16 = einsum(equation = _SplitHeadsQ__mh_w_27_equation_0, values = (var_281_cast_fp16, var_234_cast_fp16))[name = tensor<string, []>("_SplitHeadsQ__mh_w_27_cast_fp16")];
            tensor<string, []> _SplitHeadsQ__mh_w_29_equation_0 = const()[name = tensor<string, []>("_SplitHeadsQ__mh_w_29_equation_0"), val = tensor<string, []>("bkhc,bchq->bkhq")];
            tensor<fp16, [1, 1500, 1, 256]> _SplitHeadsQ__mh_w_29_cast_fp16 = einsum(equation = _SplitHeadsQ__mh_w_29_equation_0, values = (var_281_cast_fp16, var_235_cast_fp16))[name = tensor<string, []>("_SplitHeadsQ__mh_w_29_cast_fp16")];
            tensor<string, []> _SplitHeadsQ__mh_w_31_equation_0 = const()[name = tensor<string, []>("_SplitHeadsQ__mh_w_31_equation_0"), val = tensor<string, []>("bkhc,bchq->bkhq")];
            tensor<fp16, [1, 1500, 1, 256]> _SplitHeadsQ__mh_w_31_cast_fp16 = einsum(equation = _SplitHeadsQ__mh_w_31_equation_0, values = (var_281_cast_fp16, var_236_cast_fp16))[name = tensor<string, []>("_SplitHeadsQ__mh_w_31_cast_fp16")];
            tensor<string, []> _SplitHeadsQ__mh_w_33_equation_0 = const()[name = tensor<string, []>("_SplitHeadsQ__mh_w_33_equation_0"), val = tensor<string, []>("bkhc,bchq->bkhq")];
            tensor<fp16, [1, 1500, 1, 256]> _SplitHeadsQ__mh_w_33_cast_fp16 = einsum(equation = _SplitHeadsQ__mh_w_33_equation_0, values = (var_281_cast_fp16, var_237_cast_fp16))[name = tensor<string, []>("_SplitHeadsQ__mh_w_33_cast_fp16")];
            tensor<string, []> _SplitHeadsQ__mh_w_35_equation_0 = const()[name = tensor<string, []>("_SplitHeadsQ__mh_w_35_equation_0"), val = tensor<string, []>("bkhc,bchq->bkhq")];
            tensor<fp16, [1, 1500, 1, 220]> _SplitHeadsQ__mh_w_35_cast_fp16 = einsum(equation = _SplitHeadsQ__mh_w_35_equation_0, values = (var_281_cast_fp16, var_238_cast_fp16))[name = tensor<string, []>("_SplitHeadsQ__mh_w_35_cast_fp16")];
            tensor<string, []> _SplitHeadsQ__mh_w_37_equation_0 = const()[name = tensor<string, []>("_SplitHeadsQ__mh_w_37_equation_0"), val = tensor<string, []>("bkhc,bchq->bkhq")];
            tensor<fp16, [1, 1500, 1, 256]> _SplitHeadsQ__mh_w_37_cast_fp16 = einsum(equation = _SplitHeadsQ__mh_w_37_equation_0, values = (var_285_cast_fp16, var_239_cast_fp16))[name = tensor<string, []>("_SplitHeadsQ__mh_w_37_cast_fp16")];
            tensor<string, []> _SplitHeadsQ__mh_w_39_equation_0 = const()[name = tensor<string, []>("_SplitHeadsQ__mh_w_39_equation_0"), val = tensor<string, []>("bkhc,bchq->bkhq")];
            tensor<fp16, [1, 1500, 1, 256]> _SplitHeadsQ__mh_w_39_cast_fp16 = einsum(equation = _SplitHeadsQ__mh_w_39_equation_0, values = (var_285_cast_fp16, var_240_cast_fp16))[name = tensor<string, []>("_SplitHeadsQ__mh_w_39_cast_fp16")];
            tensor<string, []> _SplitHeadsQ__mh_w_41_equation_0 = const()[name = tensor<string, []>("_SplitHeadsQ__mh_w_41_equation_0"), val = tensor<string, []>("bkhc,bchq->bkhq")];
            tensor<fp16, [1, 1500, 1, 256]> _SplitHeadsQ__mh_w_41_cast_fp16 = einsum(equation = _SplitHeadsQ__mh_w_41_equation_0, values = (var_285_cast_fp16, var_241_cast_fp16))[name = tensor<string, []>("_SplitHeadsQ__mh_w_41_cast_fp16")];
            tensor<string, []> _SplitHeadsQ__mh_w_43_equation_0 = const()[name = tensor<string, []>("_SplitHeadsQ__mh_w_43_equation_0"), val = tensor<string, []>("bkhc,bchq->bkhq")];
            tensor<fp16, [1, 1500, 1, 256]> _SplitHeadsQ__mh_w_43_cast_fp16 = einsum(equation = _SplitHeadsQ__mh_w_43_equation_0, values = (var_285_cast_fp16, var_242_cast_fp16))[name = tensor<string, []>("_SplitHeadsQ__mh_w_43_cast_fp16")];
            tensor<string, []> _SplitHeadsQ__mh_w_45_equation_0 = const()[name = tensor<string, []>("_SplitHeadsQ__mh_w_45_equation_0"), val = tensor<string, []>("bkhc,bchq->bkhq")];
            tensor<fp16, [1, 1500, 1, 256]> _SplitHeadsQ__mh_w_45_cast_fp16 = einsum(equation = _SplitHeadsQ__mh_w_45_equation_0, values = (var_285_cast_fp16, var_243_cast_fp16))[name = tensor<string, []>("_SplitHeadsQ__mh_w_45_cast_fp16")];
            tensor<string, []> _SplitHeadsQ__mh_w_47_equation_0 = const()[name = tensor<string, []>("_SplitHeadsQ__mh_w_47_equation_0"), val = tensor<string, []>("bkhc,bchq->bkhq")];
            tensor<fp16, [1, 1500, 1, 220]> _SplitHeadsQ__mh_w_47_cast_fp16 = einsum(equation = _SplitHeadsQ__mh_w_47_equation_0, values = (var_285_cast_fp16, var_244_cast_fp16))[name = tensor<string, []>("_SplitHeadsQ__mh_w_47_cast_fp16")];
            tensor<string, []> _SplitHeadsQ__mh_w_49_equation_0 = const()[name = tensor<string, []>("_SplitHeadsQ__mh_w_49_equation_0"), val = tensor<string, []>("bkhc,bchq->bkhq")];
            tensor<fp16, [1, 1500, 1, 256]> _SplitHeadsQ__mh_w_49_cast_fp16 = einsum(equation = _SplitHeadsQ__mh_w_49_equation_0, values = (var_289_cast_fp16, var_245_cast_fp16))[name = tensor<string, []>("_SplitHeadsQ__mh_w_49_cast_fp16")];
            tensor<string, []> _SplitHeadsQ__mh_w_51_equation_0 = const()[name = tensor<string, []>("_SplitHeadsQ__mh_w_51_equation_0"), val = tensor<string, []>("bkhc,bchq->bkhq")];
            tensor<fp16, [1, 1500, 1, 256]> _SplitHeadsQ__mh_w_51_cast_fp16 = einsum(equation = _SplitHeadsQ__mh_w_51_equation_0, values = (var_289_cast_fp16, var_246_cast_fp16))[name = tensor<string, []>("_SplitHeadsQ__mh_w_51_cast_fp16")];
            tensor<string, []> _SplitHeadsQ__mh_w_53_equation_0 = const()[name = tensor<string, []>("_SplitHeadsQ__mh_w_53_equation_0"), val = tensor<string, []>("bkhc,bchq->bkhq")];
            tensor<fp16, [1, 1500, 1, 256]> _SplitHeadsQ__mh_w_53_cast_fp16 = einsum(equation = _SplitHeadsQ__mh_w_53_equation_0, values = (var_289_cast_fp16, var_247_cast_fp16))[name = tensor<string, []>("_SplitHeadsQ__mh_w_53_cast_fp16")];
            tensor<string, []> _SplitHeadsQ__mh_w_55_equation_0 = const()[name = tensor<string, []>("_SplitHeadsQ__mh_w_55_equation_0"), val = tensor<string, []>("bkhc,bchq->bkhq")];
            tensor<fp16, [1, 1500, 1, 256]> _SplitHeadsQ__mh_w_55_cast_fp16 = einsum(equation = _SplitHeadsQ__mh_w_55_equation_0, values = (var_289_cast_fp16, var_248_cast_fp16))[name = tensor<string, []>("_SplitHeadsQ__mh_w_55_cast_fp16")];
            tensor<string, []> _SplitHeadsQ__mh_w_57_equation_0 = const()[name = tensor<string, []>("_SplitHeadsQ__mh_w_57_equation_0"), val = tensor<string, []>("bkhc,bchq->bkhq")];
            tensor<fp16, [1, 1500, 1, 256]> _SplitHeadsQ__mh_w_57_cast_fp16 = einsum(equation = _SplitHeadsQ__mh_w_57_equation_0, values = (var_289_cast_fp16, var_249_cast_fp16))[name = tensor<string, []>("_SplitHeadsQ__mh_w_57_cast_fp16")];
            tensor<string, []> _SplitHeadsQ__mh_w_59_equation_0 = const()[name = tensor<string, []>("_SplitHeadsQ__mh_w_59_equation_0"), val = tensor<string, []>("bkhc,bchq->bkhq")];
            tensor<fp16, [1, 1500, 1, 220]> _SplitHeadsQ__mh_w_59_cast_fp16 = einsum(equation = _SplitHeadsQ__mh_w_59_equation_0, values = (var_289_cast_fp16, var_250_cast_fp16))[name = tensor<string, []>("_SplitHeadsQ__mh_w_59_cast_fp16")];
            tensor<string, []> _SplitHeadsQ__mh_w_61_equation_0 = const()[name = tensor<string, []>("_SplitHeadsQ__mh_w_61_equation_0"), val = tensor<string, []>("bkhc,bchq->bkhq")];
            tensor<fp16, [1, 1500, 1, 256]> _SplitHeadsQ__mh_w_61_cast_fp16 = einsum(equation = _SplitHeadsQ__mh_w_61_equation_0, values = (var_293_cast_fp16, var_251_cast_fp16))[name = tensor<string, []>("_SplitHeadsQ__mh_w_61_cast_fp16")];
            tensor<string, []> _SplitHeadsQ__mh_w_63_equation_0 = const()[name = tensor<string, []>("_SplitHeadsQ__mh_w_63_equation_0"), val = tensor<string, []>("bkhc,bchq->bkhq")];
            tensor<fp16, [1, 1500, 1, 256]> _SplitHeadsQ__mh_w_63_cast_fp16 = einsum(equation = _SplitHeadsQ__mh_w_63_equation_0, values = (var_293_cast_fp16, var_252_cast_fp16))[name = tensor<string, []>("_SplitHeadsQ__mh_w_63_cast_fp16")];
            tensor<string, []> _SplitHeadsQ__mh_w_65_equation_0 = const()[name = tensor<string, []>("_SplitHeadsQ__mh_w_65_equation_0"), val = tensor<string, []>("bkhc,bchq->bkhq")];
            tensor<fp16, [1, 1500, 1, 256]> _SplitHeadsQ__mh_w_65_cast_fp16 = einsum(equation = _SplitHeadsQ__mh_w_65_equation_0, values = (var_293_cast_fp16, var_253_cast_fp16))[name = tensor<string, []>("_SplitHeadsQ__mh_w_65_cast_fp16")];
            tensor<string, []> _SplitHeadsQ__mh_w_67_equation_0 = const()[name = tensor<string, []>("_SplitHeadsQ__mh_w_67_equation_0"), val = tensor<string, []>("bkhc,bchq->bkhq")];
            tensor<fp16, [1, 1500, 1, 256]> _SplitHeadsQ__mh_w_67_cast_fp16 = einsum(equation = _SplitHeadsQ__mh_w_67_equation_0, values = (var_293_cast_fp16, var_254_cast_fp16))[name = tensor<string, []>("_SplitHeadsQ__mh_w_67_cast_fp16")];
            tensor<string, []> _SplitHeadsQ__mh_w_69_equation_0 = const()[name = tensor<string, []>("_SplitHeadsQ__mh_w_69_equation_0"), val = tensor<string, []>("bkhc,bchq->bkhq")];
            tensor<fp16, [1, 1500, 1, 256]> _SplitHeadsQ__mh_w_69_cast_fp16 = einsum(equation = _SplitHeadsQ__mh_w_69_equation_0, values = (var_293_cast_fp16, var_255_cast_fp16))[name = tensor<string, []>("_SplitHeadsQ__mh_w_69_cast_fp16")];
            tensor<string, []> _SplitHeadsQ__mh_w_71_equation_0 = const()[name = tensor<string, []>("_SplitHeadsQ__mh_w_71_equation_0"), val = tensor<string, []>("bkhc,bchq->bkhq")];
            tensor<fp16, [1, 1500, 1, 220]> _SplitHeadsQ__mh_w_71_cast_fp16 = einsum(equation = _SplitHeadsQ__mh_w_71_equation_0, values = (var_293_cast_fp16, var_256_cast_fp16))[name = tensor<string, []>("_SplitHeadsQ__mh_w_71_cast_fp16")];
            tensor<string, []> _SplitHeadsQ__mh_w_73_equation_0 = const()[name = tensor<string, []>("_SplitHeadsQ__mh_w_73_equation_0"), val = tensor<string, []>("bkhc,bchq->bkhq")];
            tensor<fp16, [1, 1500, 1, 256]> _SplitHeadsQ__mh_w_73_cast_fp16 = einsum(equation = _SplitHeadsQ__mh_w_73_equation_0, values = (var_297_cast_fp16, var_257_cast_fp16))[name = tensor<string, []>("_SplitHeadsQ__mh_w_73_cast_fp16")];
            tensor<string, []> _SplitHeadsQ__mh_w_75_equation_0 = const()[name = tensor<string, []>("_SplitHeadsQ__mh_w_75_equation_0"), val = tensor<string, []>("bkhc,bchq->bkhq")];
            tensor<fp16, [1, 1500, 1, 256]> _SplitHeadsQ__mh_w_75_cast_fp16 = einsum(equation = _SplitHeadsQ__mh_w_75_equation_0, values = (var_297_cast_fp16, var_258_cast_fp16))[name = tensor<string, []>("_SplitHeadsQ__mh_w_75_cast_fp16")];
            tensor<string, []> _SplitHeadsQ__mh_w_77_equation_0 = const()[name = tensor<string, []>("_SplitHeadsQ__mh_w_77_equation_0"), val = tensor<string, []>("bkhc,bchq->bkhq")];
            tensor<fp16, [1, 1500, 1, 256]> _SplitHeadsQ__mh_w_77_cast_fp16 = einsum(equation = _SplitHeadsQ__mh_w_77_equation_0, values = (var_297_cast_fp16, var_259_cast_fp16))[name = tensor<string, []>("_SplitHeadsQ__mh_w_77_cast_fp16")];
            tensor<string, []> _SplitHeadsQ__mh_w_79_equation_0 = const()[name = tensor<string, []>("_SplitHeadsQ__mh_w_79_equation_0"), val = tensor<string, []>("bkhc,bchq->bkhq")];
            tensor<fp16, [1, 1500, 1, 256]> _SplitHeadsQ__mh_w_79_cast_fp16 = einsum(equation = _SplitHeadsQ__mh_w_79_equation_0, values = (var_297_cast_fp16, var_260_cast_fp16))[name = tensor<string, []>("_SplitHeadsQ__mh_w_79_cast_fp16")];
            tensor<string, []> _SplitHeadsQ__mh_w_81_equation_0 = const()[name = tensor<string, []>("_SplitHeadsQ__mh_w_81_equation_0"), val = tensor<string, []>("bkhc,bchq->bkhq")];
            tensor<fp16, [1, 1500, 1, 256]> _SplitHeadsQ__mh_w_81_cast_fp16 = einsum(equation = _SplitHeadsQ__mh_w_81_equation_0, values = (var_297_cast_fp16, var_261_cast_fp16))[name = tensor<string, []>("_SplitHeadsQ__mh_w_81_cast_fp16")];
            tensor<string, []> _SplitHeadsQ__mh_w_83_equation_0 = const()[name = tensor<string, []>("_SplitHeadsQ__mh_w_83_equation_0"), val = tensor<string, []>("bkhc,bchq->bkhq")];
            tensor<fp16, [1, 1500, 1, 220]> _SplitHeadsQ__mh_w_83_cast_fp16 = einsum(equation = _SplitHeadsQ__mh_w_83_equation_0, values = (var_297_cast_fp16, var_262_cast_fp16))[name = tensor<string, []>("_SplitHeadsQ__mh_w_83_cast_fp16")];
            tensor<string, []> _SplitHeadsQ__mh_w_85_equation_0 = const()[name = tensor<string, []>("_SplitHeadsQ__mh_w_85_equation_0"), val = tensor<string, []>("bkhc,bchq->bkhq")];
            tensor<fp16, [1, 1500, 1, 256]> _SplitHeadsQ__mh_w_85_cast_fp16 = einsum(equation = _SplitHeadsQ__mh_w_85_equation_0, values = (var_301_cast_fp16, var_263_cast_fp16))[name = tensor<string, []>("_SplitHeadsQ__mh_w_85_cast_fp16")];
            tensor<string, []> _SplitHeadsQ__mh_w_87_equation_0 = const()[name = tensor<string, []>("_SplitHeadsQ__mh_w_87_equation_0"), val = tensor<string, []>("bkhc,bchq->bkhq")];
            tensor<fp16, [1, 1500, 1, 256]> _SplitHeadsQ__mh_w_87_cast_fp16 = einsum(equation = _SplitHeadsQ__mh_w_87_equation_0, values = (var_301_cast_fp16, var_264_cast_fp16))[name = tensor<string, []>("_SplitHeadsQ__mh_w_87_cast_fp16")];
            tensor<string, []> _SplitHeadsQ__mh_w_89_equation_0 = const()[name = tensor<string, []>("_SplitHeadsQ__mh_w_89_equation_0"), val = tensor<string, []>("bkhc,bchq->bkhq")];
            tensor<fp16, [1, 1500, 1, 256]> _SplitHeadsQ__mh_w_89_cast_fp16 = einsum(equation = _SplitHeadsQ__mh_w_89_equation_0, values = (var_301_cast_fp16, var_265_cast_fp16))[name = tensor<string, []>("_SplitHeadsQ__mh_w_89_cast_fp16")];
            tensor<string, []> _SplitHeadsQ__mh_w_91_equation_0 = const()[name = tensor<string, []>("_SplitHeadsQ__mh_w_91_equation_0"), val = tensor<string, []>("bkhc,bchq->bkhq")];
            tensor<fp16, [1, 1500, 1, 256]> _SplitHeadsQ__mh_w_91_cast_fp16 = einsum(equation = _SplitHeadsQ__mh_w_91_equation_0, values = (var_301_cast_fp16, var_266_cast_fp16))[name = tensor<string, []>("_SplitHeadsQ__mh_w_91_cast_fp16")];
            tensor<string, []> _SplitHeadsQ__mh_w_93_equation_0 = const()[name = tensor<string, []>("_SplitHeadsQ__mh_w_93_equation_0"), val = tensor<string, []>("bkhc,bchq->bkhq")];
            tensor<fp16, [1, 1500, 1, 256]> _SplitHeadsQ__mh_w_93_cast_fp16 = einsum(equation = _SplitHeadsQ__mh_w_93_equation_0, values = (var_301_cast_fp16, var_267_cast_fp16))[name = tensor<string, []>("_SplitHeadsQ__mh_w_93_cast_fp16")];
            tensor<string, []> _SplitHeadsQ__mh_w_95_equation_0 = const()[name = tensor<string, []>("_SplitHeadsQ__mh_w_95_equation_0"), val = tensor<string, []>("bkhc,bchq->bkhq")];
            tensor<fp16, [1, 1500, 1, 220]> _SplitHeadsQ__mh_w_95_cast_fp16 = einsum(equation = _SplitHeadsQ__mh_w_95_equation_0, values = (var_301_cast_fp16, var_268_cast_fp16))[name = tensor<string, []>("_SplitHeadsQ__mh_w_95_cast_fp16")];
            tensor<fp16, []> var_430_to_fp16 = const()[name = tensor<string, []>("op_430_to_fp16"), val = tensor<fp16, []>(0x1p-3)];
            tensor<fp16, [1, 1500, 1, 256]> aw_chunk_1_cast_fp16 = mul(x = _SplitHeadsQ__mh_w_1_cast_fp16, y = var_430_to_fp16)[name = tensor<string, []>("aw_chunk_1_cast_fp16")];
            tensor<fp16, []> var_432_to_fp16 = const()[name = tensor<string, []>("op_432_to_fp16"), val = tensor<fp16, []>(0x1p-3)];
            tensor<fp16, [1, 1500, 1, 256]> aw_chunk_3_cast_fp16 = mul(x = _SplitHeadsQ__mh_w_3_cast_fp16, y = var_432_to_fp16)[name = tensor<string, []>("aw_chunk_3_cast_fp16")];
            tensor<fp16, []> var_434_to_fp16 = const()[name = tensor<string, []>("op_434_to_fp16"), val = tensor<fp16, []>(0x1p-3)];
            tensor<fp16, [1, 1500, 1, 256]> aw_chunk_5_cast_fp16 = mul(x = _SplitHeadsQ__mh_w_5_cast_fp16, y = var_434_to_fp16)[name = tensor<string, []>("aw_chunk_5_cast_fp16")];
            tensor<fp16, []> var_436_to_fp16 = const()[name = tensor<string, []>("op_436_to_fp16"), val = tensor<fp16, []>(0x1p-3)];
            tensor<fp16, [1, 1500, 1, 256]> aw_chunk_7_cast_fp16 = mul(x = _SplitHeadsQ__mh_w_7_cast_fp16, y = var_436_to_fp16)[name = tensor<string, []>("aw_chunk_7_cast_fp16")];
            tensor<fp16, []> var_438_to_fp16 = const()[name = tensor<string, []>("op_438_to_fp16"), val = tensor<fp16, []>(0x1p-3)];
            tensor<fp16, [1, 1500, 1, 256]> aw_chunk_9_cast_fp16 = mul(x = _SplitHeadsQ__mh_w_9_cast_fp16, y = var_438_to_fp16)[name = tensor<string, []>("aw_chunk_9_cast_fp16")];
            tensor<fp16, []> var_440_to_fp16 = const()[name = tensor<string, []>("op_440_to_fp16"), val = tensor<fp16, []>(0x1p-3)];
            tensor<fp16, [1, 1500, 1, 220]> aw_chunk_11_cast_fp16 = mul(x = _SplitHeadsQ__mh_w_11_cast_fp16, y = var_440_to_fp16)[name = tensor<string, []>("aw_chunk_11_cast_fp16")];
            tensor<fp16, []> var_442_to_fp16 = const()[name = tensor<string, []>("op_442_to_fp16"), val = tensor<fp16, []>(0x1p-3)];
            tensor<fp16, [1, 1500, 1, 256]> aw_chunk_13_cast_fp16 = mul(x = _SplitHeadsQ__mh_w_13_cast_fp16, y = var_442_to_fp16)[name = tensor<string, []>("aw_chunk_13_cast_fp16")];
            tensor<fp16, []> var_444_to_fp16 = const()[name = tensor<string, []>("op_444_to_fp16"), val = tensor<fp16, []>(0x1p-3)];
            tensor<fp16, [1, 1500, 1, 256]> aw_chunk_15_cast_fp16 = mul(x = _SplitHeadsQ__mh_w_15_cast_fp16, y = var_444_to_fp16)[name = tensor<string, []>("aw_chunk_15_cast_fp16")];
            tensor<fp16, []> var_446_to_fp16 = const()[name = tensor<string, []>("op_446_to_fp16"), val = tensor<fp16, []>(0x1p-3)];
            tensor<fp16, [1, 1500, 1, 256]> aw_chunk_17_cast_fp16 = mul(x = _SplitHeadsQ__mh_w_17_cast_fp16, y = var_446_to_fp16)[name = tensor<string, []>("aw_chunk_17_cast_fp16")];
            tensor<fp16, []> var_448_to_fp16 = const()[name = tensor<string, []>("op_448_to_fp16"), val = tensor<fp16, []>(0x1p-3)];
            tensor<fp16, [1, 1500, 1, 256]> aw_chunk_19_cast_fp16 = mul(x = _SplitHeadsQ__mh_w_19_cast_fp16, y = var_448_to_fp16)[name = tensor<string, []>("aw_chunk_19_cast_fp16")];
            tensor<fp16, []> var_450_to_fp16 = const()[name = tensor<string, []>("op_450_to_fp16"), val = tensor<fp16, []>(0x1p-3)];
            tensor<fp16, [1, 1500, 1, 256]> aw_chunk_21_cast_fp16 = mul(x = _SplitHeadsQ__mh_w_21_cast_fp16, y = var_450_to_fp16)[name = tensor<string, []>("aw_chunk_21_cast_fp16")];
            tensor<fp16, []> var_452_to_fp16 = const()[name = tensor<string, []>("op_452_to_fp16"), val = tensor<fp16, []>(0x1p-3)];
            tensor<fp16, [1, 1500, 1, 220]> aw_chunk_23_cast_fp16 = mul(x = _SplitHeadsQ__mh_w_23_cast_fp16, y = var_452_to_fp16)[name = tensor<string, []>("aw_chunk_23_cast_fp16")];
            tensor<fp16, []> var_454_to_fp16 = const()[name = tensor<string, []>("op_454_to_fp16"), val = tensor<fp16, []>(0x1p-3)];
            tensor<fp16, [1, 1500, 1, 256]> aw_chunk_25_cast_fp16 = mul(x = _SplitHeadsQ__mh_w_25_cast_fp16, y = var_454_to_fp16)[name = tensor<string, []>("aw_chunk_25_cast_fp16")];
            tensor<fp16, []> var_456_to_fp16 = const()[name = tensor<string, []>("op_456_to_fp16"), val = tensor<fp16, []>(0x1p-3)];
            tensor<fp16, [1, 1500, 1, 256]> aw_chunk_27_cast_fp16 = mul(x = _SplitHeadsQ__mh_w_27_cast_fp16, y = var_456_to_fp16)[name = tensor<string, []>("aw_chunk_27_cast_fp16")];
            tensor<fp16, []> var_458_to_fp16 = const()[name = tensor<string, []>("op_458_to_fp16"), val = tensor<fp16, []>(0x1p-3)];
            tensor<fp16, [1, 1500, 1, 256]> aw_chunk_29_cast_fp16 = mul(x = _SplitHeadsQ__mh_w_29_cast_fp16, y = var_458_to_fp16)[name = tensor<string, []>("aw_chunk_29_cast_fp16")];
            tensor<fp16, []> var_460_to_fp16 = const()[name = tensor<string, []>("op_460_to_fp16"), val = tensor<fp16, []>(0x1p-3)];
            tensor<fp16, [1, 1500, 1, 256]> aw_chunk_31_cast_fp16 = mul(x = _SplitHeadsQ__mh_w_31_cast_fp16, y = var_460_to_fp16)[name = tensor<string, []>("aw_chunk_31_cast_fp16")];
            tensor<fp16, []> var_462_to_fp16 = const()[name = tensor<string, []>("op_462_to_fp16"), val = tensor<fp16, []>(0x1p-3)];
            tensor<fp16, [1, 1500, 1, 256]> aw_chunk_33_cast_fp16 = mul(x = _SplitHeadsQ__mh_w_33_cast_fp16, y = var_462_to_fp16)[name = tensor<string, []>("aw_chunk_33_cast_fp16")];
            tensor<fp16, []> var_464_to_fp16 = const()[name = tensor<string, []>("op_464_to_fp16"), val = tensor<fp16, []>(0x1p-3)];
            tensor<fp16, [1, 1500, 1, 220]> aw_chunk_35_cast_fp16 = mul(x = _SplitHeadsQ__mh_w_35_cast_fp16, y = var_464_to_fp16)[name = tensor<string, []>("aw_chunk_35_cast_fp16")];
            tensor<fp16, []> var_466_to_fp16 = const()[name = tensor<string, []>("op_466_to_fp16"), val = tensor<fp16, []>(0x1p-3)];
            tensor<fp16, [1, 1500, 1, 256]> aw_chunk_37_cast_fp16 = mul(x = _SplitHeadsQ__mh_w_37_cast_fp16, y = var_466_to_fp16)[name = tensor<string, []>("aw_chunk_37_cast_fp16")];
            tensor<fp16, []> var_468_to_fp16 = const()[name = tensor<string, []>("op_468_to_fp16"), val = tensor<fp16, []>(0x1p-3)];
            tensor<fp16, [1, 1500, 1, 256]> aw_chunk_39_cast_fp16 = mul(x = _SplitHeadsQ__mh_w_39_cast_fp16, y = var_468_to_fp16)[name = tensor<string, []>("aw_chunk_39_cast_fp16")];
            tensor<fp16, []> var_470_to_fp16 = const()[name = tensor<string, []>("op_470_to_fp16"), val = tensor<fp16, []>(0x1p-3)];
            tensor<fp16, [1, 1500, 1, 256]> aw_chunk_41_cast_fp16 = mul(x = _SplitHeadsQ__mh_w_41_cast_fp16, y = var_470_to_fp16)[name = tensor<string, []>("aw_chunk_41_cast_fp16")];
            tensor<fp16, []> var_472_to_fp16 = const()[name = tensor<string, []>("op_472_to_fp16"), val = tensor<fp16, []>(0x1p-3)];
            tensor<fp16, [1, 1500, 1, 256]> aw_chunk_43_cast_fp16 = mul(x = _SplitHeadsQ__mh_w_43_cast_fp16, y = var_472_to_fp16)[name = tensor<string, []>("aw_chunk_43_cast_fp16")];
            tensor<fp16, []> var_474_to_fp16 = const()[name = tensor<string, []>("op_474_to_fp16"), val = tensor<fp16, []>(0x1p-3)];
            tensor<fp16, [1, 1500, 1, 256]> aw_chunk_45_cast_fp16 = mul(x = _SplitHeadsQ__mh_w_45_cast_fp16, y = var_474_to_fp16)[name = tensor<string, []>("aw_chunk_45_cast_fp16")];
            tensor<fp16, []> var_476_to_fp16 = const()[name = tensor<string, []>("op_476_to_fp16"), val = tensor<fp16, []>(0x1p-3)];
            tensor<fp16, [1, 1500, 1, 220]> aw_chunk_47_cast_fp16 = mul(x = _SplitHeadsQ__mh_w_47_cast_fp16, y = var_476_to_fp16)[name = tensor<string, []>("aw_chunk_47_cast_fp16")];
            tensor<fp16, []> var_478_to_fp16 = const()[name = tensor<string, []>("op_478_to_fp16"), val = tensor<fp16, []>(0x1p-3)];
            tensor<fp16, [1, 1500, 1, 256]> aw_chunk_49_cast_fp16 = mul(x = _SplitHeadsQ__mh_w_49_cast_fp16, y = var_478_to_fp16)[name = tensor<string, []>("aw_chunk_49_cast_fp16")];
            tensor<fp16, []> var_480_to_fp16 = const()[name = tensor<string, []>("op_480_to_fp16"), val = tensor<fp16, []>(0x1p-3)];
            tensor<fp16, [1, 1500, 1, 256]> aw_chunk_51_cast_fp16 = mul(x = _SplitHeadsQ__mh_w_51_cast_fp16, y = var_480_to_fp16)[name = tensor<string, []>("aw_chunk_51_cast_fp16")];
            tensor<fp16, []> var_482_to_fp16 = const()[name = tensor<string, []>("op_482_to_fp16"), val = tensor<fp16, []>(0x1p-3)];
            tensor<fp16, [1, 1500, 1, 256]> aw_chunk_53_cast_fp16 = mul(x = _SplitHeadsQ__mh_w_53_cast_fp16, y = var_482_to_fp16)[name = tensor<string, []>("aw_chunk_53_cast_fp16")];
            tensor<fp16, []> var_484_to_fp16 = const()[name = tensor<string, []>("op_484_to_fp16"), val = tensor<fp16, []>(0x1p-3)];
            tensor<fp16, [1, 1500, 1, 256]> aw_chunk_55_cast_fp16 = mul(x = _SplitHeadsQ__mh_w_55_cast_fp16, y = var_484_to_fp16)[name = tensor<string, []>("aw_chunk_55_cast_fp16")];
            tensor<fp16, []> var_486_to_fp16 = const()[name = tensor<string, []>("op_486_to_fp16"), val = tensor<fp16, []>(0x1p-3)];
            tensor<fp16, [1, 1500, 1, 256]> aw_chunk_57_cast_fp16 = mul(x = _SplitHeadsQ__mh_w_57_cast_fp16, y = var_486_to_fp16)[name = tensor<string, []>("aw_chunk_57_cast_fp16")];
            tensor<fp16, []> var_488_to_fp16 = const()[name = tensor<string, []>("op_488_to_fp16"), val = tensor<fp16, []>(0x1p-3)];
            tensor<fp16, [1, 1500, 1, 220]> aw_chunk_59_cast_fp16 = mul(x = _SplitHeadsQ__mh_w_59_cast_fp16, y = var_488_to_fp16)[name = tensor<string, []>("aw_chunk_59_cast_fp16")];
            tensor<fp16, []> var_490_to_fp16 = const()[name = tensor<string, []>("op_490_to_fp16"), val = tensor<fp16, []>(0x1p-3)];
            tensor<fp16, [1, 1500, 1, 256]> aw_chunk_61_cast_fp16 = mul(x = _SplitHeadsQ__mh_w_61_cast_fp16, y = var_490_to_fp16)[name = tensor<string, []>("aw_chunk_61_cast_fp16")];
            tensor<fp16, []> var_492_to_fp16 = const()[name = tensor<string, []>("op_492_to_fp16"), val = tensor<fp16, []>(0x1p-3)];
            tensor<fp16, [1, 1500, 1, 256]> aw_chunk_63_cast_fp16 = mul(x = _SplitHeadsQ__mh_w_63_cast_fp16, y = var_492_to_fp16)[name = tensor<string, []>("aw_chunk_63_cast_fp16")];
            tensor<fp16, []> var_494_to_fp16 = const()[name = tensor<string, []>("op_494_to_fp16"), val = tensor<fp16, []>(0x1p-3)];
            tensor<fp16, [1, 1500, 1, 256]> aw_chunk_65_cast_fp16 = mul(x = _SplitHeadsQ__mh_w_65_cast_fp16, y = var_494_to_fp16)[name = tensor<string, []>("aw_chunk_65_cast_fp16")];
            tensor<fp16, []> var_496_to_fp16 = const()[name = tensor<string, []>("op_496_to_fp16"), val = tensor<fp16, []>(0x1p-3)];
            tensor<fp16, [1, 1500, 1, 256]> aw_chunk_67_cast_fp16 = mul(x = _SplitHeadsQ__mh_w_67_cast_fp16, y = var_496_to_fp16)[name = tensor<string, []>("aw_chunk_67_cast_fp16")];
            tensor<fp16, []> var_498_to_fp16 = const()[name = tensor<string, []>("op_498_to_fp16"), val = tensor<fp16, []>(0x1p-3)];
            tensor<fp16, [1, 1500, 1, 256]> aw_chunk_69_cast_fp16 = mul(x = _SplitHeadsQ__mh_w_69_cast_fp16, y = var_498_to_fp16)[name = tensor<string, []>("aw_chunk_69_cast_fp16")];
            tensor<fp16, []> var_500_to_fp16 = const()[name = tensor<string, []>("op_500_to_fp16"), val = tensor<fp16, []>(0x1p-3)];
            tensor<fp16, [1, 1500, 1, 220]> aw_chunk_71_cast_fp16 = mul(x = _SplitHeadsQ__mh_w_71_cast_fp16, y = var_500_to_fp16)[name = tensor<string, []>("aw_chunk_71_cast_fp16")];
            tensor<fp16, []> var_502_to_fp16 = const()[name = tensor<string, []>("op_502_to_fp16"), val = tensor<fp16, []>(0x1p-3)];
            tensor<fp16, [1, 1500, 1, 256]> aw_chunk_73_cast_fp16 = mul(x = _SplitHeadsQ__mh_w_73_cast_fp16, y = var_502_to_fp16)[name = tensor<string, []>("aw_chunk_73_cast_fp16")];
            tensor<fp16, []> var_504_to_fp16 = const()[name = tensor<string, []>("op_504_to_fp16"), val = tensor<fp16, []>(0x1p-3)];
            tensor<fp16, [1, 1500, 1, 256]> aw_chunk_75_cast_fp16 = mul(x = _SplitHeadsQ__mh_w_75_cast_fp16, y = var_504_to_fp16)[name = tensor<string, []>("aw_chunk_75_cast_fp16")];
            tensor<fp16, []> var_506_to_fp16 = const()[name = tensor<string, []>("op_506_to_fp16"), val = tensor<fp16, []>(0x1p-3)];
            tensor<fp16, [1, 1500, 1, 256]> aw_chunk_77_cast_fp16 = mul(x = _SplitHeadsQ__mh_w_77_cast_fp16, y = var_506_to_fp16)[name = tensor<string, []>("aw_chunk_77_cast_fp16")];
            tensor<fp16, []> var_508_to_fp16 = const()[name = tensor<string, []>("op_508_to_fp16"), val = tensor<fp16, []>(0x1p-3)];
            tensor<fp16, [1, 1500, 1, 256]> aw_chunk_79_cast_fp16 = mul(x = _SplitHeadsQ__mh_w_79_cast_fp16, y = var_508_to_fp16)[name = tensor<string, []>("aw_chunk_79_cast_fp16")];
            tensor<fp16, []> var_510_to_fp16 = const()[name = tensor<string, []>("op_510_to_fp16"), val = tensor<fp16, []>(0x1p-3)];
            tensor<fp16, [1, 1500, 1, 256]> aw_chunk_81_cast_fp16 = mul(x = _SplitHeadsQ__mh_w_81_cast_fp16, y = var_510_to_fp16)[name = tensor<string, []>("aw_chunk_81_cast_fp16")];
            tensor<fp16, []> var_512_to_fp16 = const()[name = tensor<string, []>("op_512_to_fp16"), val = tensor<fp16, []>(0x1p-3)];
            tensor<fp16, [1, 1500, 1, 220]> aw_chunk_83_cast_fp16 = mul(x = _SplitHeadsQ__mh_w_83_cast_fp16, y = var_512_to_fp16)[name = tensor<string, []>("aw_chunk_83_cast_fp16")];
            tensor<fp16, []> var_514_to_fp16 = const()[name = tensor<string, []>("op_514_to_fp16"), val = tensor<fp16, []>(0x1p-3)];
            tensor<fp16, [1, 1500, 1, 256]> aw_chunk_85_cast_fp16 = mul(x = _SplitHeadsQ__mh_w_85_cast_fp16, y = var_514_to_fp16)[name = tensor<string, []>("aw_chunk_85_cast_fp16")];
            tensor<fp16, []> var_516_to_fp16 = const()[name = tensor<string, []>("op_516_to_fp16"), val = tensor<fp16, []>(0x1p-3)];
            tensor<fp16, [1, 1500, 1, 256]> aw_chunk_87_cast_fp16 = mul(x = _SplitHeadsQ__mh_w_87_cast_fp16, y = var_516_to_fp16)[name = tensor<string, []>("aw_chunk_87_cast_fp16")];
            tensor<fp16, []> var_518_to_fp16 = const()[name = tensor<string, []>("op_518_to_fp16"), val = tensor<fp16, []>(0x1p-3)];
            tensor<fp16, [1, 1500, 1, 256]> aw_chunk_89_cast_fp16 = mul(x = _SplitHeadsQ__mh_w_89_cast_fp16, y = var_518_to_fp16)[name = tensor<string, []>("aw_chunk_89_cast_fp16")];
            tensor<fp16, []> var_520_to_fp16 = const()[name = tensor<string, []>("op_520_to_fp16"), val = tensor<fp16, []>(0x1p-3)];
            tensor<fp16, [1, 1500, 1, 256]> aw_chunk_91_cast_fp16 = mul(x = _SplitHeadsQ__mh_w_91_cast_fp16, y = var_520_to_fp16)[name = tensor<string, []>("aw_chunk_91_cast_fp16")];
            tensor<fp16, []> var_522_to_fp16 = const()[name = tensor<string, []>("op_522_to_fp16"), val = tensor<fp16, []>(0x1p-3)];
            tensor<fp16, [1, 1500, 1, 256]> aw_chunk_93_cast_fp16 = mul(x = _SplitHeadsQ__mh_w_93_cast_fp16, y = var_522_to_fp16)[name = tensor<string, []>("aw_chunk_93_cast_fp16")];
            tensor<fp16, []> var_524_to_fp16 = const()[name = tensor<string, []>("op_524_to_fp16"), val = tensor<fp16, []>(0x1p-3)];
            tensor<fp16, [1, 1500, 1, 220]> aw_chunk_95_cast_fp16 = mul(x = _SplitHeadsQ__mh_w_95_cast_fp16, y = var_524_to_fp16)[name = tensor<string, []>("aw_chunk_95_cast_fp16")];
            tensor<fp16, [1, 1500, 1, 256]> var_526_cast_fp16 = softmax(axis = var_138, x = aw_chunk_1_cast_fp16)[name = tensor<string, []>("op_526_cast_fp16")];
            tensor<fp16, [1, 1500, 1, 256]> var_527_cast_fp16 = softmax(axis = var_138, x = aw_chunk_3_cast_fp16)[name = tensor<string, []>("op_527_cast_fp16")];
            tensor<fp16, [1, 1500, 1, 256]> var_528_cast_fp16 = softmax(axis = var_138, x = aw_chunk_5_cast_fp16)[name = tensor<string, []>("op_528_cast_fp16")];
            tensor<fp16, [1, 1500, 1, 256]> var_529_cast_fp16 = softmax(axis = var_138, x = aw_chunk_7_cast_fp16)[name = tensor<string, []>("op_529_cast_fp16")];
            tensor<fp16, [1, 1500, 1, 256]> var_530_cast_fp16 = softmax(axis = var_138, x = aw_chunk_9_cast_fp16)[name = tensor<string, []>("op_530_cast_fp16")];
            tensor<fp16, [1, 1500, 1, 220]> var_531_cast_fp16 = softmax(axis = var_138, x = aw_chunk_11_cast_fp16)[name = tensor<string, []>("op_531_cast_fp16")];
            tensor<fp16, [1, 1500, 1, 256]> var_532_cast_fp16 = softmax(axis = var_138, x = aw_chunk_13_cast_fp16)[name = tensor<string, []>("op_532_cast_fp16")];
            tensor<fp16, [1, 1500, 1, 256]> var_533_cast_fp16 = softmax(axis = var_138, x = aw_chunk_15_cast_fp16)[name = tensor<string, []>("op_533_cast_fp16")];
            tensor<fp16, [1, 1500, 1, 256]> var_534_cast_fp16 = softmax(axis = var_138, x = aw_chunk_17_cast_fp16)[name = tensor<string, []>("op_534_cast_fp16")];
            tensor<fp16, [1, 1500, 1, 256]> var_535_cast_fp16 = softmax(axis = var_138, x = aw_chunk_19_cast_fp16)[name = tensor<string, []>("op_535_cast_fp16")];
            tensor<fp16, [1, 1500, 1, 256]> var_536_cast_fp16 = softmax(axis = var_138, x = aw_chunk_21_cast_fp16)[name = tensor<string, []>("op_536_cast_fp16")];
            tensor<fp16, [1, 1500, 1, 220]> var_537_cast_fp16 = softmax(axis = var_138, x = aw_chunk_23_cast_fp16)[name = tensor<string, []>("op_537_cast_fp16")];
            tensor<fp16, [1, 1500, 1, 256]> var_538_cast_fp16 = softmax(axis = var_138, x = aw_chunk_25_cast_fp16)[name = tensor<string, []>("op_538_cast_fp16")];
            tensor<fp16, [1, 1500, 1, 256]> var_539_cast_fp16 = softmax(axis = var_138, x = aw_chunk_27_cast_fp16)[name = tensor<string, []>("op_539_cast_fp16")];
            tensor<fp16, [1, 1500, 1, 256]> var_540_cast_fp16 = softmax(axis = var_138, x = aw_chunk_29_cast_fp16)[name = tensor<string, []>("op_540_cast_fp16")];
            tensor<fp16, [1, 1500, 1, 256]> var_541_cast_fp16 = softmax(axis = var_138, x = aw_chunk_31_cast_fp16)[name = tensor<string, []>("op_541_cast_fp16")];
            tensor<fp16, [1, 1500, 1, 256]> var_542_cast_fp16 = softmax(axis = var_138, x = aw_chunk_33_cast_fp16)[name = tensor<string, []>("op_542_cast_fp16")];
            tensor<fp16, [1, 1500, 1, 220]> var_543_cast_fp16 = softmax(axis = var_138, x = aw_chunk_35_cast_fp16)[name = tensor<string, []>("op_543_cast_fp16")];
            tensor<fp16, [1, 1500, 1, 256]> var_544_cast_fp16 = softmax(axis = var_138, x = aw_chunk_37_cast_fp16)[name = tensor<string, []>("op_544_cast_fp16")];
            tensor<fp16, [1, 1500, 1, 256]> var_545_cast_fp16 = softmax(axis = var_138, x = aw_chunk_39_cast_fp16)[name = tensor<string, []>("op_545_cast_fp16")];
            tensor<fp16, [1, 1500, 1, 256]> var_546_cast_fp16 = softmax(axis = var_138, x = aw_chunk_41_cast_fp16)[name = tensor<string, []>("op_546_cast_fp16")];
            tensor<fp16, [1, 1500, 1, 256]> var_547_cast_fp16 = softmax(axis = var_138, x = aw_chunk_43_cast_fp16)[name = tensor<string, []>("op_547_cast_fp16")];
            tensor<fp16, [1, 1500, 1, 256]> var_548_cast_fp16 = softmax(axis = var_138, x = aw_chunk_45_cast_fp16)[name = tensor<string, []>("op_548_cast_fp16")];
            tensor<fp16, [1, 1500, 1, 220]> var_549_cast_fp16 = softmax(axis = var_138, x = aw_chunk_47_cast_fp16)[name = tensor<string, []>("op_549_cast_fp16")];
            tensor<fp16, [1, 1500, 1, 256]> var_550_cast_fp16 = softmax(axis = var_138, x = aw_chunk_49_cast_fp16)[name = tensor<string, []>("op_550_cast_fp16")];
            tensor<fp16, [1, 1500, 1, 256]> var_551_cast_fp16 = softmax(axis = var_138, x = aw_chunk_51_cast_fp16)[name = tensor<string, []>("op_551_cast_fp16")];
            tensor<fp16, [1, 1500, 1, 256]> var_552_cast_fp16 = softmax(axis = var_138, x = aw_chunk_53_cast_fp16)[name = tensor<string, []>("op_552_cast_fp16")];
            tensor<fp16, [1, 1500, 1, 256]> var_553_cast_fp16 = softmax(axis = var_138, x = aw_chunk_55_cast_fp16)[name = tensor<string, []>("op_553_cast_fp16")];
            tensor<fp16, [1, 1500, 1, 256]> var_554_cast_fp16 = softmax(axis = var_138, x = aw_chunk_57_cast_fp16)[name = tensor<string, []>("op_554_cast_fp16")];
            tensor<fp16, [1, 1500, 1, 220]> var_555_cast_fp16 = softmax(axis = var_138, x = aw_chunk_59_cast_fp16)[name = tensor<string, []>("op_555_cast_fp16")];
            tensor<fp16, [1, 1500, 1, 256]> var_556_cast_fp16 = softmax(axis = var_138, x = aw_chunk_61_cast_fp16)[name = tensor<string, []>("op_556_cast_fp16")];
            tensor<fp16, [1, 1500, 1, 256]> var_557_cast_fp16 = softmax(axis = var_138, x = aw_chunk_63_cast_fp16)[name = tensor<string, []>("op_557_cast_fp16")];
            tensor<fp16, [1, 1500, 1, 256]> var_558_cast_fp16 = softmax(axis = var_138, x = aw_chunk_65_cast_fp16)[name = tensor<string, []>("op_558_cast_fp16")];
            tensor<fp16, [1, 1500, 1, 256]> var_559_cast_fp16 = softmax(axis = var_138, x = aw_chunk_67_cast_fp16)[name = tensor<string, []>("op_559_cast_fp16")];
            tensor<fp16, [1, 1500, 1, 256]> var_560_cast_fp16 = softmax(axis = var_138, x = aw_chunk_69_cast_fp16)[name = tensor<string, []>("op_560_cast_fp16")];
            tensor<fp16, [1, 1500, 1, 220]> var_561_cast_fp16 = softmax(axis = var_138, x = aw_chunk_71_cast_fp16)[name = tensor<string, []>("op_561_cast_fp16")];
            tensor<fp16, [1, 1500, 1, 256]> var_562_cast_fp16 = softmax(axis = var_138, x = aw_chunk_73_cast_fp16)[name = tensor<string, []>("op_562_cast_fp16")];
            tensor<fp16, [1, 1500, 1, 256]> var_563_cast_fp16 = softmax(axis = var_138, x = aw_chunk_75_cast_fp16)[name = tensor<string, []>("op_563_cast_fp16")];
            tensor<fp16, [1, 1500, 1, 256]> var_564_cast_fp16 = softmax(axis = var_138, x = aw_chunk_77_cast_fp16)[name = tensor<string, []>("op_564_cast_fp16")];
            tensor<fp16, [1, 1500, 1, 256]> var_565_cast_fp16 = softmax(axis = var_138, x = aw_chunk_79_cast_fp16)[name = tensor<string, []>("op_565_cast_fp16")];
            tensor<fp16, [1, 1500, 1, 256]> var_566_cast_fp16 = softmax(axis = var_138, x = aw_chunk_81_cast_fp16)[name = tensor<string, []>("op_566_cast_fp16")];
            tensor<fp16, [1, 1500, 1, 220]> var_567_cast_fp16 = softmax(axis = var_138, x = aw_chunk_83_cast_fp16)[name = tensor<string, []>("op_567_cast_fp16")];
            tensor<fp16, [1, 1500, 1, 256]> var_568_cast_fp16 = softmax(axis = var_138, x = aw_chunk_85_cast_fp16)[name = tensor<string, []>("op_568_cast_fp16")];
            tensor<fp16, [1, 1500, 1, 256]> var_569_cast_fp16 = softmax(axis = var_138, x = aw_chunk_87_cast_fp16)[name = tensor<string, []>("op_569_cast_fp16")];
            tensor<fp16, [1, 1500, 1, 256]> var_570_cast_fp16 = softmax(axis = var_138, x = aw_chunk_89_cast_fp16)[name = tensor<string, []>("op_570_cast_fp16")];
            tensor<fp16, [1, 1500, 1, 256]> var_571_cast_fp16 = softmax(axis = var_138, x = aw_chunk_91_cast_fp16)[name = tensor<string, []>("op_571_cast_fp16")];
            tensor<fp16, [1, 1500, 1, 256]> var_572_cast_fp16 = softmax(axis = var_138, x = aw_chunk_93_cast_fp16)[name = tensor<string, []>("op_572_cast_fp16")];
            tensor<fp16, [1, 1500, 1, 220]> var_573_cast_fp16 = softmax(axis = var_138, x = aw_chunk_95_cast_fp16)[name = tensor<string, []>("op_573_cast_fp16")];
            tensor<string, []> var_575_equation_0 = const()[name = tensor<string, []>("op_575_equation_0"), val = tensor<string, []>("bchk,bkhq->bchq")];
            tensor<fp16, [1, 64, 1, 256]> var_575_cast_fp16 = einsum(equation = var_575_equation_0, values = (var_303_cast_fp16, var_526_cast_fp16))[name = tensor<string, []>("op_575_cast_fp16")];
            tensor<string, []> var_577_equation_0 = const()[name = tensor<string, []>("op_577_equation_0"), val = tensor<string, []>("bchk,bkhq->bchq")];
            tensor<fp16, [1, 64, 1, 256]> var_577_cast_fp16 = einsum(equation = var_577_equation_0, values = (var_303_cast_fp16, var_527_cast_fp16))[name = tensor<string, []>("op_577_cast_fp16")];
            tensor<string, []> var_579_equation_0 = const()[name = tensor<string, []>("op_579_equation_0"), val = tensor<string, []>("bchk,bkhq->bchq")];
            tensor<fp16, [1, 64, 1, 256]> var_579_cast_fp16 = einsum(equation = var_579_equation_0, values = (var_303_cast_fp16, var_528_cast_fp16))[name = tensor<string, []>("op_579_cast_fp16")];
            tensor<string, []> var_581_equation_0 = const()[name = tensor<string, []>("op_581_equation_0"), val = tensor<string, []>("bchk,bkhq->bchq")];
            tensor<fp16, [1, 64, 1, 256]> var_581_cast_fp16 = einsum(equation = var_581_equation_0, values = (var_303_cast_fp16, var_529_cast_fp16))[name = tensor<string, []>("op_581_cast_fp16")];
            tensor<string, []> var_583_equation_0 = const()[name = tensor<string, []>("op_583_equation_0"), val = tensor<string, []>("bchk,bkhq->bchq")];
            tensor<fp16, [1, 64, 1, 256]> var_583_cast_fp16 = einsum(equation = var_583_equation_0, values = (var_303_cast_fp16, var_530_cast_fp16))[name = tensor<string, []>("op_583_cast_fp16")];
            tensor<string, []> var_585_equation_0 = const()[name = tensor<string, []>("op_585_equation_0"), val = tensor<string, []>("bchk,bkhq->bchq")];
            tensor<fp16, [1, 64, 1, 220]> var_585_cast_fp16 = einsum(equation = var_585_equation_0, values = (var_303_cast_fp16, var_531_cast_fp16))[name = tensor<string, []>("op_585_cast_fp16")];
            tensor<string, []> var_587_equation_0 = const()[name = tensor<string, []>("op_587_equation_0"), val = tensor<string, []>("bchk,bkhq->bchq")];
            tensor<fp16, [1, 64, 1, 256]> var_587_cast_fp16 = einsum(equation = var_587_equation_0, values = (var_307_cast_fp16, var_532_cast_fp16))[name = tensor<string, []>("op_587_cast_fp16")];
            tensor<string, []> var_589_equation_0 = const()[name = tensor<string, []>("op_589_equation_0"), val = tensor<string, []>("bchk,bkhq->bchq")];
            tensor<fp16, [1, 64, 1, 256]> var_589_cast_fp16 = einsum(equation = var_589_equation_0, values = (var_307_cast_fp16, var_533_cast_fp16))[name = tensor<string, []>("op_589_cast_fp16")];
            tensor<string, []> var_591_equation_0 = const()[name = tensor<string, []>("op_591_equation_0"), val = tensor<string, []>("bchk,bkhq->bchq")];
            tensor<fp16, [1, 64, 1, 256]> var_591_cast_fp16 = einsum(equation = var_591_equation_0, values = (var_307_cast_fp16, var_534_cast_fp16))[name = tensor<string, []>("op_591_cast_fp16")];
            tensor<string, []> var_593_equation_0 = const()[name = tensor<string, []>("op_593_equation_0"), val = tensor<string, []>("bchk,bkhq->bchq")];
            tensor<fp16, [1, 64, 1, 256]> var_593_cast_fp16 = einsum(equation = var_593_equation_0, values = (var_307_cast_fp16, var_535_cast_fp16))[name = tensor<string, []>("op_593_cast_fp16")];
            tensor<string, []> var_595_equation_0 = const()[name = tensor<string, []>("op_595_equation_0"), val = tensor<string, []>("bchk,bkhq->bchq")];
            tensor<fp16, [1, 64, 1, 256]> var_595_cast_fp16 = einsum(equation = var_595_equation_0, values = (var_307_cast_fp16, var_536_cast_fp16))[name = tensor<string, []>("op_595_cast_fp16")];
            tensor<string, []> var_597_equation_0 = const()[name = tensor<string, []>("op_597_equation_0"), val = tensor<string, []>("bchk,bkhq->bchq")];
            tensor<fp16, [1, 64, 1, 220]> var_597_cast_fp16 = einsum(equation = var_597_equation_0, values = (var_307_cast_fp16, var_537_cast_fp16))[name = tensor<string, []>("op_597_cast_fp16")];
            tensor<string, []> var_599_equation_0 = const()[name = tensor<string, []>("op_599_equation_0"), val = tensor<string, []>("bchk,bkhq->bchq")];
            tensor<fp16, [1, 64, 1, 256]> var_599_cast_fp16 = einsum(equation = var_599_equation_0, values = (var_311_cast_fp16, var_538_cast_fp16))[name = tensor<string, []>("op_599_cast_fp16")];
            tensor<string, []> var_601_equation_0 = const()[name = tensor<string, []>("op_601_equation_0"), val = tensor<string, []>("bchk,bkhq->bchq")];
            tensor<fp16, [1, 64, 1, 256]> var_601_cast_fp16 = einsum(equation = var_601_equation_0, values = (var_311_cast_fp16, var_539_cast_fp16))[name = tensor<string, []>("op_601_cast_fp16")];
            tensor<string, []> var_603_equation_0 = const()[name = tensor<string, []>("op_603_equation_0"), val = tensor<string, []>("bchk,bkhq->bchq")];
            tensor<fp16, [1, 64, 1, 256]> var_603_cast_fp16 = einsum(equation = var_603_equation_0, values = (var_311_cast_fp16, var_540_cast_fp16))[name = tensor<string, []>("op_603_cast_fp16")];
            tensor<string, []> var_605_equation_0 = const()[name = tensor<string, []>("op_605_equation_0"), val = tensor<string, []>("bchk,bkhq->bchq")];
            tensor<fp16, [1, 64, 1, 256]> var_605_cast_fp16 = einsum(equation = var_605_equation_0, values = (var_311_cast_fp16, var_541_cast_fp16))[name = tensor<string, []>("op_605_cast_fp16")];
            tensor<string, []> var_607_equation_0 = const()[name = tensor<string, []>("op_607_equation_0"), val = tensor<string, []>("bchk,bkhq->bchq")];
            tensor<fp16, [1, 64, 1, 256]> var_607_cast_fp16 = einsum(equation = var_607_equation_0, values = (var_311_cast_fp16, var_542_cast_fp16))[name = tensor<string, []>("op_607_cast_fp16")];
            tensor<string, []> var_609_equation_0 = const()[name = tensor<string, []>("op_609_equation_0"), val = tensor<string, []>("bchk,bkhq->bchq")];
            tensor<fp16, [1, 64, 1, 220]> var_609_cast_fp16 = einsum(equation = var_609_equation_0, values = (var_311_cast_fp16, var_543_cast_fp16))[name = tensor<string, []>("op_609_cast_fp16")];
            tensor<string, []> var_611_equation_0 = const()[name = tensor<string, []>("op_611_equation_0"), val = tensor<string, []>("bchk,bkhq->bchq")];
            tensor<fp16, [1, 64, 1, 256]> var_611_cast_fp16 = einsum(equation = var_611_equation_0, values = (var_315_cast_fp16, var_544_cast_fp16))[name = tensor<string, []>("op_611_cast_fp16")];
            tensor<string, []> var_613_equation_0 = const()[name = tensor<string, []>("op_613_equation_0"), val = tensor<string, []>("bchk,bkhq->bchq")];
            tensor<fp16, [1, 64, 1, 256]> var_613_cast_fp16 = einsum(equation = var_613_equation_0, values = (var_315_cast_fp16, var_545_cast_fp16))[name = tensor<string, []>("op_613_cast_fp16")];
            tensor<string, []> var_615_equation_0 = const()[name = tensor<string, []>("op_615_equation_0"), val = tensor<string, []>("bchk,bkhq->bchq")];
            tensor<fp16, [1, 64, 1, 256]> var_615_cast_fp16 = einsum(equation = var_615_equation_0, values = (var_315_cast_fp16, var_546_cast_fp16))[name = tensor<string, []>("op_615_cast_fp16")];
            tensor<string, []> var_617_equation_0 = const()[name = tensor<string, []>("op_617_equation_0"), val = tensor<string, []>("bchk,bkhq->bchq")];
            tensor<fp16, [1, 64, 1, 256]> var_617_cast_fp16 = einsum(equation = var_617_equation_0, values = (var_315_cast_fp16, var_547_cast_fp16))[name = tensor<string, []>("op_617_cast_fp16")];
            tensor<string, []> var_619_equation_0 = const()[name = tensor<string, []>("op_619_equation_0"), val = tensor<string, []>("bchk,bkhq->bchq")];
            tensor<fp16, [1, 64, 1, 256]> var_619_cast_fp16 = einsum(equation = var_619_equation_0, values = (var_315_cast_fp16, var_548_cast_fp16))[name = tensor<string, []>("op_619_cast_fp16")];
            tensor<string, []> var_621_equation_0 = const()[name = tensor<string, []>("op_621_equation_0"), val = tensor<string, []>("bchk,bkhq->bchq")];
            tensor<fp16, [1, 64, 1, 220]> var_621_cast_fp16 = einsum(equation = var_621_equation_0, values = (var_315_cast_fp16, var_549_cast_fp16))[name = tensor<string, []>("op_621_cast_fp16")];
            tensor<string, []> var_623_equation_0 = const()[name = tensor<string, []>("op_623_equation_0"), val = tensor<string, []>("bchk,bkhq->bchq")];
            tensor<fp16, [1, 64, 1, 256]> var_623_cast_fp16 = einsum(equation = var_623_equation_0, values = (var_319_cast_fp16, var_550_cast_fp16))[name = tensor<string, []>("op_623_cast_fp16")];
            tensor<string, []> var_625_equation_0 = const()[name = tensor<string, []>("op_625_equation_0"), val = tensor<string, []>("bchk,bkhq->bchq")];
            tensor<fp16, [1, 64, 1, 256]> var_625_cast_fp16 = einsum(equation = var_625_equation_0, values = (var_319_cast_fp16, var_551_cast_fp16))[name = tensor<string, []>("op_625_cast_fp16")];
            tensor<string, []> var_627_equation_0 = const()[name = tensor<string, []>("op_627_equation_0"), val = tensor<string, []>("bchk,bkhq->bchq")];
            tensor<fp16, [1, 64, 1, 256]> var_627_cast_fp16 = einsum(equation = var_627_equation_0, values = (var_319_cast_fp16, var_552_cast_fp16))[name = tensor<string, []>("op_627_cast_fp16")];
            tensor<string, []> var_629_equation_0 = const()[name = tensor<string, []>("op_629_equation_0"), val = tensor<string, []>("bchk,bkhq->bchq")];
            tensor<fp16, [1, 64, 1, 256]> var_629_cast_fp16 = einsum(equation = var_629_equation_0, values = (var_319_cast_fp16, var_553_cast_fp16))[name = tensor<string, []>("op_629_cast_fp16")];
            tensor<string, []> var_631_equation_0 = const()[name = tensor<string, []>("op_631_equation_0"), val = tensor<string, []>("bchk,bkhq->bchq")];
            tensor<fp16, [1, 64, 1, 256]> var_631_cast_fp16 = einsum(equation = var_631_equation_0, values = (var_319_cast_fp16, var_554_cast_fp16))[name = tensor<string, []>("op_631_cast_fp16")];
            tensor<string, []> var_633_equation_0 = const()[name = tensor<string, []>("op_633_equation_0"), val = tensor<string, []>("bchk,bkhq->bchq")];
            tensor<fp16, [1, 64, 1, 220]> var_633_cast_fp16 = einsum(equation = var_633_equation_0, values = (var_319_cast_fp16, var_555_cast_fp16))[name = tensor<string, []>("op_633_cast_fp16")];
            tensor<string, []> var_635_equation_0 = const()[name = tensor<string, []>("op_635_equation_0"), val = tensor<string, []>("bchk,bkhq->bchq")];
            tensor<fp16, [1, 64, 1, 256]> var_635_cast_fp16 = einsum(equation = var_635_equation_0, values = (var_323_cast_fp16, var_556_cast_fp16))[name = tensor<string, []>("op_635_cast_fp16")];
            tensor<string, []> var_637_equation_0 = const()[name = tensor<string, []>("op_637_equation_0"), val = tensor<string, []>("bchk,bkhq->bchq")];
            tensor<fp16, [1, 64, 1, 256]> var_637_cast_fp16 = einsum(equation = var_637_equation_0, values = (var_323_cast_fp16, var_557_cast_fp16))[name = tensor<string, []>("op_637_cast_fp16")];
            tensor<string, []> var_639_equation_0 = const()[name = tensor<string, []>("op_639_equation_0"), val = tensor<string, []>("bchk,bkhq->bchq")];
            tensor<fp16, [1, 64, 1, 256]> var_639_cast_fp16 = einsum(equation = var_639_equation_0, values = (var_323_cast_fp16, var_558_cast_fp16))[name = tensor<string, []>("op_639_cast_fp16")];
            tensor<string, []> var_641_equation_0 = const()[name = tensor<string, []>("op_641_equation_0"), val = tensor<string, []>("bchk,bkhq->bchq")];
            tensor<fp16, [1, 64, 1, 256]> var_641_cast_fp16 = einsum(equation = var_641_equation_0, values = (var_323_cast_fp16, var_559_cast_fp16))[name = tensor<string, []>("op_641_cast_fp16")];
            tensor<string, []> var_643_equation_0 = const()[name = tensor<string, []>("op_643_equation_0"), val = tensor<string, []>("bchk,bkhq->bchq")];
            tensor<fp16, [1, 64, 1, 256]> var_643_cast_fp16 = einsum(equation = var_643_equation_0, values = (var_323_cast_fp16, var_560_cast_fp16))[name = tensor<string, []>("op_643_cast_fp16")];
            tensor<string, []> var_645_equation_0 = const()[name = tensor<string, []>("op_645_equation_0"), val = tensor<string, []>("bchk,bkhq->bchq")];
            tensor<fp16, [1, 64, 1, 220]> var_645_cast_fp16 = einsum(equation = var_645_equation_0, values = (var_323_cast_fp16, var_561_cast_fp16))[name = tensor<string, []>("op_645_cast_fp16")];
            tensor<string, []> var_647_equation_0 = const()[name = tensor<string, []>("op_647_equation_0"), val = tensor<string, []>("bchk,bkhq->bchq")];
            tensor<fp16, [1, 64, 1, 256]> var_647_cast_fp16 = einsum(equation = var_647_equation_0, values = (var_327_cast_fp16, var_562_cast_fp16))[name = tensor<string, []>("op_647_cast_fp16")];
            tensor<string, []> var_649_equation_0 = const()[name = tensor<string, []>("op_649_equation_0"), val = tensor<string, []>("bchk,bkhq->bchq")];
            tensor<fp16, [1, 64, 1, 256]> var_649_cast_fp16 = einsum(equation = var_649_equation_0, values = (var_327_cast_fp16, var_563_cast_fp16))[name = tensor<string, []>("op_649_cast_fp16")];
            tensor<string, []> var_651_equation_0 = const()[name = tensor<string, []>("op_651_equation_0"), val = tensor<string, []>("bchk,bkhq->bchq")];
            tensor<fp16, [1, 64, 1, 256]> var_651_cast_fp16 = einsum(equation = var_651_equation_0, values = (var_327_cast_fp16, var_564_cast_fp16))[name = tensor<string, []>("op_651_cast_fp16")];
            tensor<string, []> var_653_equation_0 = const()[name = tensor<string, []>("op_653_equation_0"), val = tensor<string, []>("bchk,bkhq->bchq")];
            tensor<fp16, [1, 64, 1, 256]> var_653_cast_fp16 = einsum(equation = var_653_equation_0, values = (var_327_cast_fp16, var_565_cast_fp16))[name = tensor<string, []>("op_653_cast_fp16")];
            tensor<string, []> var_655_equation_0 = const()[name = tensor<string, []>("op_655_equation_0"), val = tensor<string, []>("bchk,bkhq->bchq")];
            tensor<fp16, [1, 64, 1, 256]> var_655_cast_fp16 = einsum(equation = var_655_equation_0, values = (var_327_cast_fp16, var_566_cast_fp16))[name = tensor<string, []>("op_655_cast_fp16")];
            tensor<string, []> var_657_equation_0 = const()[name = tensor<string, []>("op_657_equation_0"), val = tensor<string, []>("bchk,bkhq->bchq")];
            tensor<fp16, [1, 64, 1, 220]> var_657_cast_fp16 = einsum(equation = var_657_equation_0, values = (var_327_cast_fp16, var_567_cast_fp16))[name = tensor<string, []>("op_657_cast_fp16")];
            tensor<string, []> var_659_equation_0 = const()[name = tensor<string, []>("op_659_equation_0"), val = tensor<string, []>("bchk,bkhq->bchq")];
            tensor<fp16, [1, 64, 1, 256]> var_659_cast_fp16 = einsum(equation = var_659_equation_0, values = (var_331_cast_fp16, var_568_cast_fp16))[name = tensor<string, []>("op_659_cast_fp16")];
            tensor<string, []> var_661_equation_0 = const()[name = tensor<string, []>("op_661_equation_0"), val = tensor<string, []>("bchk,bkhq->bchq")];
            tensor<fp16, [1, 64, 1, 256]> var_661_cast_fp16 = einsum(equation = var_661_equation_0, values = (var_331_cast_fp16, var_569_cast_fp16))[name = tensor<string, []>("op_661_cast_fp16")];
            tensor<string, []> var_663_equation_0 = const()[name = tensor<string, []>("op_663_equation_0"), val = tensor<string, []>("bchk,bkhq->bchq")];
            tensor<fp16, [1, 64, 1, 256]> var_663_cast_fp16 = einsum(equation = var_663_equation_0, values = (var_331_cast_fp16, var_570_cast_fp16))[name = tensor<string, []>("op_663_cast_fp16")];
            tensor<string, []> var_665_equation_0 = const()[name = tensor<string, []>("op_665_equation_0"), val = tensor<string, []>("bchk,bkhq->bchq")];
            tensor<fp16, [1, 64, 1, 256]> var_665_cast_fp16 = einsum(equation = var_665_equation_0, values = (var_331_cast_fp16, var_571_cast_fp16))[name = tensor<string, []>("op_665_cast_fp16")];
            tensor<string, []> var_667_equation_0 = const()[name = tensor<string, []>("op_667_equation_0"), val = tensor<string, []>("bchk,bkhq->bchq")];
            tensor<fp16, [1, 64, 1, 256]> var_667_cast_fp16 = einsum(equation = var_667_equation_0, values = (var_331_cast_fp16, var_572_cast_fp16))[name = tensor<string, []>("op_667_cast_fp16")];
            tensor<string, []> var_669_equation_0 = const()[name = tensor<string, []>("op_669_equation_0"), val = tensor<string, []>("bchk,bkhq->bchq")];
            tensor<fp16, [1, 64, 1, 220]> var_669_cast_fp16 = einsum(equation = var_669_equation_0, values = (var_331_cast_fp16, var_573_cast_fp16))[name = tensor<string, []>("op_669_cast_fp16")];
            tensor<bool, []> var_671_interleave_0 = const()[name = tensor<string, []>("op_671_interleave_0"), val = tensor<bool, []>(false)];
            tensor<fp16, [1, 64, 1, 1500]> var_671_cast_fp16 = concat(axis = var_125, interleave = var_671_interleave_0, values = (var_575_cast_fp16, var_577_cast_fp16, var_579_cast_fp16, var_581_cast_fp16, var_583_cast_fp16, var_585_cast_fp16))[name = tensor<string, []>("op_671_cast_fp16")];
            tensor<bool, []> var_673_interleave_0 = const()[name = tensor<string, []>("op_673_interleave_0"), val = tensor<bool, []>(false)];
            tensor<fp16, [1, 64, 1, 1500]> var_673_cast_fp16 = concat(axis = var_125, interleave = var_673_interleave_0, values = (var_587_cast_fp16, var_589_cast_fp16, var_591_cast_fp16, var_593_cast_fp16, var_595_cast_fp16, var_597_cast_fp16))[name = tensor<string, []>("op_673_cast_fp16")];
            tensor<bool, []> var_675_interleave_0 = const()[name = tensor<string, []>("op_675_interleave_0"), val = tensor<bool, []>(false)];
            tensor<fp16, [1, 64, 1, 1500]> var_675_cast_fp16 = concat(axis = var_125, interleave = var_675_interleave_0, values = (var_599_cast_fp16, var_601_cast_fp16, var_603_cast_fp16, var_605_cast_fp16, var_607_cast_fp16, var_609_cast_fp16))[name = tensor<string, []>("op_675_cast_fp16")];
            tensor<bool, []> var_677_interleave_0 = const()[name = tensor<string, []>("op_677_interleave_0"), val = tensor<bool, []>(false)];
            tensor<fp16, [1, 64, 1, 1500]> var_677_cast_fp16 = concat(axis = var_125, interleave = var_677_interleave_0, values = (var_611_cast_fp16, var_613_cast_fp16, var_615_cast_fp16, var_617_cast_fp16, var_619_cast_fp16, var_621_cast_fp16))[name = tensor<string, []>("op_677_cast_fp16")];
            tensor<bool, []> var_679_interleave_0 = const()[name = tensor<string, []>("op_679_interleave_0"), val = tensor<bool, []>(false)];
            tensor<fp16, [1, 64, 1, 1500]> var_679_cast_fp16 = concat(axis = var_125, interleave = var_679_interleave_0, values = (var_623_cast_fp16, var_625_cast_fp16, var_627_cast_fp16, var_629_cast_fp16, var_631_cast_fp16, var_633_cast_fp16))[name = tensor<string, []>("op_679_cast_fp16")];
            tensor<bool, []> var_681_interleave_0 = const()[name = tensor<string, []>("op_681_interleave_0"), val = tensor<bool, []>(false)];
            tensor<fp16, [1, 64, 1, 1500]> var_681_cast_fp16 = concat(axis = var_125, interleave = var_681_interleave_0, values = (var_635_cast_fp16, var_637_cast_fp16, var_639_cast_fp16, var_641_cast_fp16, var_643_cast_fp16, var_645_cast_fp16))[name = tensor<string, []>("op_681_cast_fp16")];
            tensor<bool, []> var_683_interleave_0 = const()[name = tensor<string, []>("op_683_interleave_0"), val = tensor<bool, []>(false)];
            tensor<fp16, [1, 64, 1, 1500]> var_683_cast_fp16 = concat(axis = var_125, interleave = var_683_interleave_0, values = (var_647_cast_fp16, var_649_cast_fp16, var_651_cast_fp16, var_653_cast_fp16, var_655_cast_fp16, var_657_cast_fp16))[name = tensor<string, []>("op_683_cast_fp16")];
            tensor<bool, []> var_685_interleave_0 = const()[name = tensor<string, []>("op_685_interleave_0"), val = tensor<bool, []>(false)];
            tensor<fp16, [1, 64, 1, 1500]> var_685_cast_fp16 = concat(axis = var_125, interleave = var_685_interleave_0, values = (var_659_cast_fp16, var_661_cast_fp16, var_663_cast_fp16, var_665_cast_fp16, var_667_cast_fp16, var_669_cast_fp16))[name = tensor<string, []>("op_685_cast_fp16")];
            tensor<bool, []> input_1_interleave_0 = const()[name = tensor<string, []>("input_1_interleave_0"), val = tensor<bool, []>(false)];
            tensor<fp16, [1, 512, 1, 1500]> input_1_cast_fp16 = concat(axis = var_138, interleave = input_1_interleave_0, values = (var_671_cast_fp16, var_673_cast_fp16, var_675_cast_fp16, var_677_cast_fp16, var_679_cast_fp16, var_681_cast_fp16, var_683_cast_fp16, var_685_cast_fp16))[name = tensor<string, []>("input_1_cast_fp16")];
            tensor<string, []> obj_3_pad_type_0 = const()[name = tensor<string, []>("obj_3_pad_type_0"), val = tensor<string, []>("valid")];
            tensor<int32, [2]> obj_3_strides_0 = const()[name = tensor<string, []>("obj_3_strides_0"), val = tensor<int32, [2]>([1, 1])];
            tensor<int32, [4]> obj_3_pad_0 = const()[name = tensor<string, []>("obj_3_pad_0"), val = tensor<int32, [4]>([0, 0, 0, 0])];
            tensor<int32, [2]> obj_3_dilations_0 = const()[name = tensor<string, []>("obj_3_dilations_0"), val = tensor<int32, [2]>([1, 1])];
            tensor<int32, []> obj_3_groups_0 = const()[name = tensor<string, []>("obj_3_groups_0"), val = tensor<int32, []>(1)];
            tensor<fp16, [512, 512, 1, 1]> layers_0_self_attn_o_proj_weight_to_fp16 = const()[name = tensor<string, []>("layers_0_self_attn_o_proj_weight_to_fp16"), val = tensor<fp16, [512, 512, 1, 1]>(BLOBFILE(path = tensor<string, []>("@model_path/weights/weight.bin"), offset = tensor<uint64, []>(4936640)))];
            tensor<fp16, [512]> layers_0_self_attn_o_proj_bias_to_fp16 = const()[name = tensor<string, []>("layers_0_self_attn_o_proj_bias_to_fp16"), val = tensor<fp16, [512]>(BLOBFILE(path = tensor<string, []>("@model_path/weights/weight.bin"), offset = tensor<uint64, []>(5460992)))];
            tensor<fp16, [1, 512, 1, 1500]> obj_3_cast_fp16 = conv(bias = layers_0_self_attn_o_proj_bias_to_fp16, dilations = obj_3_dilations_0, groups = obj_3_groups_0, pad = obj_3_pad_0, pad_type = obj_3_pad_type_0, strides = obj_3_strides_0, weight = layers_0_self_attn_o_proj_weight_to_fp16, x = input_1_cast_fp16)[name = tensor<string, []>("obj_3_cast_fp16")];
            tensor<fp16, [1, 512, 1, 1500]> inputs_3_cast_fp16 = add(x = inputs_1_cast_fp16, y = obj_3_cast_fp16)[name = tensor<string, []>("inputs_3_cast_fp16")];
            tensor<int32, [1]> out_3_axes_0 = const()[name = tensor<string, []>("out_3_axes_0"), val = tensor<int32, [1]>([1])];
            tensor<fp16, []> var_704_to_fp16 = const()[name = tensor<string, []>("op_704_to_fp16"), val = tensor<fp16, []>(0x1.5p-17)];
            tensor<fp16, [1, 512, 1, 1500]> out_3_cast_fp16 = layer_norm(axes = out_3_axes_0, epsilon = var_704_to_fp16, x = inputs_3_cast_fp16)[name = tensor<string, []>("out_3_cast_fp16")];
            tensor<fp16, [512]> input_3_gamma_0_to_fp16 = const()[name = tensor<string, []>("input_3_gamma_0_to_fp16"), val = tensor<fp16, [512]>(BLOBFILE(path = tensor<string, []>("@model_path/weights/weight.bin"), offset = tensor<uint64, []>(5462080)))];
            tensor<fp16, [512]> input_3_beta_0_to_fp16 = const()[name = tensor<string, []>("input_3_beta_0_to_fp16"), val = tensor<fp16, [512]>(BLOBFILE(path = tensor<string, []>("@model_path/weights/weight.bin"), offset = tensor<uint64, []>(5463168)))];
            tensor<fp16, []> input_3_epsilon_0_to_fp16 = const()[name = tensor<string, []>("input_3_epsilon_0_to_fp16"), val = tensor<fp16, []>(0x1.5p-17)];
            tensor<fp16, [1, 512, 1, 1500]> input_3_cast_fp16 = batch_norm(beta = input_3_beta_0_to_fp16, epsilon = input_3_epsilon_0_to_fp16, gamma = input_3_gamma_0_to_fp16, mean = obj_1_mean_0_to_fp16, variance = obj_1_variance_0_to_fp16, x = out_3_cast_fp16)[name = tensor<string, []>("input_3_cast_fp16")];
            tensor<string, []> input_5_pad_type_0 = const()[name = tensor<string, []>("input_5_pad_type_0"), val = tensor<string, []>("valid")];
            tensor<int32, [2]> input_5_strides_0 = const()[name = tensor<string, []>("input_5_strides_0"), val = tensor<int32, [2]>([1, 1])];
            tensor<int32, [4]> input_5_pad_0 = const()[name = tensor<string, []>("input_5_pad_0"), val = tensor<int32, [4]>([0, 0, 0, 0])];
            tensor<int32, [2]> input_5_dilations_0 = const()[name = tensor<string, []>("input_5_dilations_0"), val = tensor<int32, [2]>([1, 1])];
            tensor<int32, []> input_5_groups_0 = const()[name = tensor<string, []>("input_5_groups_0"), val = tensor<int32, []>(1)];
            tensor<fp16, [2048, 512, 1, 1]> layers_0_fc1_weight_to_fp16 = const()[name = tensor<string, []>("layers_0_fc1_weight_to_fp16"), val = tensor<fp16, [2048, 512, 1, 1]>(BLOBFILE(path = tensor<string, []>("@model_path/weights/weight.bin"), offset = tensor<uint64, []>(5464256)))];
            tensor<fp16, [2048]> layers_0_fc1_bias_to_fp16 = const()[name = tensor<string, []>("layers_0_fc1_bias_to_fp16"), val = tensor<fp16, [2048]>(BLOBFILE(path = tensor<string, []>("@model_path/weights/weight.bin"), offset = tensor<uint64, []>(7561472)))];
            tensor<fp16, [1, 2048, 1, 1500]> input_5_cast_fp16 = conv(bias = layers_0_fc1_bias_to_fp16, dilations = input_5_dilations_0, groups = input_5_groups_0, pad = input_5_pad_0, pad_type = input_5_pad_type_0, strides = input_5_strides_0, weight = layers_0_fc1_weight_to_fp16, x = input_3_cast_fp16)[name = tensor<string, []>("input_5_cast_fp16")];
            tensor<string, []> input_7_mode_0 = const()[name = tensor<string, []>("input_7_mode_0"), val = tensor<string, []>("EXACT")];
            tensor<fp16, [1, 2048, 1, 1500]> input_7_cast_fp16 = gelu(mode = input_7_mode_0, x = input_5_cast_fp16)[name = tensor<string, []>("input_7_cast_fp16")];
            tensor<string, []> hidden_states_5_pad_type_0 = const()[name = tensor<string, []>("hidden_states_5_pad_type_0"), val = tensor<string, []>("valid")];
            tensor<int32, [2]> hidden_states_5_strides_0 = const()[name = tensor<string, []>("hidden_states_5_strides_0"), val = tensor<int32, [2]>([1, 1])];
            tensor<int32, [4]> hidden_states_5_pad_0 = const()[name = tensor<string, []>("hidden_states_5_pad_0"), val = tensor<int32, [4]>([0, 0, 0, 0])];
            tensor<int32, [2]> hidden_states_5_dilations_0 = const()[name = tensor<string, []>("hidden_states_5_dilations_0"), val = tensor<int32, [2]>([1, 1])];
            tensor<int32, []> hidden_states_5_groups_0 = const()[name = tensor<string, []>("hidden_states_5_groups_0"), val = tensor<int32, []>(1)];
            tensor<fp16, [512, 2048, 1, 1]> layers_0_fc2_weight_to_fp16 = const()[name = tensor<string, []>("layers_0_fc2_weight_to_fp16"), val = tensor<fp16, [512, 2048, 1, 1]>(BLOBFILE(path = tensor<string, []>("@model_path/weights/weight.bin"), offset = tensor<uint64, []>(7565632)))];
            tensor<fp16, [512]> layers_0_fc2_bias_to_fp16 = const()[name = tensor<string, []>("layers_0_fc2_bias_to_fp16"), val = tensor<fp16, [512]>(BLOBFILE(path = tensor<string, []>("@model_path/weights/weight.bin"), offset = tensor<uint64, []>(9662848)))];
            tensor<fp16, [1, 512, 1, 1500]> hidden_states_5_cast_fp16 = conv(bias = layers_0_fc2_bias_to_fp16, dilations = hidden_states_5_dilations_0, groups = hidden_states_5_groups_0, pad = hidden_states_5_pad_0, pad_type = hidden_states_5_pad_type_0, strides = hidden_states_5_strides_0, weight = layers_0_fc2_weight_to_fp16, x = input_7_cast_fp16)[name = tensor<string, []>("hidden_states_5_cast_fp16")];
            tensor<fp16, [1, 512, 1, 1500]> inputs_5_cast_fp16 = add(x = inputs_3_cast_fp16, y = hidden_states_5_cast_fp16)[name = tensor<string, []>("inputs_5_cast_fp16")];
            tensor<int32, []> var_736 = const()[name = tensor<string, []>("op_736"), val = tensor<int32, []>(3)];
            tensor<int32, []> var_749 = const()[name = tensor<string, []>("op_749"), val = tensor<int32, []>(1)];
            tensor<int32, [1]> out_5_axes_0 = const()[name = tensor<string, []>("out_5_axes_0"), val = tensor<int32, [1]>([1])];
            tensor<fp16, []> var_766_to_fp16 = const()[name = tensor<string, []>("op_766_to_fp16"), val = tensor<fp16, []>(0x1.5p-17)];
            tensor<fp16, [1, 512, 1, 1500]> out_5_cast_fp16 = layer_norm(axes = out_5_axes_0, epsilon = var_766_to_fp16, x = inputs_5_cast_fp16)[name = tensor<string, []>("out_5_cast_fp16")];
            tensor<fp16, [512]> obj_5_gamma_0_to_fp16 = const()[name = tensor<string, []>("obj_5_gamma_0_to_fp16"), val = tensor<fp16, [512]>(BLOBFILE(path = tensor<string, []>("@model_path/weights/weight.bin"), offset = tensor<uint64, []>(9663936)))];
            tensor<fp16, [512]> obj_5_beta_0_to_fp16 = const()[name = tensor<string, []>("obj_5_beta_0_to_fp16"), val = tensor<fp16, [512]>(BLOBFILE(path = tensor<string, []>("@model_path/weights/weight.bin"), offset = tensor<uint64, []>(9665024)))];
            tensor<fp16, []> obj_5_epsilon_0_to_fp16 = const()[name = tensor<string, []>("obj_5_epsilon_0_to_fp16"), val = tensor<fp16, []>(0x1.5p-17)];
            tensor<fp16, [1, 512, 1, 1500]> obj_5_cast_fp16 = batch_norm(beta = obj_5_beta_0_to_fp16, epsilon = obj_5_epsilon_0_to_fp16, gamma = obj_5_gamma_0_to_fp16, mean = obj_1_mean_0_to_fp16, variance = obj_1_variance_0_to_fp16, x = out_5_cast_fp16)[name = tensor<string, []>("obj_5_cast_fp16")];
            tensor<string, []> query_3_pad_type_0 = const()[name = tensor<string, []>("query_3_pad_type_0"), val = tensor<string, []>("valid")];
            tensor<int32, [2]> query_3_strides_0 = const()[name = tensor<string, []>("query_3_strides_0"), val = tensor<int32, [2]>([1, 1])];
            tensor<int32, [4]> query_3_pad_0 = const()[name = tensor<string, []>("query_3_pad_0"), val = tensor<int32, [4]>([0, 0, 0, 0])];
            tensor<int32, [2]> query_3_dilations_0 = const()[name = tensor<string, []>("query_3_dilations_0"), val = tensor<int32, [2]>([1, 1])];
            tensor<int32, []> query_3_groups_0 = const()[name = tensor<string, []>("query_3_groups_0"), val = tensor<int32, []>(1)];
            tensor<fp16, [512, 512, 1, 1]> layers_1_self_attn_q_proj_weight_to_fp16 = const()[name = tensor<string, []>("layers_1_self_attn_q_proj_weight_to_fp16"), val = tensor<fp16, [512, 512, 1, 1]>(BLOBFILE(path = tensor<string, []>("@model_path/weights/weight.bin"), offset = tensor<uint64, []>(9666112)))];
            tensor<fp16, [512]> layers_1_self_attn_q_proj_bias_to_fp16 = const()[name = tensor<string, []>("layers_1_self_attn_q_proj_bias_to_fp16"), val = tensor<fp16, [512]>(BLOBFILE(path = tensor<string, []>("@model_path/weights/weight.bin"), offset = tensor<uint64, []>(10190464)))];
            tensor<fp16, [1, 512, 1, 1500]> query_3_cast_fp16 = conv(bias = layers_1_self_attn_q_proj_bias_to_fp16, dilations = query_3_dilations_0, groups = query_3_groups_0, pad = query_3_pad_0, pad_type = query_3_pad_type_0, strides = query_3_strides_0, weight = layers_1_self_attn_q_proj_weight_to_fp16, x = obj_5_cast_fp16)[name = tensor<string, []>("query_3_cast_fp16")];
            tensor<string, []> key_3_pad_type_0 = const()[name = tensor<string, []>("key_3_pad_type_0"), val = tensor<string, []>("valid")];
            tensor<int32, [2]> key_3_strides_0 = const()[name = tensor<string, []>("key_3_strides_0"), val = tensor<int32, [2]>([1, 1])];
            tensor<int32, [4]> key_3_pad_0 = const()[name = tensor<string, []>("key_3_pad_0"), val = tensor<int32, [4]>([0, 0, 0, 0])];
            tensor<int32, [2]> key_3_dilations_0 = const()[name = tensor<string, []>("key_3_dilations_0"), val = tensor<int32, [2]>([1, 1])];
            tensor<int32, []> key_3_groups_0 = const()[name = tensor<string, []>("key_3_groups_0"), val = tensor<int32, []>(1)];
            tensor<fp16, [512, 512, 1, 1]> layers_1_self_attn_k_proj_weight_to_fp16 = const()[name = tensor<string, []>("layers_1_self_attn_k_proj_weight_to_fp16"), val = tensor<fp16, [512, 512, 1, 1]>(BLOBFILE(path = tensor<string, []>("@model_path/weights/weight.bin"), offset = tensor<uint64, []>(10191552)))];
            tensor<fp16, [1, 512, 1, 1500]> key_3_cast_fp16 = conv(dilations = key_3_dilations_0, groups = key_3_groups_0, pad = key_3_pad_0, pad_type = key_3_pad_type_0, strides = key_3_strides_0, weight = layers_1_self_attn_k_proj_weight_to_fp16, x = obj_5_cast_fp16)[name = tensor<string, []>("key_3_cast_fp16")];
            tensor<string, []> value_3_pad_type_0 = const()[name = tensor<string, []>("value_3_pad_type_0"), val = tensor<string, []>("valid")];
            tensor<int32, [2]> value_3_strides_0 = const()[name = tensor<string, []>("value_3_strides_0"), val = tensor<int32, [2]>([1, 1])];
            tensor<int32, [4]> value_3_pad_0 = const()[name = tensor<string, []>("value_3_pad_0"), val = tensor<int32, [4]>([0, 0, 0, 0])];
            tensor<int32, [2]> value_3_dilations_0 = const()[name = tensor<string, []>("value_3_dilations_0"), val = tensor<int32, [2]>([1, 1])];
            tensor<int32, []> value_3_groups_0 = const()[name = tensor<string, []>("value_3_groups_0"), val = tensor<int32, []>(1)];
            tensor<fp16, [512, 512, 1, 1]> layers_1_self_attn_v_proj_weight_to_fp16 = const()[name = tensor<string, []>("layers_1_self_attn_v_proj_weight_to_fp16"), val = tensor<fp16, [512, 512, 1, 1]>(BLOBFILE(path = tensor<string, []>("@model_path/weights/weight.bin"), offset = tensor<uint64, []>(10715904)))];
            tensor<fp16, [512]> layers_1_self_attn_v_proj_bias_to_fp16 = const()[name = tensor<string, []>("layers_1_self_attn_v_proj_bias_to_fp16"), val = tensor<fp16, [512]>(BLOBFILE(path = tensor<string, []>("@model_path/weights/weight.bin"), offset = tensor<uint64, []>(11240256)))];
            tensor<fp16, [1, 512, 1, 1500]> value_3_cast_fp16 = conv(bias = layers_1_self_attn_v_proj_bias_to_fp16, dilations = value_3_dilations_0, groups = value_3_groups_0, pad = value_3_pad_0, pad_type = value_3_pad_type_0, strides = value_3_strides_0, weight = layers_1_self_attn_v_proj_weight_to_fp16, x = obj_5_cast_fp16)[name = tensor<string, []>("value_3_cast_fp16")];
            tensor<int32, [4]> var_801_begin_0 = const()[name = tensor<string, []>("op_801_begin_0"), val = tensor<int32, [4]>([0, 0, 0, 0])];
            tensor<int32, [4]> var_801_end_0 = const()[name = tensor<string, []>("op_801_end_0"), val = tensor<int32, [4]>([1, 64, 1, 1500])];
            tensor<bool, [4]> var_801_end_mask_0 = const()[name = tensor<string, []>("op_801_end_mask_0"), val = tensor<bool, [4]>([true, false, true, true])];
            tensor<fp16, [1, 64, 1, 1500]> var_801_cast_fp16 = slice_by_index(begin = var_801_begin_0, end = var_801_end_0, end_mask = var_801_end_mask_0, x = query_3_cast_fp16)[name = tensor<string, []>("op_801_cast_fp16")];
            tensor<int32, [4]> var_805_begin_0 = const()[name = tensor<string, []>("op_805_begin_0"), val = tensor<int32, [4]>([0, 64, 0, 0])];
            tensor<int32, [4]> var_805_end_0 = const()[name = tensor<string, []>("op_805_end_0"), val = tensor<int32, [4]>([1, 128, 1, 1500])];
            tensor<bool, [4]> var_805_end_mask_0 = const()[name = tensor<string, []>("op_805_end_mask_0"), val = tensor<bool, [4]>([true, false, true, true])];
            tensor<fp16, [1, 64, 1, 1500]> var_805_cast_fp16 = slice_by_index(begin = var_805_begin_0, end = var_805_end_0, end_mask = var_805_end_mask_0, x = query_3_cast_fp16)[name = tensor<string, []>("op_805_cast_fp16")];
            tensor<int32, [4]> var_809_begin_0 = const()[name = tensor<string, []>("op_809_begin_0"), val = tensor<int32, [4]>([0, 128, 0, 0])];
            tensor<int32, [4]> var_809_end_0 = const()[name = tensor<string, []>("op_809_end_0"), val = tensor<int32, [4]>([1, 192, 1, 1500])];
            tensor<bool, [4]> var_809_end_mask_0 = const()[name = tensor<string, []>("op_809_end_mask_0"), val = tensor<bool, [4]>([true, false, true, true])];
            tensor<fp16, [1, 64, 1, 1500]> var_809_cast_fp16 = slice_by_index(begin = var_809_begin_0, end = var_809_end_0, end_mask = var_809_end_mask_0, x = query_3_cast_fp16)[name = tensor<string, []>("op_809_cast_fp16")];
            tensor<int32, [4]> var_813_begin_0 = const()[name = tensor<string, []>("op_813_begin_0"), val = tensor<int32, [4]>([0, 192, 0, 0])];
            tensor<int32, [4]> var_813_end_0 = const()[name = tensor<string, []>("op_813_end_0"), val = tensor<int32, [4]>([1, 256, 1, 1500])];
            tensor<bool, [4]> var_813_end_mask_0 = const()[name = tensor<string, []>("op_813_end_mask_0"), val = tensor<bool, [4]>([true, false, true, true])];
            tensor<fp16, [1, 64, 1, 1500]> var_813_cast_fp16 = slice_by_index(begin = var_813_begin_0, end = var_813_end_0, end_mask = var_813_end_mask_0, x = query_3_cast_fp16)[name = tensor<string, []>("op_813_cast_fp16")];
            tensor<int32, [4]> var_817_begin_0 = const()[name = tensor<string, []>("op_817_begin_0"), val = tensor<int32, [4]>([0, 256, 0, 0])];
            tensor<int32, [4]> var_817_end_0 = const()[name = tensor<string, []>("op_817_end_0"), val = tensor<int32, [4]>([1, 320, 1, 1500])];
            tensor<bool, [4]> var_817_end_mask_0 = const()[name = tensor<string, []>("op_817_end_mask_0"), val = tensor<bool, [4]>([true, false, true, true])];
            tensor<fp16, [1, 64, 1, 1500]> var_817_cast_fp16 = slice_by_index(begin = var_817_begin_0, end = var_817_end_0, end_mask = var_817_end_mask_0, x = query_3_cast_fp16)[name = tensor<string, []>("op_817_cast_fp16")];
            tensor<int32, [4]> var_821_begin_0 = const()[name = tensor<string, []>("op_821_begin_0"), val = tensor<int32, [4]>([0, 320, 0, 0])];
            tensor<int32, [4]> var_821_end_0 = const()[name = tensor<string, []>("op_821_end_0"), val = tensor<int32, [4]>([1, 384, 1, 1500])];
            tensor<bool, [4]> var_821_end_mask_0 = const()[name = tensor<string, []>("op_821_end_mask_0"), val = tensor<bool, [4]>([true, false, true, true])];
            tensor<fp16, [1, 64, 1, 1500]> var_821_cast_fp16 = slice_by_index(begin = var_821_begin_0, end = var_821_end_0, end_mask = var_821_end_mask_0, x = query_3_cast_fp16)[name = tensor<string, []>("op_821_cast_fp16")];
            tensor<int32, [4]> var_825_begin_0 = const()[name = tensor<string, []>("op_825_begin_0"), val = tensor<int32, [4]>([0, 384, 0, 0])];
            tensor<int32, [4]> var_825_end_0 = const()[name = tensor<string, []>("op_825_end_0"), val = tensor<int32, [4]>([1, 448, 1, 1500])];
            tensor<bool, [4]> var_825_end_mask_0 = const()[name = tensor<string, []>("op_825_end_mask_0"), val = tensor<bool, [4]>([true, false, true, true])];
            tensor<fp16, [1, 64, 1, 1500]> var_825_cast_fp16 = slice_by_index(begin = var_825_begin_0, end = var_825_end_0, end_mask = var_825_end_mask_0, x = query_3_cast_fp16)[name = tensor<string, []>("op_825_cast_fp16")];
            tensor<int32, [4]> var_829_begin_0 = const()[name = tensor<string, []>("op_829_begin_0"), val = tensor<int32, [4]>([0, 448, 0, 0])];
            tensor<int32, [4]> var_829_end_0 = const()[name = tensor<string, []>("op_829_end_0"), val = tensor<int32, [4]>([1, 1, 1, 1500])];
            tensor<bool, [4]> var_829_end_mask_0 = const()[name = tensor<string, []>("op_829_end_mask_0"), val = tensor<bool, [4]>([true, true, true, true])];
            tensor<fp16, [1, 64, 1, 1500]> var_829_cast_fp16 = slice_by_index(begin = var_829_begin_0, end = var_829_end_0, end_mask = var_829_end_mask_0, x = query_3_cast_fp16)[name = tensor<string, []>("op_829_cast_fp16")];
            tensor<int32, [4]> var_832_begin_0 = const()[name = tensor<string, []>("op_832_begin_0"), val = tensor<int32, [4]>([0, 0, 0, 0])];
            tensor<int32, [4]> var_832_end_0 = const()[name = tensor<string, []>("op_832_end_0"), val = tensor<int32, [4]>([1, 64, 1, 256])];
            tensor<bool, [4]> var_832_end_mask_0 = const()[name = tensor<string, []>("op_832_end_mask_0"), val = tensor<bool, [4]>([true, true, true, false])];
            tensor<fp16, [1, 64, 1, 256]> var_832_cast_fp16 = slice_by_index(begin = var_832_begin_0, end = var_832_end_0, end_mask = var_832_end_mask_0, x = var_801_cast_fp16)[name = tensor<string, []>("op_832_cast_fp16")];
            tensor<int32, [4]> var_833_begin_0 = const()[name = tensor<string, []>("op_833_begin_0"), val = tensor<int32, [4]>([0, 0, 0, 256])];
            tensor<int32, [4]> var_833_end_0 = const()[name = tensor<string, []>("op_833_end_0"), val = tensor<int32, [4]>([1, 64, 1, 512])];
            tensor<bool, [4]> var_833_end_mask_0 = const()[name = tensor<string, []>("op_833_end_mask_0"), val = tensor<bool, [4]>([true, true, true, false])];
            tensor<fp16, [1, 64, 1, 256]> var_833_cast_fp16 = slice_by_index(begin = var_833_begin_0, end = var_833_end_0, end_mask = var_833_end_mask_0, x = var_801_cast_fp16)[name = tensor<string, []>("op_833_cast_fp16")];
            tensor<int32, [4]> var_834_begin_0 = const()[name = tensor<string, []>("op_834_begin_0"), val = tensor<int32, [4]>([0, 0, 0, 512])];
            tensor<int32, [4]> var_834_end_0 = const()[name = tensor<string, []>("op_834_end_0"), val = tensor<int32, [4]>([1, 64, 1, 768])];
            tensor<bool, [4]> var_834_end_mask_0 = const()[name = tensor<string, []>("op_834_end_mask_0"), val = tensor<bool, [4]>([true, true, true, false])];
            tensor<fp16, [1, 64, 1, 256]> var_834_cast_fp16 = slice_by_index(begin = var_834_begin_0, end = var_834_end_0, end_mask = var_834_end_mask_0, x = var_801_cast_fp16)[name = tensor<string, []>("op_834_cast_fp16")];
            tensor<int32, [4]> var_835_begin_0 = const()[name = tensor<string, []>("op_835_begin_0"), val = tensor<int32, [4]>([0, 0, 0, 768])];
            tensor<int32, [4]> var_835_end_0 = const()[name = tensor<string, []>("op_835_end_0"), val = tensor<int32, [4]>([1, 64, 1, 1024])];
            tensor<bool, [4]> var_835_end_mask_0 = const()[name = tensor<string, []>("op_835_end_mask_0"), val = tensor<bool, [4]>([true, true, true, false])];
            tensor<fp16, [1, 64, 1, 256]> var_835_cast_fp16 = slice_by_index(begin = var_835_begin_0, end = var_835_end_0, end_mask = var_835_end_mask_0, x = var_801_cast_fp16)[name = tensor<string, []>("op_835_cast_fp16")];
            tensor<int32, [4]> var_836_begin_0 = const()[name = tensor<string, []>("op_836_begin_0"), val = tensor<int32, [4]>([0, 0, 0, 1024])];
            tensor<int32, [4]> var_836_end_0 = const()[name = tensor<string, []>("op_836_end_0"), val = tensor<int32, [4]>([1, 64, 1, 1280])];
            tensor<bool, [4]> var_836_end_mask_0 = const()[name = tensor<string, []>("op_836_end_mask_0"), val = tensor<bool, [4]>([true, true, true, false])];
            tensor<fp16, [1, 64, 1, 256]> var_836_cast_fp16 = slice_by_index(begin = var_836_begin_0, end = var_836_end_0, end_mask = var_836_end_mask_0, x = var_801_cast_fp16)[name = tensor<string, []>("op_836_cast_fp16")];
            tensor<int32, [4]> var_837_begin_0 = const()[name = tensor<string, []>("op_837_begin_0"), val = tensor<int32, [4]>([0, 0, 0, 1280])];
            tensor<int32, [4]> var_837_end_0 = const()[name = tensor<string, []>("op_837_end_0"), val = tensor<int32, [4]>([1, 64, 1, 1])];
            tensor<bool, [4]> var_837_end_mask_0 = const()[name = tensor<string, []>("op_837_end_mask_0"), val = tensor<bool, [4]>([true, true, true, true])];
            tensor<fp16, [1, 64, 1, 220]> var_837_cast_fp16 = slice_by_index(begin = var_837_begin_0, end = var_837_end_0, end_mask = var_837_end_mask_0, x = var_801_cast_fp16)[name = tensor<string, []>("op_837_cast_fp16")];
            tensor<int32, [4]> var_838_begin_0 = const()[name = tensor<string, []>("op_838_begin_0"), val = tensor<int32, [4]>([0, 0, 0, 0])];
            tensor<int32, [4]> var_838_end_0 = const()[name = tensor<string, []>("op_838_end_0"), val = tensor<int32, [4]>([1, 64, 1, 256])];
            tensor<bool, [4]> var_838_end_mask_0 = const()[name = tensor<string, []>("op_838_end_mask_0"), val = tensor<bool, [4]>([true, true, true, false])];
            tensor<fp16, [1, 64, 1, 256]> var_838_cast_fp16 = slice_by_index(begin = var_838_begin_0, end = var_838_end_0, end_mask = var_838_end_mask_0, x = var_805_cast_fp16)[name = tensor<string, []>("op_838_cast_fp16")];
            tensor<int32, [4]> var_839_begin_0 = const()[name = tensor<string, []>("op_839_begin_0"), val = tensor<int32, [4]>([0, 0, 0, 256])];
            tensor<int32, [4]> var_839_end_0 = const()[name = tensor<string, []>("op_839_end_0"), val = tensor<int32, [4]>([1, 64, 1, 512])];
            tensor<bool, [4]> var_839_end_mask_0 = const()[name = tensor<string, []>("op_839_end_mask_0"), val = tensor<bool, [4]>([true, true, true, false])];
            tensor<fp16, [1, 64, 1, 256]> var_839_cast_fp16 = slice_by_index(begin = var_839_begin_0, end = var_839_end_0, end_mask = var_839_end_mask_0, x = var_805_cast_fp16)[name = tensor<string, []>("op_839_cast_fp16")];
            tensor<int32, [4]> var_840_begin_0 = const()[name = tensor<string, []>("op_840_begin_0"), val = tensor<int32, [4]>([0, 0, 0, 512])];
            tensor<int32, [4]> var_840_end_0 = const()[name = tensor<string, []>("op_840_end_0"), val = tensor<int32, [4]>([1, 64, 1, 768])];
            tensor<bool, [4]> var_840_end_mask_0 = const()[name = tensor<string, []>("op_840_end_mask_0"), val = tensor<bool, [4]>([true, true, true, false])];
            tensor<fp16, [1, 64, 1, 256]> var_840_cast_fp16 = slice_by_index(begin = var_840_begin_0, end = var_840_end_0, end_mask = var_840_end_mask_0, x = var_805_cast_fp16)[name = tensor<string, []>("op_840_cast_fp16")];
            tensor<int32, [4]> var_841_begin_0 = const()[name = tensor<string, []>("op_841_begin_0"), val = tensor<int32, [4]>([0, 0, 0, 768])];
            tensor<int32, [4]> var_841_end_0 = const()[name = tensor<string, []>("op_841_end_0"), val = tensor<int32, [4]>([1, 64, 1, 1024])];
            tensor<bool, [4]> var_841_end_mask_0 = const()[name = tensor<string, []>("op_841_end_mask_0"), val = tensor<bool, [4]>([true, true, true, false])];
            tensor<fp16, [1, 64, 1, 256]> var_841_cast_fp16 = slice_by_index(begin = var_841_begin_0, end = var_841_end_0, end_mask = var_841_end_mask_0, x = var_805_cast_fp16)[name = tensor<string, []>("op_841_cast_fp16")];
            tensor<int32, [4]> var_842_begin_0 = const()[name = tensor<string, []>("op_842_begin_0"), val = tensor<int32, [4]>([0, 0, 0, 1024])];
            tensor<int32, [4]> var_842_end_0 = const()[name = tensor<string, []>("op_842_end_0"), val = tensor<int32, [4]>([1, 64, 1, 1280])];
…
            tensor<fp16, [1, 1500, 1, 256]> aw_chunk_501_cast_fp16 = mul(x = _SplitHeadsQ__mh_w_501_cast_fp16, y = var_3505_to_fp16)[name = tensor<string, []>("aw_chunk_501_cast_fp16")];
            tensor<fp16, []> var_3507_to_fp16 = const()[name = tensor<string, []>("op_3507_to_fp16"), val = tensor<fp16, []>(0x1p-3)];
            tensor<fp16, [1, 1500, 1, 220]> aw_chunk_503_cast_fp16 = mul(x = _SplitHeadsQ__mh_w_503_cast_fp16, y = var_3507_to_fp16)[name = tensor<string, []>("aw_chunk_503_cast_fp16")];
            tensor<fp16, []> var_3509_to_fp16 = const()[name = tensor<string, []>("op_3509_to_fp16"), val = tensor<fp16, []>(0x1p-3)];
            tensor<fp16, [1, 1500, 1, 256]> aw_chunk_505_cast_fp16 = mul(x = _SplitHeadsQ__mh_w_505_cast_fp16, y = var_3509_to_fp16)[name = tensor<string, []>("aw_chunk_505_cast_fp16")];
            tensor<fp16, []> var_3511_to_fp16 = const()[name = tensor<string, []>("op_3511_to_fp16"), val = tensor<fp16, []>(0x1p-3)];
            tensor<fp16, [1, 1500, 1, 256]> aw_chunk_507_cast_fp16 = mul(x = _SplitHeadsQ__mh_w_507_cast_fp16, y = var_3511_to_fp16)[name = tensor<string, []>("aw_chunk_507_cast_fp16")];
            tensor<fp16, []> var_3513_to_fp16 = const()[name = tensor<string, []>("op_3513_to_fp16"), val = tensor<fp16, []>(0x1p-3)];
            tensor<fp16, [1, 1500, 1, 256]> aw_chunk_509_cast_fp16 = mul(x = _SplitHeadsQ__mh_w_509_cast_fp16, y = var_3513_to_fp16)[name = tensor<string, []>("aw_chunk_509_cast_fp16")];
            tensor<fp16, []> var_3515_to_fp16 = const()[name = tensor<string, []>("op_3515_to_fp16"), val = tensor<fp16, []>(0x1p-3)];
            tensor<fp16, [1, 1500, 1, 256]> aw_chunk_511_cast_fp16 = mul(x = _SplitHeadsQ__mh_w_511_cast_fp16, y = var_3515_to_fp16)[name = tensor<string, []>("aw_chunk_511_cast_fp16")];
            tensor<fp16, []> var_3517_to_fp16 = const()[name = tensor<string, []>("op_3517_to_fp16"), val = tensor<fp16, []>(0x1p-3)];
            tensor<fp16, [1, 1500, 1, 256]> aw_chunk_513_cast_fp16 = mul(x = _SplitHeadsQ__mh_w_513_cast_fp16, y = var_3517_to_fp16)[name = tensor<string, []>("aw_chunk_513_cast_fp16")];
            tensor<fp16, []> var_3519_to_fp16 = const()[name = tensor<string, []>("op_3519_to_fp16"), val = tensor<fp16, []>(0x1p-3)];
            tensor<fp16, [1, 1500, 1, 220]> aw_chunk_515_cast_fp16 = mul(x = _SplitHeadsQ__mh_w_515_cast_fp16, y = var_3519_to_fp16)[name = tensor<string, []>("aw_chunk_515_cast_fp16")];
            tensor<fp16, []> var_3521_to_fp16 = const()[name = tensor<string, []>("op_3521_to_fp16"), val = tensor<fp16, []>(0x1p-3)];
            tensor<fp16, [1, 1500, 1, 256]> aw_chunk_517_cast_fp16 = mul(x = _SplitHeadsQ__mh_w_517_cast_fp16, y = var_3521_to_fp16)[name = tensor<string, []>("aw_chunk_517_cast_fp16")];
            tensor<fp16, []> var_3523_to_fp16 = const()[name = tensor<string, []>("op_3523_to_fp16"), val = tensor<fp16, []>(0x1p-3)];
            tensor<fp16, [1, 1500, 1, 256]> aw_chunk_519_cast_fp16 = mul(x = _SplitHeadsQ__mh_w_519_cast_fp16, y = var_3523_to_fp16)[name = tensor<string, []>("aw_chunk_519_cast_fp16")];
            tensor<fp16, []> var_3525_to_fp16 = const()[name = tensor<string, []>("op_3525_to_fp16"), val = tensor<fp16, []>(0x1p-3)];
            tensor<fp16, [1, 1500, 1, 256]> aw_chunk_521_cast_fp16 = mul(x = _SplitHeadsQ__mh_w_521_cast_fp16, y = var_3525_to_fp16)[name = tensor<string, []>("aw_chunk_521_cast_fp16")];
            tensor<fp16, []> var_3527_to_fp16 = const()[name = tensor<string, []>("op_3527_to_fp16"), val = tensor<fp16, []>(0x1p-3)];
            tensor<fp16, [1, 1500, 1, 256]> aw_chunk_523_cast_fp16 = mul(x = _SplitHeadsQ__mh_w_523_cast_fp16, y = var_3527_to_fp16)[name = tensor<string, []>("aw_chunk_523_cast_fp16")];
            tensor<fp16, []> var_3529_to_fp16 = const()[name = tensor<string, []>("op_3529_to_fp16"), val = tensor<fp16, []>(0x1p-3)];
            tensor<fp16, [1, 1500, 1, 256]> aw_chunk_525_cast_fp16 = mul(x = _SplitHeadsQ__mh_w_525_cast_fp16, y = var_3529_to_fp16)[name = tensor<string, []>("aw_chunk_525_cast_fp16")];
            tensor<fp16, []> var_3531_to_fp16 = const()[name = tensor<string, []>("op_3531_to_fp16"), val = tensor<fp16, []>(0x1p-3)];
            tensor<fp16, [1, 1500, 1, 220]> aw_chunk_527_cast_fp16 = mul(x = _SplitHeadsQ__mh_w_527_cast_fp16, y = var_3531_to_fp16)[name = tensor<string, []>("aw_chunk_527_cast_fp16")];
            tensor<fp16, []> var_3533_to_fp16 = const()[name = tensor<string, []>("op_3533_to_fp16"), val = tensor<fp16, []>(0x1p-3)];
            tensor<fp16, [1, 1500, 1, 256]> aw_chunk_529_cast_fp16 = mul(x = _SplitHeadsQ__mh_w_529_cast_fp16, y = var_3533_to_fp16)[name = tensor<string, []>("aw_chunk_529_cast_fp16")];
            tensor<fp16, []> var_3535_to_fp16 = const()[name = tensor<string, []>("op_3535_to_fp16"), val = tensor<fp16, []>(0x1p-3)];
            tensor<fp16, [1, 1500, 1, 256]> aw_chunk_531_cast_fp16 = mul(x = _SplitHeadsQ__mh_w_531_cast_fp16, y = var_3535_to_fp16)[name = tensor<string, []>("aw_chunk_531_cast_fp16")];
            tensor<fp16, []> var_3537_to_fp16 = const()[name = tensor<string, []>("op_3537_to_fp16"), val = tensor<fp16, []>(0x1p-3)];
            tensor<fp16, [1, 1500, 1, 256]> aw_chunk_533_cast_fp16 = mul(x = _SplitHeadsQ__mh_w_533_cast_fp16, y = var_3537_to_fp16)[name = tensor<string, []>("aw_chunk_533_cast_fp16")];
            tensor<fp16, []> var_3539_to_fp16 = const()[name = tensor<string, []>("op_3539_to_fp16"), val = tensor<fp16, []>(0x1p-3)];
            tensor<fp16, [1, 1500, 1, 256]> aw_chunk_535_cast_fp16 = mul(x = _SplitHeadsQ__mh_w_535_cast_fp16, y = var_3539_to_fp16)[name = tensor<string, []>("aw_chunk_535_cast_fp16")];
            tensor<fp16, []> var_3541_to_fp16 = const()[name = tensor<string, []>("op_3541_to_fp16"), val = tensor<fp16, []>(0x1p-3)];
            tensor<fp16, [1, 1500, 1, 256]> aw_chunk_537_cast_fp16 = mul(x = _SplitHeadsQ__mh_w_537_cast_fp16, y = var_3541_to_fp16)[name = tensor<string, []>("aw_chunk_537_cast_fp16")];
            tensor<fp16, []> var_3543_to_fp16 = const()[name = tensor<string, []>("op_3543_to_fp16"), val = tensor<fp16, []>(0x1p-3)];
            tensor<fp16, [1, 1500, 1, 220]> aw_chunk_539_cast_fp16 = mul(x = _SplitHeadsQ__mh_w_539_cast_fp16, y = var_3543_to_fp16)[name = tensor<string, []>("aw_chunk_539_cast_fp16")];
            tensor<fp16, []> var_3545_to_fp16 = const()[name = tensor<string, []>("op_3545_to_fp16"), val = tensor<fp16, []>(0x1p-3)];
            tensor<fp16, [1, 1500, 1, 256]> aw_chunk_541_cast_fp16 = mul(x = _SplitHeadsQ__mh_w_541_cast_fp16, y = var_3545_to_fp16)[name = tensor<string, []>("aw_chunk_541_cast_fp16")];
            tensor<fp16, []> var_3547_to_fp16 = const()[name = tensor<string, []>("op_3547_to_fp16"), val = tensor<fp16, []>(0x1p-3)];
            tensor<fp16, [1, 1500, 1, 256]> aw_chunk_543_cast_fp16 = mul(x = _SplitHeadsQ__mh_w_543_cast_fp16, y = var_3547_to_fp16)[name = tensor<string, []>("aw_chunk_543_cast_fp16")];
            tensor<fp16, []> var_3549_to_fp16 = const()[name = tensor<string, []>("op_3549_to_fp16"), val = tensor<fp16, []>(0x1p-3)];
            tensor<fp16, [1, 1500, 1, 256]> aw_chunk_545_cast_fp16 = mul(x = _SplitHeadsQ__mh_w_545_cast_fp16, y = var_3549_to_fp16)[name = tensor<string, []>("aw_chunk_545_cast_fp16")];
            tensor<fp16, []> var_3551_to_fp16 = const()[name = tensor<string, []>("op_3551_to_fp16"), val = tensor<fp16, []>(0x1p-3)];
            tensor<fp16, [1, 1500, 1, 256]> aw_chunk_547_cast_fp16 = mul(x = _SplitHeadsQ__mh_w_547_cast_fp16, y = var_3551_to_fp16)[name = tensor<string, []>("aw_chunk_547_cast_fp16")];
            tensor<fp16, []> var_3553_to_fp16 = const()[name = tensor<string, []>("op_3553_to_fp16"), val = tensor<fp16, []>(0x1p-3)];
            tensor<fp16, [1, 1500, 1, 256]> aw_chunk_549_cast_fp16 = mul(x = _SplitHeadsQ__mh_w_549_cast_fp16, y = var_3553_to_fp16)[name = tensor<string, []>("aw_chunk_549_cast_fp16")];
            tensor<fp16, []> var_3555_to_fp16 = const()[name = tensor<string, []>("op_3555_to_fp16"), val = tensor<fp16, []>(0x1p-3)];
            tensor<fp16, [1, 1500, 1, 220]> aw_chunk_551_cast_fp16 = mul(x = _SplitHeadsQ__mh_w_551_cast_fp16, y = var_3555_to_fp16)[name = tensor<string, []>("aw_chunk_551_cast_fp16")];
            tensor<fp16, []> var_3557_to_fp16 = const()[name = tensor<string, []>("op_3557_to_fp16"), val = tensor<fp16, []>(0x1p-3)];
            tensor<fp16, [1, 1500, 1, 256]> aw_chunk_553_cast_fp16 = mul(x = _SplitHeadsQ__mh_w_553_cast_fp16, y = var_3557_to_fp16)[name = tensor<string, []>("aw_chunk_553_cast_fp16")];
            tensor<fp16, []> var_3559_to_fp16 = const()[name = tensor<string, []>("op_3559_to_fp16"), val = tensor<fp16, []>(0x1p-3)];
            tensor<fp16, [1, 1500, 1, 256]> aw_chunk_555_cast_fp16 = mul(x = _SplitHeadsQ__mh_w_555_cast_fp16, y = var_3559_to_fp16)[name = tensor<string, []>("aw_chunk_555_cast_fp16")];
            tensor<fp16, []> var_3561_to_fp16 = const()[name = tensor<string, []>("op_3561_to_fp16"), val = tensor<fp16, []>(0x1p-3)];
            tensor<fp16, [1, 1500, 1, 256]> aw_chunk_557_cast_fp16 = mul(x = _SplitHeadsQ__mh_w_557_cast_fp16, y = var_3561_to_fp16)[name = tensor<string, []>("aw_chunk_557_cast_fp16")];
            tensor<fp16, []> var_3563_to_fp16 = const()[name = tensor<string, []>("op_3563_to_fp16"), val = tensor<fp16, []>(0x1p-3)];
            tensor<fp16, [1, 1500, 1, 256]> aw_chunk_559_cast_fp16 = mul(x = _SplitHeadsQ__mh_w_559_cast_fp16, y = var_3563_to_fp16)[name = tensor<string, []>("aw_chunk_559_cast_fp16")];
            tensor<fp16, []> var_3565_to_fp16 = const()[name = tensor<string, []>("op_3565_to_fp16"), val = tensor<fp16, []>(0x1p-3)];
            tensor<fp16, [1, 1500, 1, 256]> aw_chunk_561_cast_fp16 = mul(x = _SplitHeadsQ__mh_w_561_cast_fp16, y = var_3565_to_fp16)[name = tensor<string, []>("aw_chunk_561_cast_fp16")];
            tensor<fp16, []> var_3567_to_fp16 = const()[name = tensor<string, []>("op_3567_to_fp16"), val = tensor<fp16, []>(0x1p-3)];
            tensor<fp16, [1, 1500, 1, 220]> aw_chunk_563_cast_fp16 = mul(x = _SplitHeadsQ__mh_w_563_cast_fp16, y = var_3567_to_fp16)[name = tensor<string, []>("aw_chunk_563_cast_fp16")];
            tensor<fp16, []> var_3569_to_fp16 = const()[name = tensor<string, []>("op_3569_to_fp16"), val = tensor<fp16, []>(0x1p-3)];
            tensor<fp16, [1, 1500, 1, 256]> aw_chunk_565_cast_fp16 = mul(x = _SplitHeadsQ__mh_w_565_cast_fp16, y = var_3569_to_fp16)[name = tensor<string, []>("aw_chunk_565_cast_fp16")];
            tensor<fp16, []> var_3571_to_fp16 = const()[name = tensor<string, []>("op_3571_to_fp16"), val = tensor<fp16, []>(0x1p-3)];
            tensor<fp16, [1, 1500, 1, 256]> aw_chunk_567_cast_fp16 = mul(x = _SplitHeadsQ__mh_w_567_cast_fp16, y = var_3571_to_fp16)[name = tensor<string, []>("aw_chunk_567_cast_fp16")];
            tensor<fp16, []> var_3573_to_fp16 = const()[name = tensor<string, []>("op_3573_to_fp16"), val = tensor<fp16, []>(0x1p-3)];
            tensor<fp16, [1, 1500, 1, 256]> aw_chunk_569_cast_fp16 = mul(x = _SplitHeadsQ__mh_w_569_cast_fp16, y = var_3573_to_fp16)[name = tensor<string, []>("aw_chunk_569_cast_fp16")];
            tensor<fp16, []> var_3575_to_fp16 = const()[name = tensor<string, []>("op_3575_to_fp16"), val = tensor<fp16, []>(0x1p-3)];
            tensor<fp16, [1, 1500, 1, 256]> aw_chunk_571_cast_fp16 = mul(x = _SplitHeadsQ__mh_w_571_cast_fp16, y = var_3575_to_fp16)[name = tensor<string, []>("aw_chunk_571_cast_fp16")];
            tensor<fp16, []> var_3577_to_fp16 = const()[name = tensor<string, []>("op_3577_to_fp16"), val = tensor<fp16, []>(0x1p-3)];
            tensor<fp16, [1, 1500, 1, 256]> aw_chunk_573_cast_fp16 = mul(x = _SplitHeadsQ__mh_w_573_cast_fp16, y = var_3577_to_fp16)[name = tensor<string, []>("aw_chunk_573_cast_fp16")];
            tensor<fp16, []> var_3579_to_fp16 = const()[name = tensor<string, []>("op_3579_to_fp16"), val = tensor<fp16, []>(0x1p-3)];
            tensor<fp16, [1, 1500, 1, 220]> aw_chunk_cast_fp16 = mul(x = _SplitHeadsQ__mh_w_cast_fp16, y = var_3579_to_fp16)[name = tensor<string, []>("aw_chunk_cast_fp16")];
            tensor<fp16, [1, 1500, 1, 256]> var_3581_cast_fp16 = softmax(axis = var_3193, x = aw_chunk_481_cast_fp16)[name = tensor<string, []>("op_3581_cast_fp16")];
            tensor<fp16, [1, 1500, 1, 256]> var_3582_cast_fp16 = softmax(axis = var_3193, x = aw_chunk_483_cast_fp16)[name = tensor<string, []>("op_3582_cast_fp16")];
            tensor<fp16, [1, 1500, 1, 256]> var_3583_cast_fp16 = softmax(axis = var_3193, x = aw_chunk_485_cast_fp16)[name = tensor<string, []>("op_3583_cast_fp16")];
            tensor<fp16, [1, 1500, 1, 256]> var_3584_cast_fp16 = softmax(axis = var_3193, x = aw_chunk_487_cast_fp16)[name = tensor<string, []>("op_3584_cast_fp16")];
            tensor<fp16, [1, 1500, 1, 256]> var_3585_cast_fp16 = softmax(axis = var_3193, x = aw_chunk_489_cast_fp16)[name = tensor<string, []>("op_3585_cast_fp16")];
            tensor<fp16, [1, 1500, 1, 220]> var_3586_cast_fp16 = softmax(axis = var_3193, x = aw_chunk_491_cast_fp16)[name = tensor<string, []>("op_3586_cast_fp16")];
            tensor<fp16, [1, 1500, 1, 256]> var_3587_cast_fp16 = softmax(axis = var_3193, x = aw_chunk_493_cast_fp16)[name = tensor<string, []>("op_3587_cast_fp16")];
            tensor<fp16, [1, 1500, 1, 256]> var_3588_cast_fp16 = softmax(axis = var_3193, x = aw_chunk_495_cast_fp16)[name = tensor<string, []>("op_3588_cast_fp16")];
            tensor<fp16, [1, 1500, 1, 256]> var_3589_cast_fp16 = softmax(axis = var_3193, x = aw_chunk_497_cast_fp16)[name = tensor<string, []>("op_3589_cast_fp16")];
            tensor<fp16, [1, 1500, 1, 256]> var_3590_cast_fp16 = softmax(axis = var_3193, x = aw_chunk_499_cast_fp16)[name = tensor<string, []>("op_3590_cast_fp16")];
            tensor<fp16, [1, 1500, 1, 256]> var_3591_cast_fp16 = softmax(axis = var_3193, x = aw_chunk_501_cast_fp16)[name = tensor<string, []>("op_3591_cast_fp16")];
            tensor<fp16, [1, 1500, 1, 220]> var_3592_cast_fp16 = softmax(axis = var_3193, x = aw_chunk_503_cast_fp16)[name = tensor<string, []>("op_3592_cast_fp16")];
            tensor<fp16, [1, 1500, 1, 256]> var_3593_cast_fp16 = softmax(axis = var_3193, x = aw_chunk_505_cast_fp16)[name = tensor<string, []>("op_3593_cast_fp16")];
            tensor<fp16, [1, 1500, 1, 256]> var_3594_cast_fp16 = softmax(axis = var_3193, x = aw_chunk_507_cast_fp16)[name = tensor<string, []>("op_3594_cast_fp16")];
            tensor<fp16, [1, 1500, 1, 256]> var_3595_cast_fp16 = softmax(axis = var_3193, x = aw_chunk_509_cast_fp16)[name = tensor<string, []>("op_3595_cast_fp16")];
            tensor<fp16, [1, 1500, 1, 256]> var_3596_cast_fp16 = softmax(axis = var_3193, x = aw_chunk_511_cast_fp16)[name = tensor<string, []>("op_3596_cast_fp16")];
            tensor<fp16, [1, 1500, 1, 256]> var_3597_cast_fp16 = softmax(axis = var_3193, x = aw_chunk_513_cast_fp16)[name = tensor<string, []>("op_3597_cast_fp16")];
            tensor<fp16, [1, 1500, 1, 220]> var_3598_cast_fp16 = softmax(axis = var_3193, x = aw_chunk_515_cast_fp16)[name = tensor<string, []>("op_3598_cast_fp16")];
            tensor<fp16, [1, 1500, 1, 256]> var_3599_cast_fp16 = softmax(axis = var_3193, x = aw_chunk_517_cast_fp16)[name = tensor<string, []>("op_3599_cast_fp16")];
            tensor<fp16, [1, 1500, 1, 256]> var_3600_cast_fp16 = softmax(axis = var_3193, x = aw_chunk_519_cast_fp16)[name = tensor<string, []>("op_3600_cast_fp16")];
            tensor<fp16, [1, 1500, 1, 256]> var_3601_cast_fp16 = softmax(axis = var_3193, x = aw_chunk_521_cast_fp16)[name = tensor<string, []>("op_3601_cast_fp16")];
            tensor<fp16, [1, 1500, 1, 256]> var_3602_cast_fp16 = softmax(axis = var_3193, x = aw_chunk_523_cast_fp16)[name = tensor<string, []>("op_3602_cast_fp16")];
            tensor<fp16, [1, 1500, 1, 256]> var_3603_cast_fp16 = softmax(axis = var_3193, x = aw_chunk_525_cast_fp16)[name = tensor<string, []>("op_3603_cast_fp16")];
            tensor<fp16, [1, 1500, 1, 220]> var_3604_cast_fp16 = softmax(axis = var_3193, x = aw_chunk_527_cast_fp16)[name = tensor<string, []>("op_3604_cast_fp16")];
            tensor<fp16, [1, 1500, 1, 256]> var_3605_cast_fp16 = softmax(axis = var_3193, x = aw_chunk_529_cast_fp16)[name = tensor<string, []>("op_3605_cast_fp16")];
            tensor<fp16, [1, 1500, 1, 256]> var_3606_cast_fp16 = softmax(axis = var_3193, x = aw_chunk_531_cast_fp16)[name = tensor<string, []>("op_3606_cast_fp16")];
            tensor<fp16, [1, 1500, 1, 256]> var_3607_cast_fp16 = softmax(axis = var_3193, x = aw_chunk_533_cast_fp16)[name = tensor<string, []>("op_3607_cast_fp16")];
            tensor<fp16, [1, 1500, 1, 256]> var_3608_cast_fp16 = softmax(axis = var_3193, x = aw_chunk_535_cast_fp16)[name = tensor<string, []>("op_3608_cast_fp16")];
            tensor<fp16, [1, 1500, 1, 256]> var_3609_cast_fp16 = softmax(axis = var_3193, x = aw_chunk_537_cast_fp16)[name = tensor<string, []>("op_3609_cast_fp16")];
            tensor<fp16, [1, 1500, 1, 220]> var_3610_cast_fp16 = softmax(axis = var_3193, x = aw_chunk_539_cast_fp16)[name = tensor<string, []>("op_3610_cast_fp16")];
            tensor<fp16, [1, 1500, 1, 256]> var_3611_cast_fp16 = softmax(axis = var_3193, x = aw_chunk_541_cast_fp16)[name = tensor<string, []>("op_3611_cast_fp16")];
            tensor<fp16, [1, 1500, 1, 256]> var_3612_cast_fp16 = softmax(axis = var_3193, x = aw_chunk_543_cast_fp16)[name = tensor<string, []>("op_3612_cast_fp16")];
            tensor<fp16, [1, 1500, 1, 256]> var_3613_cast_fp16 = softmax(axis = var_3193, x = aw_chunk_545_cast_fp16)[name = tensor<string, []>("op_3613_cast_fp16")];
            tensor<fp16, [1, 1500, 1, 256]> var_3614_cast_fp16 = softmax(axis = var_3193, x = aw_chunk_547_cast_fp16)[name = tensor<string, []>("op_3614_cast_fp16")];
            tensor<fp16, [1, 1500, 1, 256]> var_3615_cast_fp16 = softmax(axis = var_3193, x = aw_chunk_549_cast_fp16)[name = tensor<string, []>("op_3615_cast_fp16")];
            tensor<fp16, [1, 1500, 1, 220]> var_3616_cast_fp16 = softmax(axis = var_3193, x = aw_chunk_551_cast_fp16)[name = tensor<string, []>("op_3616_cast_fp16")];
            tensor<fp16, [1, 1500, 1, 256]> var_3617_cast_fp16 = softmax(axis = var_3193, x = aw_chunk_553_cast_fp16)[name = tensor<string, []>("op_3617_cast_fp16")];
            tensor<fp16, [1, 1500, 1, 256]> var_3618_cast_fp16 = softmax(axis = var_3193, x = aw_chunk_555_cast_fp16)[name = tensor<string, []>("op_3618_cast_fp16")];
            tensor<fp16, [1, 1500, 1, 256]> var_3619_cast_fp16 = softmax(axis = var_3193, x = aw_chunk_557_cast_fp16)[name = tensor<string, []>("op_3619_cast_fp16")];
            tensor<fp16, [1, 1500, 1, 256]> var_3620_cast_fp16 = softmax(axis = var_3193, x = aw_chunk_559_cast_fp16)[name = tensor<string, []>("op_3620_cast_fp16")];
            tensor<fp16, [1, 1500, 1, 256]> var_3621_cast_fp16 = softmax(axis = var_3193, x = aw_chunk_561_cast_fp16)[name = tensor<string, []>("op_3621_cast_fp16")];
            tensor<fp16, [1, 1500, 1, 220]> var_3622_cast_fp16 = softmax(axis = var_3193, x = aw_chunk_563_cast_fp16)[name = tensor<string, []>("op_3622_cast_fp16")];
            tensor<fp16, [1, 1500, 1, 256]> var_3623_cast_fp16 = softmax(axis = var_3193, x = aw_chunk_565_cast_fp16)[name = tensor<string, []>("op_3623_cast_fp16")];
            tensor<fp16, [1, 1500, 1, 256]> var_3624_cast_fp16 = softmax(axis = var_3193, x = aw_chunk_567_cast_fp16)[name = tensor<string, []>("op_3624_cast_fp16")];
            tensor<fp16, [1, 1500, 1, 256]> var_3625_cast_fp16 = softmax(axis = var_3193, x = aw_chunk_569_cast_fp16)[name = tensor<string, []>("op_3625_cast_fp16")];
            tensor<fp16, [1, 1500, 1, 256]> var_3626_cast_fp16 = softmax(axis = var_3193, x = aw_chunk_571_cast_fp16)[name = tensor<string, []>("op_3626_cast_fp16")];
            tensor<fp16, [1, 1500, 1, 256]> var_3627_cast_fp16 = softmax(axis = var_3193, x = aw_chunk_573_cast_fp16)[name = tensor<string, []>("op_3627_cast_fp16")];
            tensor<fp16, [1, 1500, 1, 220]> var_3628_cast_fp16 = softmax(axis = var_3193, x = aw_chunk_cast_fp16)[name = tensor<string, []>("op_3628_cast_fp16")];
            tensor<string, []> var_3630_equation_0 = const()[name = tensor<string, []>("op_3630_equation_0"), val = tensor<string, []>("bchk,bkhq->bchq")];
            tensor<fp16, [1, 64, 1, 256]> var_3630_cast_fp16 = einsum(equation = var_3630_equation_0, values = (var_3358_cast_fp16, var_3581_cast_fp16))[name = tensor<string, []>("op_3630_cast_fp16")];
            tensor<string, []> var_3632_equation_0 = const()[name = tensor<string, []>("op_3632_equation_0"), val = tensor<string, []>("bchk,bkhq->bchq")];
            tensor<fp16, [1, 64, 1, 256]> var_3632_cast_fp16 = einsum(equation = var_3632_equation_0, values = (var_3358_cast_fp16, var_3582_cast_fp16))[name = tensor<string, []>("op_3632_cast_fp16")];
            tensor<string, []> var_3634_equation_0 = const()[name = tensor<string, []>("op_3634_equation_0"), val = tensor<string, []>("bchk,bkhq->bchq")];
            tensor<fp16, [1, 64, 1, 256]> var_3634_cast_fp16 = einsum(equation = var_3634_equation_0, values = (var_3358_cast_fp16, var_3583_cast_fp16))[name = tensor<string, []>("op_3634_cast_fp16")];
            tensor<string, []> var_3636_equation_0 = const()[name = tensor<string, []>("op_3636_equation_0"), val = tensor<string, []>("bchk,bkhq->bchq")];
            tensor<fp16, [1, 64, 1, 256]> var_3636_cast_fp16 = einsum(equation = var_3636_equation_0, values = (var_3358_cast_fp16, var_3584_cast_fp16))[name = tensor<string, []>("op_3636_cast_fp16")];
            tensor<string, []> var_3638_equation_0 = const()[name = tensor<string, []>("op_3638_equation_0"), val = tensor<string, []>("bchk,bkhq->bchq")];
            tensor<fp16, [1, 64, 1, 256]> var_3638_cast_fp16 = einsum(equation = var_3638_equation_0, values = (var_3358_cast_fp16, var_3585_cast_fp16))[name = tensor<string, []>("op_3638_cast_fp16")];
            tensor<string, []> var_3640_equation_0 = const()[name = tensor<string, []>("op_3640_equation_0"), val = tensor<string, []>("bchk,bkhq->bchq")];
            tensor<fp16, [1, 64, 1, 220]> var_3640_cast_fp16 = einsum(equation = var_3640_equation_0, values = (var_3358_cast_fp16, var_3586_cast_fp16))[name = tensor<string, []>("op_3640_cast_fp16")];
            tensor<string, []> var_3642_equation_0 = const()[name = tensor<string, []>("op_3642_equation_0"), val = tensor<string, []>("bchk,bkhq->bchq")];
            tensor<fp16, [1, 64, 1, 256]> var_3642_cast_fp16 = einsum(equation = var_3642_equation_0, values = (var_3362_cast_fp16, var_3587_cast_fp16))[name = tensor<string, []>("op_3642_cast_fp16")];
            tensor<string, []> var_3644_equation_0 = const()[name = tensor<string, []>("op_3644_equation_0"), val = tensor<string, []>("bchk,bkhq->bchq")];
            tensor<fp16, [1, 64, 1, 256]> var_3644_cast_fp16 = einsum(equation = var_3644_equation_0, values = (var_3362_cast_fp16, var_3588_cast_fp16))[name = tensor<string, []>("op_3644_cast_fp16")];
            tensor<string, []> var_3646_equation_0 = const()[name = tensor<string, []>("op_3646_equation_0"), val = tensor<string, []>("bchk,bkhq->bchq")];
            tensor<fp16, [1, 64, 1, 256]> var_3646_cast_fp16 = einsum(equation = var_3646_equation_0, values = (var_3362_cast_fp16, var_3589_cast_fp16))[name = tensor<string, []>("op_3646_cast_fp16")];
            tensor<string, []> var_3648_equation_0 = const()[name = tensor<string, []>("op_3648_equation_0"), val = tensor<string, []>("bchk,bkhq->bchq")];
            tensor<fp16, [1, 64, 1, 256]> var_3648_cast_fp16 = einsum(equation = var_3648_equation_0, values = (var_3362_cast_fp16, var_3590_cast_fp16))[name = tensor<string, []>("op_3648_cast_fp16")];
            tensor<string, []> var_3650_equation_0 = const()[name = tensor<string, []>("op_3650_equation_0"), val = tensor<string, []>("bchk,bkhq->bchq")];
            tensor<fp16, [1, 64, 1, 256]> var_3650_cast_fp16 = einsum(equation = var_3650_equation_0, values = (var_3362_cast_fp16, var_3591_cast_fp16))[name = tensor<string, []>("op_3650_cast_fp16")];
            tensor<string, []> var_3652_equation_0 = const()[name = tensor<string, []>("op_3652_equation_0"), val = tensor<string, []>("bchk,bkhq->bchq")];
            tensor<fp16, [1, 64, 1, 220]> var_3652_cast_fp16 = einsum(equation = var_3652_equation_0, values = (var_3362_cast_fp16, var_3592_cast_fp16))[name = tensor<string, []>("op_3652_cast_fp16")];
            tensor<string, []> var_3654_equation_0 = const()[name = tensor<string, []>("op_3654_equation_0"), val = tensor<string, []>("bchk,bkhq->bchq")];
            tensor<fp16, [1, 64, 1, 256]> var_3654_cast_fp16 = einsum(equation = var_3654_equation_0, values = (var_3366_cast_fp16, var_3593_cast_fp16))[name = tensor<string, []>("op_3654_cast_fp16")];
            tensor<string, []> var_3656_equation_0 = const()[name = tensor<string, []>("op_3656_equation_0"), val = tensor<string, []>("bchk,bkhq->bchq")];
            tensor<fp16, [1, 64, 1, 256]> var_3656_cast_fp16 = einsum(equation = var_3656_equation_0, values = (var_3366_cast_fp16, var_3594_cast_fp16))[name = tensor<string, []>("op_3656_cast_fp16")];
            tensor<string, []> var_3658_equation_0 = const()[name = tensor<string, []>("op_3658_equation_0"), val = tensor<string, []>("bchk,bkhq->bchq")];
            tensor<fp16, [1, 64, 1, 256]> var_3658_cast_fp16 = einsum(equation = var_3658_equation_0, values = (var_3366_cast_fp16, var_3595_cast_fp16))[name = tensor<string, []>("op_3658_cast_fp16")];
            tensor<string, []> var_3660_equation_0 = const()[name = tensor<string, []>("op_3660_equation_0"), val = tensor<string, []>("bchk,bkhq->bchq")];
            tensor<fp16, [1, 64, 1, 256]> var_3660_cast_fp16 = einsum(equation = var_3660_equation_0, values = (var_3366_cast_fp16, var_3596_cast_fp16))[name = tensor<string, []>("op_3660_cast_fp16")];
            tensor<string, []> var_3662_equation_0 = const()[name = tensor<string, []>("op_3662_equation_0"), val = tensor<string, []>("bchk,bkhq->bchq")];
            tensor<fp16, [1, 64, 1, 256]> var_3662_cast_fp16 = einsum(equation = var_3662_equation_0, values = (var_3366_cast_fp16, var_3597_cast_fp16))[name = tensor<string, []>("op_3662_cast_fp16")];
            tensor<string, []> var_3664_equation_0 = const()[name = tensor<string, []>("op_3664_equation_0"), val = tensor<string, []>("bchk,bkhq->bchq")];
            tensor<fp16, [1, 64, 1, 220]> var_3664_cast_fp16 = einsum(equation = var_3664_equation_0, values = (var_3366_cast_fp16, var_3598_cast_fp16))[name = tensor<string, []>("op_3664_cast_fp16")];
            tensor<string, []> var_3666_equation_0 = const()[name = tensor<string, []>("op_3666_equation_0"), val = tensor<string, []>("bchk,bkhq->bchq")];
            tensor<fp16, [1, 64, 1, 256]> var_3666_cast_fp16 = einsum(equation = var_3666_equation_0, values = (var_3370_cast_fp16, var_3599_cast_fp16))[name = tensor<string, []>("op_3666_cast_fp16")];
            tensor<string, []> var_3668_equation_0 = const()[name = tensor<string, []>("op_3668_equation_0"), val = tensor<string, []>("bchk,bkhq->bchq")];
            tensor<fp16, [1, 64, 1, 256]> var_3668_cast_fp16 = einsum(equation = var_3668_equation_0, values = (var_3370_cast_fp16, var_3600_cast_fp16))[name = tensor<string, []>("op_3668_cast_fp16")];
            tensor<string, []> var_3670_equation_0 = const()[name = tensor<string, []>("op_3670_equation_0"), val = tensor<string, []>("bchk,bkhq->bchq")];
            tensor<fp16, [1, 64, 1, 256]> var_3670_cast_fp16 = einsum(equation = var_3670_equation_0, values = (var_3370_cast_fp16, var_3601_cast_fp16))[name = tensor<string, []>("op_3670_cast_fp16")];
            tensor<string, []> var_3672_equation_0 = const()[name = tensor<string, []>("op_3672_equation_0"), val = tensor<string, []>("bchk,bkhq->bchq")];
            tensor<fp16, [1, 64, 1, 256]> var_3672_cast_fp16 = einsum(equation = var_3672_equation_0, values = (var_3370_cast_fp16, var_3602_cast_fp16))[name = tensor<string, []>("op_3672_cast_fp16")];
            tensor<string, []> var_3674_equation_0 = const()[name = tensor<string, []>("op_3674_equation_0"), val = tensor<string, []>("bchk,bkhq->bchq")];
            tensor<fp16, [1, 64, 1, 256]> var_3674_cast_fp16 = einsum(equation = var_3674_equation_0, values = (var_3370_cast_fp16, var_3603_cast_fp16))[name = tensor<string, []>("op_3674_cast_fp16")];
            tensor<string, []> var_3676_equation_0 = const()[name = tensor<string, []>("op_3676_equation_0"), val = tensor<string, []>("bchk,bkhq->bchq")];
            tensor<fp16, [1, 64, 1, 220]> var_3676_cast_fp16 = einsum(equation = var_3676_equation_0, values = (var_3370_cast_fp16, var_3604_cast_fp16))[name = tensor<string, []>("op_3676_cast_fp16")];
            tensor<string, []> var_3678_equation_0 = const()[name = tensor<string, []>("op_3678_equation_0"), val = tensor<string, []>("bchk,bkhq->bchq")];
            tensor<fp16, [1, 64, 1, 256]> var_3678_cast_fp16 = einsum(equation = var_3678_equation_0, values = (var_3374_cast_fp16, var_3605_cast_fp16))[name = tensor<string, []>("op_3678_cast_fp16")];
            tensor<string, []> var_3680_equation_0 = const()[name = tensor<string, []>("op_3680_equation_0"), val = tensor<string, []>("bchk,bkhq->bchq")];
            tensor<fp16, [1, 64, 1, 256]> var_3680_cast_fp16 = einsum(equation = var_3680_equation_0, values = (var_3374_cast_fp16, var_3606_cast_fp16))[name = tensor<string, []>("op_3680_cast_fp16")];
            tensor<string, []> var_3682_equation_0 = const()[name = tensor<string, []>("op_3682_equation_0"), val = tensor<string, []>("bchk,bkhq->bchq")];
            tensor<fp16, [1, 64, 1, 256]> var_3682_cast_fp16 = einsum(equation = var_3682_equation_0, values = (var_3374_cast_fp16, var_3607_cast_fp16))[name = tensor<string, []>("op_3682_cast_fp16")];
            tensor<string, []> var_3684_equation_0 = const()[name = tensor<string, []>("op_3684_equation_0"), val = tensor<string, []>("bchk,bkhq->bchq")];
            tensor<fp16, [1, 64, 1, 256]> var_3684_cast_fp16 = einsum(equation = var_3684_equation_0, values = (var_3374_cast_fp16, var_3608_cast_fp16))[name = tensor<string, []>("op_3684_cast_fp16")];
            tensor<string, []> var_3686_equation_0 = const()[name = tensor<string, []>("op_3686_equation_0"), val = tensor<string, []>("bchk,bkhq->bchq")];
            tensor<fp16, [1, 64, 1, 256]> var_3686_cast_fp16 = einsum(equation = var_3686_equation_0, values = (var_3374_cast_fp16, var_3609_cast_fp16))[name = tensor<string, []>("op_3686_cast_fp16")];
            tensor<string, []> var_3688_equation_0 = const()[name = tensor<string, []>("op_3688_equation_0"), val = tensor<string, []>("bchk,bkhq->bchq")];
            tensor<fp16, [1, 64, 1, 220]> var_3688_cast_fp16 = einsum(equation = var_3688_equation_0, values = (var_3374_cast_fp16, var_3610_cast_fp16))[name = tensor<string, []>("op_3688_cast_fp16")];
            tensor<string, []> var_3690_equation_0 = const()[name = tensor<string, []>("op_3690_equation_0"), val = tensor<string, []>("bchk,bkhq->bchq")];
            tensor<fp16, [1, 64, 1, 256]> var_3690_cast_fp16 = einsum(equation = var_3690_equation_0, values = (var_3378_cast_fp16, var_3611_cast_fp16))[name = tensor<string, []>("op_3690_cast_fp16")];
            tensor<string, []> var_3692_equation_0 = const()[name = tensor<string, []>("op_3692_equation_0"), val = tensor<string, []>("bchk,bkhq->bchq")];
            tensor<fp16, [1, 64, 1, 256]> var_3692_cast_fp16 = einsum(equation = var_3692_equation_0, values = (var_3378_cast_fp16, var_3612_cast_fp16))[name = tensor<string, []>("op_3692_cast_fp16")];
            tensor<string, []> var_3694_equation_0 = const()[name = tensor<string, []>("op_3694_equation_0"), val = tensor<string, []>("bchk,bkhq->bchq")];
            tensor<fp16, [1, 64, 1, 256]> var_3694_cast_fp16 = einsum(equation = var_3694_equation_0, values = (var_3378_cast_fp16, var_3613_cast_fp16))[name = tensor<string, []>("op_3694_cast_fp16")];
            tensor<string, []> var_3696_equation_0 = const()[name = tensor<string, []>("op_3696_equation_0"), val = tensor<string, []>("bchk,bkhq->bchq")];
            tensor<fp16, [1, 64, 1, 256]> var_3696_cast_fp16 = einsum(equation = var_3696_equation_0, values = (var_3378_cast_fp16, var_3614_cast_fp16))[name = tensor<string, []>("op_3696_cast_fp16")];
            tensor<string, []> var_3698_equation_0 = const()[name = tensor<string, []>("op_3698_equation_0"), val = tensor<string, []>("bchk,bkhq->bchq")];
            tensor<fp16, [1, 64, 1, 256]> var_3698_cast_fp16 = einsum(equation = var_3698_equation_0, values = (var_3378_cast_fp16, var_3615_cast_fp16))[name = tensor<string, []>("op_3698_cast_fp16")];
            tensor<string, []> var_3700_equation_0 = const()[name = tensor<string, []>("op_3700_equation_0"), val = tensor<string, []>("bchk,bkhq->bchq")];
            tensor<fp16, [1, 64, 1, 220]> var_3700_cast_fp16 = einsum(equation = var_3700_equation_0, values = (var_3378_cast_fp16, var_3616_cast_fp16))[name = tensor<string, []>("op_3700_cast_fp16")];
            tensor<string, []> var_3702_equation_0 = const()[name = tensor<string, []>("op_3702_equation_0"), val = tensor<string, []>("bchk,bkhq->bchq")];
            tensor<fp16, [1, 64, 1, 256]> var_3702_cast_fp16 = einsum(equation = var_3702_equation_0, values = (var_3382_cast_fp16, var_3617_cast_fp16))[name = tensor<string, []>("op_3702_cast_fp16")];
            tensor<string, []> var_3704_equation_0 = const()[name = tensor<string, []>("op_3704_equation_0"), val = tensor<string, []>("bchk,bkhq->bchq")];
            tensor<fp16, [1, 64, 1, 256]> var_3704_cast_fp16 = einsum(equation = var_3704_equation_0, values = (var_3382_cast_fp16, var_3618_cast_fp16))[name = tensor<string, []>("op_3704_cast_fp16")];
            tensor<string, []> var_3706_equation_0 = const()[name = tensor<string, []>("op_3706_equation_0"), val = tensor<string, []>("bchk,bkhq->bchq")];
            tensor<fp16, [1, 64, 1, 256]> var_3706_cast_fp16 = einsum(equation = var_3706_equation_0, values = (var_3382_cast_fp16, var_3619_cast_fp16))[name = tensor<string, []>("op_3706_cast_fp16")];
            tensor<string, []> var_3708_equation_0 = const()[name = tensor<string, []>("op_3708_equation_0"), val = tensor<string, []>("bchk,bkhq->bchq")];
            tensor<fp16, [1, 64, 1, 256]> var_3708_cast_fp16 = einsum(equation = var_3708_equation_0, values = (var_3382_cast_fp16, var_3620_cast_fp16))[name = tensor<string, []>("op_3708_cast_fp16")];
            tensor<string, []> var_3710_equation_0 = const()[name = tensor<string, []>("op_3710_equation_0"), val = tensor<string, []>("bchk,bkhq->bchq")];
            tensor<fp16, [1, 64, 1, 256]> var_3710_cast_fp16 = einsum(equation = var_3710_equation_0, values = (var_3382_cast_fp16, var_3621_cast_fp16))[name = tensor<string, []>("op_3710_cast_fp16")];
            tensor<string, []> var_3712_equation_0 = const()[name = tensor<string, []>("op_3712_equation_0"), val = tensor<string, []>("bchk,bkhq->bchq")];
            tensor<fp16, [1, 64, 1, 220]> var_3712_cast_fp16 = einsum(equation = var_3712_equation_0, values = (var_3382_cast_fp16, var_3622_cast_fp16))[name = tensor<string, []>("op_3712_cast_fp16")];
            tensor<string, []> var_3714_equation_0 = const()[name = tensor<string, []>("op_3714_equation_0"), val = tensor<string, []>("bchk,bkhq->bchq")];
            tensor<fp16, [1, 64, 1, 256]> var_3714_cast_fp16 = einsum(equation = var_3714_equation_0, values = (var_3386_cast_fp16, var_3623_cast_fp16))[name = tensor<string, []>("op_3714_cast_fp16")];
            tensor<string, []> var_3716_equation_0 = const()[name = tensor<string, []>("op_3716_equation_0"), val = tensor<string, []>("bchk,bkhq->bchq")];
            tensor<fp16, [1, 64, 1, 256]> var_3716_cast_fp16 = einsum(equation = var_3716_equation_0, values = (var_3386_cast_fp16, var_3624_cast_fp16))[name = tensor<string, []>("op_3716_cast_fp16")];
            tensor<string, []> var_3718_equation_0 = const()[name = tensor<string, []>("op_3718_equation_0"), val = tensor<string, []>("bchk,bkhq->bchq")];
            tensor<fp16, [1, 64, 1, 256]> var_3718_cast_fp16 = einsum(equation = var_3718_equation_0, values = (var_3386_cast_fp16, var_3625_cast_fp16))[name = tensor<string, []>("op_3718_cast_fp16")];
            tensor<string, []> var_3720_equation_0 = const()[name = tensor<string, []>("op_3720_equation_0"), val = tensor<string, []>("bchk,bkhq->bchq")];
            tensor<fp16, [1, 64, 1, 256]> var_3720_cast_fp16 = einsum(equation = var_3720_equation_0, values = (var_3386_cast_fp16, var_3626_cast_fp16))[name = tensor<string, []>("op_3720_cast_fp16")];
            tensor<string, []> var_3722_equation_0 = const()[name = tensor<string, []>("op_3722_equation_0"), val = tensor<string, []>("bchk,bkhq->bchq")];
            tensor<fp16, [1, 64, 1, 256]> var_3722_cast_fp16 = einsum(equation = var_3722_equation_0, values = (var_3386_cast_fp16, var_3627_cast_fp16))[name = tensor<string, []>("op_3722_cast_fp16")];
            tensor<string, []> var_3724_equation_0 = const()[name = tensor<string, []>("op_3724_equation_0"), val = tensor<string, []>("bchk,bkhq->bchq")];
            tensor<fp16, [1, 64, 1, 220]> var_3724_cast_fp16 = einsum(equation = var_3724_equation_0, values = (var_3386_cast_fp16, var_3628_cast_fp16))[name = tensor<string, []>("op_3724_cast_fp16")];
            tensor<bool, []> var_3726_interleave_0 = const()[name = tensor<string, []>("op_3726_interleave_0"), val = tensor<bool, []>(false)];
            tensor<fp16, [1, 64, 1, 1500]> var_3726_cast_fp16 = concat(axis = var_3180, interleave = var_3726_interleave_0, values = (var_3630_cast_fp16, var_3632_cast_fp16, var_3634_cast_fp16, var_3636_cast_fp16, var_3638_cast_fp16, var_3640_cast_fp16))[name = tensor<string, []>("op_3726_cast_fp16")];
            tensor<bool, []> var_3728_interleave_0 = const()[name = tensor<string, []>("op_3728_interleave_0"), val = tensor<bool, []>(false)];
            tensor<fp16, [1, 64, 1, 1500]> var_3728_cast_fp16 = concat(axis = var_3180, interleave = var_3728_interleave_0, values = (var_3642_cast_fp16, var_3644_cast_fp16, var_3646_cast_fp16, var_3648_cast_fp16, var_3650_cast_fp16, var_3652_cast_fp16))[name = tensor<string, []>("op_3728_cast_fp16")];
            tensor<bool, []> var_3730_interleave_0 = const()[name = tensor<string, []>("op_3730_interleave_0"), val = tensor<bool, []>(false)];
            tensor<fp16, [1, 64, 1, 1500]> var_3730_cast_fp16 = concat(axis = var_3180, interleave = var_3730_interleave_0, values = (var_3654_cast_fp16, var_3656_cast_fp16, var_3658_cast_fp16, var_3660_cast_fp16, var_3662_cast_fp16, var_3664_cast_fp16))[name = tensor<string, []>("op_3730_cast_fp16")];
            tensor<bool, []> var_3732_interleave_0 = const()[name = tensor<string, []>("op_3732_interleave_0"), val = tensor<bool, []>(false)];
            tensor<fp16, [1, 64, 1, 1500]> var_3732_cast_fp16 = concat(axis = var_3180, interleave = var_3732_interleave_0, values = (var_3666_cast_fp16, var_3668_cast_fp16, var_3670_cast_fp16, var_3672_cast_fp16, var_3674_cast_fp16, var_3676_cast_fp16))[name = tensor<string, []>("op_3732_cast_fp16")];
            tensor<bool, []> var_3734_interleave_0 = const()[name = tensor<string, []>("op_3734_interleave_0"), val = tensor<bool, []>(false)];
            tensor<fp16, [1, 64, 1, 1500]> var_3734_cast_fp16 = concat(axis = var_3180, interleave = var_3734_interleave_0, values = (var_3678_cast_fp16, var_3680_cast_fp16, var_3682_cast_fp16, var_3684_cast_fp16, var_3686_cast_fp16, var_3688_cast_fp16))[name = tensor<string, []>("op_3734_cast_fp16")];
            tensor<bool, []> var_3736_interleave_0 = const()[name = tensor<string, []>("op_3736_interleave_0"), val = tensor<bool, []>(false)];
            tensor<fp16, [1, 64, 1, 1500]> var_3736_cast_fp16 = concat(axis = var_3180, interleave = var_3736_interleave_0, values = (var_3690_cast_fp16, var_3692_cast_fp16, var_3694_cast_fp16, var_3696_cast_fp16, var_3698_cast_fp16, var_3700_cast_fp16))[name = tensor<string, []>("op_3736_cast_fp16")];
            tensor<bool, []> var_3738_interleave_0 = const()[name = tensor<string, []>("op_3738_interleave_0"), val = tensor<bool, []>(false)];
            tensor<fp16, [1, 64, 1, 1500]> var_3738_cast_fp16 = concat(axis = var_3180, interleave = var_3738_interleave_0, values = (var_3702_cast_fp16, var_3704_cast_fp16, var_3706_cast_fp16, var_3708_cast_fp16, var_3710_cast_fp16, var_3712_cast_fp16))[name = tensor<string, []>("op_3738_cast_fp16")];
            tensor<bool, []> var_3740_interleave_0 = const()[name = tensor<string, []>("op_3740_interleave_0"), val = tensor<bool, []>(false)];
            tensor<fp16, [1, 64, 1, 1500]> var_3740_cast_fp16 = concat(axis = var_3180, interleave = var_3740_interleave_0, values = (var_3714_cast_fp16, var_3716_cast_fp16, var_3718_cast_fp16, var_3720_cast_fp16, var_3722_cast_fp16, var_3724_cast_fp16))[name = tensor<string, []>("op_3740_cast_fp16")];
            tensor<bool, []> input_41_interleave_0 = const()[name = tensor<string, []>("input_41_interleave_0"), val = tensor<bool, []>(false)];
            tensor<fp16, [1, 512, 1, 1500]> input_41_cast_fp16 = concat(axis = var_3193, interleave = input_41_interleave_0, values = (var_3726_cast_fp16, var_3728_cast_fp16, var_3730_cast_fp16, var_3732_cast_fp16, var_3734_cast_fp16, var_3736_cast_fp16, var_3738_cast_fp16, var_3740_cast_fp16))[name = tensor<string, []>("input_41_cast_fp16")];
            tensor<string, []> obj_pad_type_0 = const()[name = tensor<string, []>("obj_pad_type_0"), val = tensor<string, []>("valid")];
            tensor<int32, [2]> obj_strides_0 = const()[name = tensor<string, []>("obj_strides_0"), val = tensor<int32, [2]>([1, 1])];
            tensor<int32, [4]> obj_pad_0 = const()[name = tensor<string, []>("obj_pad_0"), val = tensor<int32, [4]>([0, 0, 0, 0])];
            tensor<int32, [2]> obj_dilations_0 = const()[name = tensor<string, []>("obj_dilations_0"), val = tensor<int32, [2]>([1, 1])];
            tensor<int32, []> obj_groups_0 = const()[name = tensor<string, []>("obj_groups_0"), val = tensor<int32, []>(1)];
            tensor<fp16, [512, 512, 1, 1]> layers_5_self_attn_o_proj_weight_to_fp16 = const()[name = tensor<string, []>("layers_5_self_attn_o_proj_weight_to_fp16"), val = tensor<fp16, [512, 512, 1, 1]>(BLOBFILE(path = tensor<string, []>("@model_path/weights/weight.bin"), offset = tensor<uint64, []>(36460160)))];
            tensor<fp16, [512]> layers_5_self_attn_o_proj_bias_to_fp16 = const()[name = tensor<string, []>("layers_5_self_attn_o_proj_bias_to_fp16"), val = tensor<fp16, [512]>(BLOBFILE(path = tensor<string, []>("@model_path/weights/weight.bin"), offset = tensor<uint64, []>(36984512)))];
            tensor<fp16, [1, 512, 1, 1500]> obj_cast_fp16 = conv(bias = layers_5_self_attn_o_proj_bias_to_fp16, dilations = obj_dilations_0, groups = obj_groups_0, pad = obj_pad_0, pad_type = obj_pad_type_0, strides = obj_strides_0, weight = layers_5_self_attn_o_proj_weight_to_fp16, x = input_41_cast_fp16)[name = tensor<string, []>("obj_cast_fp16")];
            tensor<fp16, [1, 512, 1, 1500]> inputs_23_cast_fp16 = add(x = inputs_21_cast_fp16, y = obj_cast_fp16)[name = tensor<string, []>("inputs_23_cast_fp16")];
            tensor<int32, [1]> out_23_axes_0 = const()[name = tensor<string, []>("out_23_axes_0"), val = tensor<int32, [1]>([1])];
            tensor<fp16, []> var_3759_to_fp16 = const()[name = tensor<string, []>("op_3759_to_fp16"), val = tensor<fp16, []>(0x1.5p-17)];
            tensor<fp16, [1, 512, 1, 1500]> out_23_cast_fp16 = layer_norm(axes = out_23_axes_0, epsilon = var_3759_to_fp16, x = inputs_23_cast_fp16)[name = tensor<string, []>("out_23_cast_fp16")];
            tensor<fp16, [512]> input_43_gamma_0_to_fp16 = const()[name = tensor<string, []>("input_43_gamma_0_to_fp16"), val = tensor<fp16, [512]>(BLOBFILE(path = tensor<string, []>("@model_path/weights/weight.bin"), offset = tensor<uint64, []>(36985600)))];
            tensor<fp16, [512]> input_43_beta_0_to_fp16 = const()[name = tensor<string, []>("input_43_beta_0_to_fp16"), val = tensor<fp16, [512]>(BLOBFILE(path = tensor<string, []>("@model_path/weights/weight.bin"), offset = tensor<uint64, []>(36986688)))];
            tensor<fp16, []> input_43_epsilon_0_to_fp16 = const()[name = tensor<string, []>("input_43_epsilon_0_to_fp16"), val = tensor<fp16, []>(0x1.5p-17)];
            tensor<fp16, [1, 512, 1, 1500]> input_43_cast_fp16 = batch_norm(beta = input_43_beta_0_to_fp16, epsilon = input_43_epsilon_0_to_fp16, gamma = input_43_gamma_0_to_fp16, mean = obj_1_mean_0_to_fp16, variance = obj_1_variance_0_to_fp16, x = out_23_cast_fp16)[name = tensor<string, []>("input_43_cast_fp16")];
            tensor<string, []> input_45_pad_type_0 = const()[name = tensor<string, []>("input_45_pad_type_0"), val = tensor<string, []>("valid")];
            tensor<int32, [2]> input_45_strides_0 = const()[name = tensor<string, []>("input_45_strides_0"), val = tensor<int32, [2]>([1, 1])];
            tensor<int32, [4]> input_45_pad_0 = const()[name = tensor<string, []>("input_45_pad_0"), val = tensor<int32, [4]>([0, 0, 0, 0])];
            tensor<int32, [2]> input_45_dilations_0 = const()[name = tensor<string, []>("input_45_dilations_0"), val = tensor<int32, [2]>([1, 1])];
            tensor<int32, []> input_45_groups_0 = const()[name = tensor<string, []>("input_45_groups_0"), val = tensor<int32, []>(1)];
            tensor<fp16, [2048, 512, 1, 1]> layers_5_fc1_weight_to_fp16 = const()[name = tensor<string, []>("layers_5_fc1_weight_to_fp16"), val = tensor<fp16, [2048, 512, 1, 1]>(BLOBFILE(path = tensor<string, []>("@model_path/weights/weight.bin"), offset = tensor<uint64, []>(36987776)))];
            tensor<fp16, [2048]> layers_5_fc1_bias_to_fp16 = const()[name = tensor<string, []>("layers_5_fc1_bias_to_fp16"), val = tensor<fp16, [2048]>(BLOBFILE(path = tensor<string, []>("@model_path/weights/weight.bin"), offset = tensor<uint64, []>(39084992)))];
            tensor<fp16, [1, 2048, 1, 1500]> input_45_cast_fp16 = conv(bias = layers_5_fc1_bias_to_fp16, dilations = input_45_dilations_0, groups = input_45_groups_0, pad = input_45_pad_0, pad_type = input_45_pad_type_0, strides = input_45_strides_0, weight = layers_5_fc1_weight_to_fp16, x = input_43_cast_fp16)[name = tensor<string, []>("input_45_cast_fp16")];
            tensor<string, []> input_mode_0 = const()[name = tensor<string, []>("input_mode_0"), val = tensor<string, []>("EXACT")];
            tensor<fp16, [1, 2048, 1, 1500]> input_cast_fp16 = gelu(mode = input_mode_0, x = input_45_cast_fp16)[name = tensor<string, []>("input_cast_fp16")];
            tensor<string, []> hidden_states_pad_type_0 = const()[name = tensor<string, []>("hidden_states_pad_type_0"), val = tensor<string, []>("valid")];
            tensor<int32, [2]> hidden_states_strides_0 = const()[name = tensor<string, []>("hidden_states_strides_0"), val = tensor<int32, [2]>([1, 1])];
            tensor<int32, [4]> hidden_states_pad_0 = const()[name = tensor<string, []>("hidden_states_pad_0"), val = tensor<int32, [4]>([0, 0, 0, 0])];
            tensor<int32, [2]> hidden_states_dilations_0 = const()[name = tensor<string, []>("hidden_states_dilations_0"), val = tensor<int32, [2]>([1, 1])];
            tensor<int32, []> hidden_states_groups_0 = const()[name = tensor<string, []>("hidden_states_groups_0"), val = tensor<int32, []>(1)];
            tensor<fp16, [512, 2048, 1, 1]> layers_5_fc2_weight_to_fp16 = const()[name = tensor<string, []>("layers_5_fc2_weight_to_fp16"), val = tensor<fp16, [512, 2048, 1, 1]>(BLOBFILE(path = tensor<string, []>("@model_path/weights/weight.bin"), offset = tensor<uint64, []>(39089152)))];
            tensor<fp16, [512]> layers_5_fc2_bias_to_fp16 = const()[name = tensor<string, []>("layers_5_fc2_bias_to_fp16"), val = tensor<fp16, [512]>(BLOBFILE(path = tensor<string, []>("@model_path/weights/weight.bin"), offset = tensor<uint64, []>(41186368)))];
            tensor<fp16, [1, 512, 1, 1500]> hidden_states_cast_fp16 = conv(bias = layers_5_fc2_bias_to_fp16, dilations = hidden_states_dilations_0, groups = hidden_states_groups_0, pad = hidden_states_pad_0, pad_type = hidden_states_pad_type_0, strides = hidden_states_strides_0, weight = layers_5_fc2_weight_to_fp16, x = input_cast_fp16)[name = tensor<string, []>("hidden_states_cast_fp16")];
            tensor<fp16, [1, 512, 1, 1500]> inputs_cast_fp16 = add(x = inputs_23_cast_fp16, y = hidden_states_cast_fp16)[name = tensor<string, []>("inputs_cast_fp16")];
            tensor<int32, [1]> out_axes_0 = const()[name = tensor<string, []>("out_axes_0"), val = tensor<int32, [1]>([1])];
            tensor<fp16, []> var_3797_to_fp16 = const()[name = tensor<string, []>("op_3797_to_fp16"), val = tensor<fp16, []>(0x1.5p-17)];
            tensor<fp16, [1, 512, 1, 1500]> out_cast_fp16 = layer_norm(axes = out_axes_0, epsilon = var_3797_to_fp16, x = inputs_cast_fp16)[name = tensor<string, []>("out_cast_fp16")];
            tensor<fp16, [512]> encoder_output_embeds_type_fp32_gamma_0_to_fp16 = const()[name = tensor<string, []>("encoder_output_embeds_type_fp32_gamma_0_to_fp16"), val = tensor<fp16, [512]>(BLOBFILE(path = tensor<string, []>("@model_path/weights/weight.bin"), offset = tensor<uint64, []>(41187456)))];
            tensor<fp16, [512]> encoder_output_embeds_type_fp32_beta_0_to_fp16 = const()[name = tensor<string, []>("encoder_output_embeds_type_fp32_beta_0_to_fp16"), val = tensor<fp16, [512]>(BLOBFILE(path = tensor<string, []>("@model_path/weights/weight.bin"), offset = tensor<uint64, []>(41188544)))];
            tensor<fp16, []> encoder_output_embeds_type_fp32_epsilon_0_to_fp16 = const()[name = tensor<string, []>("encoder_output_embeds_type_fp32_epsilon_0_to_fp16"), val = tensor<fp16, []>(0x1.5p-17)];
            tensor<fp16, [1, 512, 1, 1500]> encoder_output_embeds = batch_norm(beta = encoder_output_embeds_type_fp32_beta_0_to_fp16, epsilon = encoder_output_embeds_type_fp32_epsilon_0_to_fp16, gamma = encoder_output_embeds_type_fp32_gamma_0_to_fp16, mean = obj_1_mean_0_to_fp16, variance = obj_1_variance_0_to_fp16, x = out_cast_fp16)[name = tensor<string, []>("encoder_output_embeds_type_fp32_cast_fp16")];
        } -> (encoder_output_embeds);
}