program(1.0)
[buildInfo = dict<tensor<string, []>, tensor<string, []>>({{"coremlc-component-MIL", "3520.4.1"}, {"coremlc-version", "3520.5.1"}, {"coremltools-component-torch", "2.11.0"}, {"coremltools-source-dialect", "TorchScript"}, {"coremltools-version", "9.0"}})]
{
    func main<ios17>(tensor<fp32, [1, 1500, 384]> encoder_output, tensor<int32, [1, 24]> input_ids) {
            tensor<int32, []> var_20_batch_dims_0 = const()[name = tensor<string, []>("op_20_batch_dims_0"), val = tensor<int32, []>(0)];
            tensor<bool, []> var_20_validate_indices_0 = const()[name = tensor<string, []>("op_20_validate_indices_0"), val = tensor<bool, []>(false)];
            tensor<fp16, [51865, 384]> token_embedding_weight_to_fp16 = const()[name = tensor<string, []>("token_embedding_weight_to_fp16"), val = tensor<fp16, [51865, 384]>(BLOBFILE(path = tensor<string, []>("@model_path/weights/weight.bin"), offset = tensor<uint64, []>(64)))];
            tensor<int32, []> greater_equal_0_y_0 = const()[name = tensor<string, []>("greater_equal_0_y_0"), val = tensor<int32, []>(0)];
            tensor<bool, [1, 24]> greater_equal_0 = greater_equal(x = input_ids, y = greater_equal_0_y_0)[name = tensor<string, []>("greater_equal_0")];
            tensor<int32, []> slice_by_index_0 = const()[name = tensor<string, []>("slice_by_index_0"), val = tensor<int32, []>(51865)];
            tensor<int32, [1, 24]> add_0 = add(x = input_ids, y = slice_by_index_0)[name = tensor<string, []>("add_0")];
            tensor<int32, [1, 24]> select_0 = select(a = input_ids, b = add_0, cond = greater_equal_0)[name = tensor<string, []>("select_0")];
            tensor<int32, []> var_20_cast_fp16_axis_0 = const()[name = tensor<string, []>("op_20_cast_fp16_axis_0"), val = tensor<int32, []>(0)];
            tensor<fp16, [1, 24, 384]> var_20_cast_fp16 = gather(axis = var_20_cast_fp16_axis_0, batch_dims = var_20_batch_dims_0, indices = select_0, validate_indices = var_20_validate_indices_0, x = token_embedding_weight_to_fp16)[name = tensor<string, []>("op_20_cast_fp16")];
            tensor<fp16, [24, 384]> positional_embedding_to_fp16 = const()[name = tensor<string, []>("positional_embedding_to_fp16"), val = tensor<fp16, [24, 384]>(BLOBFILE(path = tensor<string, []>("@model_path/weights/weight.bin"), offset = tensor<uint64, []>(39832448)))];
            tensor<fp16, [1, 24, 384]> x_3_cast_fp16 = add(x = var_20_cast_fp16, y = positional_embedding_to_fp16)[name = tensor<string, []>("x_3_cast_fp16")];
            tensor<int32, [3]> var_50_perm_0 = const()[name = tensor<string, []>("op_50_perm_0"), val = tensor<int32, [3]>([0, 2, 1])];
            tensor<int32, [1]> inputs_1_axes_0 = const()[name = tensor<string, []>("inputs_1_axes_0"), val = tensor<int32, [1]>([2])];
            tensor<fp16, [1, 384, 24]> var_50_cast_fp16 = transpose(perm = var_50_perm_0, x = x_3_cast_fp16)[name = tensor<string, []>("transpose_11")];
            tensor<fp16, [1, 384, 1, 24]> inputs_1_cast_fp16 = expand_dims(axes = inputs_1_axes_0, x = var_50_cast_fp16)[name = tensor<string, []>("inputs_1_cast_fp16")];
            tensor<int32, [3]> var_55_perm_0 = const()[name = tensor<string, []>("op_55_perm_0"), val = tensor<int32, [3]>([0, 2, 1])];
            tensor<string, []> encoder_output_to_fp16_dtype_0 = const()[name = tensor<string, []>("encoder_output_to_fp16_dtype_0"), val = tensor<string, []>("fp16")];
            tensor<int32, [1]> input_7_axes_0 = const()[name = tensor<string, []>("input_7_axes_0"), val = tensor<int32, [1]>([2])];
            tensor<fp16, [1, 1500, 384]> encoder_output_to_fp16 = cast(dtype = encoder_output_to_fp16_dtype_0, x = encoder_output)[name = tensor<string, []>("cast_28")];
            tensor<fp16, [1, 384, 1500]> var_55_cast_fp16 = transpose(perm = var_55_perm_0, x = encoder_output_to_fp16)[name = tensor<string, []>("transpose_10")];
            tensor<fp16, [1, 384, 1, 1500]> input_7_cast_fp16 = expand_dims(axes = input_7_axes_0, x = var_55_cast_fp16)[name = tensor<string, []>("input_7_cast_fp16")];
            tensor<int32, []> var_67 = const()[name = tensor<string, []>("op_67"), val = tensor<int32, []>(1)];
            tensor<int32, [1]> input_1_axes_0 = const()[name = tensor<string, []>("input_1_axes_0"), val = tensor<int32, [1]>([1])];
            tensor<fp16, [384]> input_1_gamma_0_to_fp16 = const()[name = tensor<string, []>("input_1_gamma_0_to_fp16"), val = tensor<fp16, [384]>(BLOBFILE(path = tensor<string, []>("@model_path/weights/weight.bin"), offset = tensor<uint64, []>(39850944)))];
            tensor<fp16, [384]> input_1_beta_0_to_fp16 = const()[name = tensor<string, []>("input_1_beta_0_to_fp16"), val = tensor<fp16, [384]>(BLOBFILE(path = tensor<string, []>("@model_path/weights/weight.bin"), offset = tensor<uint64, []>(39851776)))];
            tensor<fp16, []> var_85_to_fp16 = const()[name = tensor<string, []>("op_85_to_fp16"), val = tensor<fp16, []>(0x1.5p-17)];
            tensor<fp16, [1, 384, 1, 24]> input_1_cast_fp16 = layer_norm(axes = input_1_axes_0, beta = input_1_beta_0_to_fp16, epsilon = var_85_to_fp16, gamma = input_1_gamma_0_to_fp16, x = inputs_1_cast_fp16)[name = tensor<string, []>("input_1_cast_fp16")];
            tensor<string, []> q_1_pad_type_0 = const()[name = tensor<string, []>("q_1_pad_type_0"), val = tensor<string, []>("valid")];
            tensor<int32, [2]> q_1_strides_0 = const()[name = tensor<string, []>("q_1_strides_0"), val = tensor<int32, [2]>([1, 1])];
            tensor<int32, [4]> q_1_pad_0 = const()[name = tensor<string, []>("q_1_pad_0"), val = tensor<int32, [4]>([0, 0, 0, 0])];
            tensor<int32, [2]> q_1_dilations_0 = const()[name = tensor<string, []>("q_1_dilations_0"), val = tensor<int32, [2]>([1, 1])];
            tensor<int32, []> q_1_groups_0 = const()[name = tensor<string, []>("q_1_groups_0"), val = tensor<int32, []>(1)];
            tensor<fp16, [384, 384, 1, 1]> var_121_weight_0_to_fp16 = const()[name = tensor<string, []>("op_121_weight_0_to_fp16"), val = tensor<fp16, [384, 384, 1, 1]>(BLOBFILE(path = tensor<string, []>("@model_path/weights/weight.bin"), offset = tensor<uint64, []>(39852608)))];
            tensor<fp16, [384]> var_121_bias_0_to_fp16 = const()[name = tensor<string, []>("op_121_bias_0_to_fp16"), val = tensor<fp16, [384]>(BLOBFILE(path = tensor<string, []>("@model_path/weights/weight.bin"), offset = tensor<uint64, []>(40147584)))];
            tensor<fp16, [1, 384, 1, 24]> var_121_cast_fp16 = conv(bias = var_121_bias_0_to_fp16, dilations = q_1_dilations_0, groups = q_1_groups_0, pad = q_1_pad_0, pad_type = q_1_pad_type_0, strides = q_1_strides_0, weight = var_121_weight_0_to_fp16, x = input_1_cast_fp16)[name = tensor<string, []>("op_121_cast_fp16")];
            tensor<string, []> k_1_pad_type_0 = const()[name = tensor<string, []>("k_1_pad_type_0"), val = tensor<string, []>("valid")];
            tensor<int32, [2]> k_1_strides_0 = const()[name = tensor<string, []>("k_1_strides_0"), val = tensor<int32, [2]>([1, 1])];
            tensor<int32, [4]> k_1_pad_0 = const()[name = tensor<string, []>("k_1_pad_0"), val = tensor<int32, [4]>([0, 0, 0, 0])];
            tensor<int32, [2]> k_1_dilations_0 = const()[name = tensor<string, []>("k_1_dilations_0"), val = tensor<int32, [2]>([1, 1])];
            tensor<int32, []> k_1_groups_0 = const()[name = tensor<string, []>("k_1_groups_0"), val = tensor<int32, []>(1)];
            tensor<fp16, [384, 384, 1, 1]> blocks_0_attn_key_weight_to_fp16 = const()[name = tensor<string, []>("blocks_0_attn_key_weight_to_fp16"), val = tensor<fp16, [384, 384, 1, 1]>(BLOBFILE(path = tensor<string, []>("@model_path/weights/weight.bin"), offset = tensor<uint64, []>(40148416)))];
            tensor<fp16, [1, 384, 1, 24]> k_1_cast_fp16 = conv(dilations = k_1_dilations_0, groups = k_1_groups_0, pad = k_1_pad_0, pad_type = k_1_pad_type_0, strides = k_1_strides_0, weight = blocks_0_attn_key_weight_to_fp16, x = input_1_cast_fp16)[name = tensor<string, []>("k_1_cast_fp16")];
            tensor<string, []> var_118_pad_type_0 = const()[name = tensor<string, []>("op_118_pad_type_0"), val = tensor<string, []>("valid")];
            tensor<int32, [2]> var_118_strides_0 = const()[name = tensor<string, []>("op_118_strides_0"), val = tensor<int32, [2]>([1, 1])];
            tensor<int32, [4]> var_118_pad_0 = const()[name = tensor<string, []>("op_118_pad_0"), val = tensor<int32, [4]>([0, 0, 0, 0])];
            tensor<int32, [2]> var_118_dilations_0 = const()[name = tensor<string, []>("op_118_dilations_0"), val = tensor<int32, [2]>([1, 1])];
            tensor<int32, []> var_118_groups_0 = const()[name = tensor<string, []>("op_118_groups_0"), val = tensor<int32, []>(1)];
            tensor<fp16, [384, 384, 1, 1]> blocks_0_attn_value_weight_to_fp16 = const()[name = tensor<string, []>("blocks_0_attn_value_weight_to_fp16"), val = tensor<fp16, [384, 384, 1, 1]>(BLOBFILE(path = tensor<string, []>("@model_path/weights/weight.bin"), offset = tensor<uint64, []>(40443392)))];
            tensor<fp16, [384]> blocks_0_attn_value_bias_to_fp16 = const()[name = tensor<string, []>("blocks_0_attn_value_bias_to_fp16"), val = tensor<fp16, [384]>(BLOBFILE(path = tensor<string, []>("@model_path/weights/weight.bin"), offset = tensor<uint64, []>(40738368)))];
            tensor<fp16, [1, 384, 1, 24]> var_118_cast_fp16 = conv(bias = blocks_0_attn_value_bias_to_fp16, dilations = var_118_dilations_0, groups = var_118_groups_0, pad = var_118_pad_0, pad_type = var_118_pad_type_0, strides = var_118_strides_0, weight = blocks_0_attn_value_weight_to_fp16, x = input_1_cast_fp16)[name = tensor<string, []>("op_118_cast_fp16")];
            tensor<int32, [6]> tile_0 = const()[name = tensor<string, []>("tile_0"), val = tensor<int32, [6]>([64, 64, 64, 64, 64, 64])];
            tensor<int32, []> var_122_axis_0 = const()[name = tensor<string, []>("op_122_axis_0"), val = tensor<int32, []>(1)];
            tensor<fp16, [1, 64, 1, 24]> var_122_cast_fp16_0, tensor<fp16, [1, 64, 1, 24]> var_122_cast_fp16_1, tensor<fp16, [1, 64, 1, 24]> var_122_cast_fp16_2, tensor<fp16, [1, 64, 1, 24]> var_122_cast_fp16_3, tensor<fp16, [1, 64, 1, 24]> var_122_cast_fp16_4, tensor<fp16, [1, 64, 1, 24]> var_122_cast_fp16_5 = split(axis = var_122_axis_0, split_sizes = tile_0, x = var_121_cast_fp16)[name = tensor<string, []>("op_122_cast_fp16")];
            tensor<int32, [4]> var_129_perm_0 = const()[name = tensor<string, []>("op_129_perm_0"), val = tensor<int32, [4]>([0, 3, 2, 1])];
            tensor<int32, [6]> tile_1 = const()[name = tensor<string, []>("tile_1"), val = tensor<int32, [6]>([64, 64, 64, 64, 64, 64])];
            tensor<int32, []> var_130_axis_0 = const()[name = tensor<string, []>("op_130_axis_0"), val = tensor<int32, []>(3)];
            tensor<fp16, [1, 24, 1, 384]> var_129_cast_fp16 = transpose(perm = var_129_perm_0, x = k_1_cast_fp16)[name = tensor<string, []>("transpose_9")];
            tensor<fp16, [1, 24, 1, 64]> var_130_cast_fp16_0, tensor<fp16, [1, 24, 1, 64]> var_130_cast_fp16_1, tensor<fp16, [1, 24, 1, 64]> var_130_cast_fp16_2, tensor<fp16, [1, 24, 1, 64]> var_130_cast_fp16_3, tensor<fp16, [1, 24, 1, 64]> var_130_cast_fp16_4, tensor<fp16, [1, 24, 1, 64]> var_130_cast_fp16_5 = split(axis = var_130_axis_0, split_sizes = tile_1, x = var_129_cast_fp16)[name = tensor<string, []>("op_130_cast_fp16")];
            tensor<int32, [6]> tile_2 = const()[name = tensor<string, []>("tile_2"), val = tensor<int32, [6]>([64, 64, 64, 64, 64, 64])];
            tensor<int32, []> var_137_axis_0 = const()[name = tensor<string, []>("op_137_axis_0"), val = tensor<int32, []>(1)];
            tensor<fp16, [1, 64, 1, 24]> var_137_cast_fp16_0, tensor<fp16, [1, 64, 1, 24]> var_137_cast_fp16_1, tensor<fp16, [1, 64, 1, 24]> var_137_cast_fp16_2, tensor<fp16, [1, 64, 1, 24]> var_137_cast_fp16_3, tensor<fp16, [1, 64, 1, 24]> var_137_cast_fp16_4, tensor<fp16, [1, 64, 1, 24]> var_137_cast_fp16_5 = split(axis = var_137_axis_0, split_sizes = tile_2, x = var_118_cast_fp16)[name = tensor<string, []>("op_137_cast_fp16")];
            tensor<string, []> var_145_equation_0 = const()[name = tensor<string, []>("op_145_equation_0"), val = tensor<string, []>("bkhc,bchq->bkhq")];
            tensor<fp16, [1, 24, 1, 24]> var_145_cast_fp16 = einsum(equation = var_145_equation_0, values = (var_130_cast_fp16_0, var_122_cast_fp16_0))[name = tensor<string, []>("op_145_cast_fp16")];
            tensor<string, []> var_147_equation_0 = const()[name = tensor<string, []>("op_147_equation_0"), val = tensor<string, []>("bkhc,bchq->bkhq")];
            tensor<fp16, [1, 24, 1, 24]> var_147_cast_fp16 = einsum(equation = var_147_equation_0, values = (var_130_cast_fp16_1, var_122_cast_fp16_1))[name = tensor<string, []>("op_147_cast_fp16")];
            tensor<string, []> var_149_equation_0 = const()[name = tensor<string, []>("op_149_equation_0"), val = tensor<string, []>("bkhc,bchq->bkhq")];
            tensor<fp16, [1, 24, 1, 24]> var_149_cast_fp16 = einsum(equation = var_149_equation_0, values = (var_130_cast_fp16_2, var_122_cast_fp16_2))[name = tensor<string, []>("op_149_cast_fp16")];
            tensor<string, []> var_151_equation_0 = const()[name = tensor<string, []>("op_151_equation_0"), val = tensor<string, []>("bkhc,bchq->bkhq")];
            tensor<fp16, [1, 24, 1, 24]> var_151_cast_fp16 = einsum(equation = var_151_equation_0, values = (var_130_cast_fp16_3, var_122_cast_fp16_3))[name = tensor<string, []>("op_151_cast_fp16")];
            tensor<string, []> var_153_equation_0 = const()[name = tensor<string, []>("op_153_equation_0"), val = tensor<string, []>("bkhc,bchq->bkhq")];
            tensor<fp16, [1, 24, 1, 24]> var_153_cast_fp16 = einsum(equation = var_153_equation_0, values = (var_130_cast_fp16_4, var_122_cast_fp16_4))[name = tensor<string, []>("op_153_cast_fp16")];
            tensor<string, []> var_155_equation_0 = const()[name = tensor<string, []>("op_155_equation_0"), val = tensor<string, []>("bkhc,bchq->bkhq")];
            tensor<fp16, [1, 24, 1, 24]> var_155_cast_fp16 = einsum(equation = var_155_equation_0, values = (var_130_cast_fp16_5, var_122_cast_fp16_5))[name = tensor<string, []>("op_155_cast_fp16")];
            tensor<fp16, [1, 24, 1, 24]> mask_1_to_fp16 = const()[name = tensor<string, []>("mask_1_to_fp16"), val = tensor<fp16, [1, 24, 1, 24]>(BLOBFILE(path = tensor<string, []>("@model_path/weights/weight.bin"), offset = tensor<uint64, []>(40739200)))];
            tensor<fp16, [1, 24, 1, 24]> aw_1_cast_fp16 = add(x = var_145_cast_fp16, y = mask_1_to_fp16)[name = tensor<string, []>("aw_1_cast_fp16")];
            tensor<fp16, [1, 24, 1, 24]> aw_3_cast_fp16 = add(x = var_147_cast_fp16, y = mask_1_to_fp16)[name = tensor<string, []>("aw_3_cast_fp16")];
            tensor<fp16, [1, 24, 1, 24]> aw_5_cast_fp16 = add(x = var_149_cast_fp16, y = mask_1_to_fp16)[name = tensor<string, []>("aw_5_cast_fp16")];
            tensor<fp16, [1, 24, 1, 24]> aw_7_cast_fp16 = add(x = var_151_cast_fp16, y = mask_1_to_fp16)[name = tensor<string, []>("aw_7_cast_fp16")];
            tensor<fp16, [1, 24, 1, 24]> aw_9_cast_fp16 = add(x = var_153_cast_fp16, y = mask_1_to_fp16)[name = tensor<string, []>("aw_9_cast_fp16")];
            tensor<fp16, [1, 24, 1, 24]> aw_11_cast_fp16 = add(x = var_155_cast_fp16, y = mask_1_to_fp16)[name = tensor<string, []>("aw_11_cast_fp16")];
            tensor<fp16, [1, 24, 1, 24]> var_186_cast_fp16 = softmax(axis = var_67, x = aw_1_cast_fp16)[name = tensor<string, []>("op_186_cast_fp16")];
            tensor<fp16, [1, 24, 1, 24]> var_187_cast_fp16 = softmax(axis = var_67, x = aw_3_cast_fp16)[name = tensor<string, []>("op_187_cast_fp16")];
            tensor<fp16, [1, 24, 1, 24]> var_188_cast_fp16 = softmax(axis = var_67, x = aw_5_cast_fp16)[name = tensor<string, []>("op_188_cast_fp16")];
            tensor<fp16, [1, 24, 1, 24]> var_189_cast_fp16 = softmax(axis = var_67, x = aw_7_cast_fp16)[name = tensor<string, []>("op_189_cast_fp16")];
            tensor<fp16, [1, 24, 1, 24]> var_190_cast_fp16 = softmax(axis = var_67, x = aw_9_cast_fp16)[name = tensor<string, []>("op_190_cast_fp16")];
            tensor<fp16, [1, 24, 1, 24]> var_191_cast_fp16 = softmax(axis = var_67, x = aw_11_cast_fp16)[name = tensor<string, []>("op_191_cast_fp16")];
            tensor<string, []> var_193_equation_0 = const()[name = tensor<string, []>("op_193_equation_0"), val = tensor<string, []>("bchk,bkhq->bchq")];
            tensor<fp16, [1, 64, 1, 24]> var_193_cast_fp16 = einsum(equation = var_193_equation_0, values = (var_137_cast_fp16_0, var_186_cast_fp16))[name = tensor<string, []>("op_193_cast_fp16")];
            tensor<string, []> var_195_equation_0 = const()[name = tensor<string, []>("op_195_equation_0"), val = tensor<string, []>("bchk,bkhq->bchq")];
            tensor<fp16, [1, 64, 1, 24]> var_195_cast_fp16 = einsum(equation = var_195_equation_0, values = (var_137_cast_fp16_1, var_187_cast_fp16))[name = tensor<string, []>("op_195_cast_fp16")];
            tensor<string, []> var_197_equation_0 = const()[name = tensor<string, []>("op_197_equation_0"), val = tensor<string, []>("bchk,bkhq->bchq")];
            tensor<fp16, [1, 64, 1, 24]> var_197_cast_fp16 = einsum(equation = var_197_equation_0, values = (var_137_cast_fp16_2, var_188_cast_fp16))[name = tensor<string, []>("op_197_cast_fp16")];
            tensor<string, []> var_199_equation_0 = const()[name = tensor<string, []>("op_199_equation_0"), val = tensor<string, []>("bchk,bkhq->bchq")];
            tensor<fp16, [1, 64, 1, 24]> var_199_cast_fp16 = einsum(equation = var_199_equation_0, values = (var_137_cast_fp16_3, var_189_cast_fp16))[name = tensor<string, []>("op_199_cast_fp16")];
            tensor<string, []> var_201_equation_0 = const()[name = tensor<string, []>("op_201_equation_0"), val = tensor<string, []>("bchk,bkhq->bchq")];
            tensor<fp16, [1, 64, 1, 24]> var_201_cast_fp16 = einsum(equation = var_201_equation_0, values = (var_137_cast_fp16_4, var_190_cast_fp16))[name = tensor<string, []>("op_201_cast_fp16")];
            tensor<string, []> var_203_equation_0 = const()[name = tensor<string, []>("op_203_equation_0"), val = tensor<string, []>("bchk,bkhq->bchq")];
            tensor<fp16, [1, 64, 1, 24]> var_203_cast_fp16 = einsum(equation = var_203_equation_0, values = (var_137_cast_fp16_5, var_191_cast_fp16))[name = tensor<string, []>("op_203_cast_fp16")];
            tensor<bool, []> input_3_interleave_0 = const()[name = tensor<string, []>("input_3_interleave_0"), val = tensor<bool, []>(false)];
            tensor<fp16, [1, 384, 1, 24]> input_3_cast_fp16 = concat(axis = var_67, interleave = input_3_interleave_0, values = (var_193_cast_fp16, var_195_cast_fp16, var_197_cast_fp16, var_199_cast_fp16, var_201_cast_fp16, var_203_cast_fp16))[name = tensor<string, []>("input_3_cast_fp16")];
            tensor<string, []> var_212_pad_type_0 = const()[name = tensor<string, []>("op_212_pad_type_0"), val = tensor<string, []>("valid")];
            tensor<int32, [2]> var_212_strides_0 = const()[name = tensor<string, []>("op_212_strides_0"), val = tensor<int32, [2]>([1, 1])];
            tensor<int32, [4]> var_212_pad_0 = const()[name = tensor<string, []>("op_212_pad_0"), val = tensor<int32, [4]>([0, 0, 0, 0])];
            tensor<int32, [2]> var_212_dilations_0 = const()[name = tensor<string, []>("op_212_dilations_0"), val = tensor<int32, [2]>([1, 1])];
            tensor<int32, []> var_212_groups_0 = const()[name = tensor<string, []>("op_212_groups_0"), val = tensor<int32, []>(1)];
            tensor<fp16, [384, 384, 1, 1]> blocks_0_attn_out_weight_to_fp16 = const()[name = tensor<string, []>("blocks_0_attn_out_weight_to_fp16"), val = tensor<fp16, [384, 384, 1, 1]>(BLOBFILE(path = tensor<string, []>("@model_path/weights/weight.bin"), offset = tensor<uint64, []>(40740416)))];
            tensor<fp16, [384]> blocks_0_attn_out_bias_to_fp16 = const()[name = tensor<string, []>("blocks_0_attn_out_bias_to_fp16"), val = tensor<fp16, [384]>(BLOBFILE(path = tensor<string, []>("@model_path/weights/weight.bin"), offset = tensor<uint64, []>(41035392)))];
            tensor<fp16, [1, 384, 1, 24]> var_212_cast_fp16 = conv(bias = blocks_0_attn_out_bias_to_fp16, dilations = var_212_dilations_0, groups = var_212_groups_0, pad = var_212_pad_0, pad_type = var_212_pad_type_0, strides = var_212_strides_0, weight = blocks_0_attn_out_weight_to_fp16, x = input_3_cast_fp16)[name = tensor<string, []>("op_212_cast_fp16")];
            tensor<fp16, [1, 384, 1, 24]> inputs_3_cast_fp16 = add(x = inputs_1_cast_fp16, y = var_212_cast_fp16)[name = tensor<string, []>("inputs_3_cast_fp16")];
            tensor<int32, [1]> input_5_axes_0 = const()[name = tensor<string, []>("input_5_axes_0"), val = tensor<int32, [1]>([1])];
            tensor<fp16, [384]> input_5_gamma_0_to_fp16 = const()[name = tensor<string, []>("input_5_gamma_0_to_fp16"), val = tensor<fp16, [384]>(BLOBFILE(path = tensor<string, []>("@model_path/weights/weight.bin"), offset = tensor<uint64, []>(41036224)))];
            tensor<fp16, [384]> input_5_beta_0_to_fp16 = const()[name = tensor<string, []>("input_5_beta_0_to_fp16"), val = tensor<fp16, [384]>(BLOBFILE(path = tensor<string, []>("@model_path/weights/weight.bin"), offset = tensor<uint64, []>(41037056)))];
            tensor<fp16, []> var_222_to_fp16 = const()[name = tensor<string, []>("op_222_to_fp16"), val = tensor<fp16, []>(0x1.5p-17)];
            tensor<fp16, [1, 384, 1, 24]> input_5_cast_fp16 = layer_norm(axes = input_5_axes_0, beta = input_5_beta_0_to_fp16, epsilon = var_222_to_fp16, gamma = input_5_gamma_0_to_fp16, x = inputs_3_cast_fp16)[name = tensor<string, []>("input_5_cast_fp16")];
            tensor<string, []> q_3_pad_type_0 = const()[name = tensor<string, []>("q_3_pad_type_0"), val = tensor<string, []>("valid")];
            tensor<int32, [2]> q_3_strides_0 = const()[name = tensor<string, []>("q_3_strides_0"), val = tensor<int32, [2]>([1, 1])];
            tensor<int32, [4]> q_3_pad_0 = const()[name = tensor<string, []>("q_3_pad_0"), val = tensor<int32, [4]>([0, 0, 0, 0])];
            tensor<int32, [2]> q_3_dilations_0 = const()[name = tensor<string, []>("q_3_dilations_0"), val = tensor<int32, [2]>([1, 1])];
            tensor<int32, []> q_3_groups_0 = const()[name = tensor<string, []>("q_3_groups_0"), val = tensor<int32, []>(1)];
            tensor<fp16, [384, 384, 1, 1]> var_257_weight_0_to_fp16 = const()[name = tensor<string, []>("op_257_weight_0_to_fp16"), val = tensor<fp16, [384, 384, 1, 1]>(BLOBFILE(path = tensor<string, []>("@model_path/weights/weight.bin"), offset = tensor<uint64, []>(41037888)))];
            tensor<fp16, [384]> var_257_bias_0_to_fp16 = const()[name = tensor<string, []>("op_257_bias_0_to_fp16"), val = tensor<fp16, [384]>(BLOBFILE(path = tensor<string, []>("@model_path/weights/weight.bin"), offset = tensor<uint64, []>(41332864)))];
            tensor<fp16, [1, 384, 1, 24]> var_257_cast_fp16 = conv(bias = var_257_bias_0_to_fp16, dilations = q_3_dilations_0, groups = q_3_groups_0, pad = q_3_pad_0, pad_type = q_3_pad_type_0, strides = q_3_strides_0, weight = var_257_weight_0_to_fp16, x = input_5_cast_fp16)[name = tensor<string, []>("op_257_cast_fp16")];
            tensor<string, []> k_3_pad_type_0 = const()[name = tensor<string, []>("k_3_pad_type_0"), val = tensor<string, []>("valid")];
            tensor<int32, [2]> k_3_strides_0 = const()[name = tensor<string, []>("k_3_strides_0"), val = tensor<int32, [2]>([1, 1])];
            tensor<int32, [4]> k_3_pad_0 = const()[name = tensor<string, []>("k_3_pad_0"), val = tensor<int32, [4]>([0, 0, 0, 0])];
            tensor<int32, [2]> k_3_dilations_0 = const()[name = tensor<string, []>("k_3_dilations_0"), val = tensor<int32, [2]>([1, 1])];
            tensor<int32, []> k_3_groups_0 = const()[name = tensor<string, []>("k_3_groups_0"), val = tensor<int32, []>(1)];
            tensor<fp16, [384, 384, 1, 1]> blocks_0_cross_attn_key_weight_to_fp16 = const()[name = tensor<string, []>("blocks_0_cross_attn_key_weight_to_fp16"), val = tensor<fp16, [384, 384, 1, 1]>(BLOBFILE(path = tensor<string, []>("@model_path/weights/weight.bin"), offset = tensor<uint64, []>(41333696)))];
            tensor<fp16, [1, 384, 1, 1500]> k_3_cast_fp16 = conv(dilations = k_3_dilations_0, groups = k_3_groups_0, pad = k_3_pad_0, pad_type = k_3_pad_type_0, strides = k_3_strides_0, weight = blocks_0_cross_attn_key_weight_to_fp16, x = input_7_cast_fp16)[name = tensor<string, []>("k_3_cast_fp16")];
            tensor<string, []> var_255_pad_type_0 = const()[name = tensor<string, []>("op_255_pad_type_0"), val = tensor<string, []>("valid")];
            tensor<int32, [2]> var_255_strides_0 = const()[name = tensor<string, []>("op_255_strides_0"), val = tensor<int32, [2]>([1, 1])];
            tensor<int32, [4]> var_255_pad_0 = const()[name = tensor<string, []>("op_255_pad_0"), val = tensor<int32, [4]>([0, 0, 0, 0])];
            tensor<int32, [2]> var_255_dilations_0 = const()[name = tensor<string, []>("op_255_dilations_0"), val = tensor<int32, [2]>([1, 1])];
            tensor<int32, []> var_255_groups_0 = const()[name = tensor<string, []>("op_255_groups_0"), val = tensor<int32, []>(1)];
            tensor<fp16, [384, 384, 1, 1]> blocks_0_cross_attn_value_weight_to_fp16 = const()[name = tensor<string, []>("blocks_0_cross_attn_value_weight_to_fp16"), val = tensor<fp16, [384, 384, 1, 1]>(BLOBFILE(path = tensor<string, []>("@model_path/weights/weight.bin"), offset = tensor<uint64, []>(41628672)))];
            tensor<fp16, [384]> blocks_0_cross_attn_value_bias_to_fp16 = const()[name = tensor<string, []>("blocks_0_cross_attn_value_bias_to_fp16"), val = tensor<fp16, [384]>(BLOBFILE(path = tensor<string, []>("@model_path/weights/weight.bin"), offset = tensor<uint64, []>(41923648)))];
            tensor<fp16, [1, 384, 1, 1500]> var_255_cast_fp16 = conv(bias = blocks_0_cross_attn_value_bias_to_fp16, dilations = var_255_dilations_0, groups = var_255_groups_0, pad = var_255_pad_0, pad_type = var_255_pad_type_0, strides = var_255_strides_0, weight = blocks_0_cross_attn_value_weight_to_fp16, x = input_7_cast_fp16)[name = tensor<string, []>("op_255_cast_fp16")];
            tensor<int32, [6]> tile_3 = const()[name = tensor<string, []>("tile_3"), val = tensor<int32, [6]>([64, 64, 64, 64, 64, 64])];
            tensor<int32, []> var_258_axis_0 = const()[name = tensor<string, []>("op_258_axis_0"), val = tensor<int32, []>(1)];
            tensor<fp16, [1, 64, 1, 24]> var_258_cast_fp16_0, tensor<fp16, [1, 64, 1, 24]> var_258_cast_fp16_1, tensor<fp16, [1, 64, 1, 24]> var_258_cast_fp16_2, tensor<fp16, [1, 64, 1, 24]> var_258_cast_fp16_3, tensor<fp16, [1, 64, 1, 24]> var_258_cast_fp16_4, tensor<fp16, [1, 64, 1, 24]> var_258_cast_fp16_5 = split(axis = var_258_axis_0, split_sizes = tile_3, x = var_257_cast_fp16)[name = tensor<string, []>("op_258_cast_fp16")];
            tensor<int32, [4]> var_265_perm_0 = const()[name = tensor<string, []>("op_265_perm_0"), val = tensor<int32, [4]>([0, 3, 2, 1])];
            tensor<int32, [6]> tile_4 = const()[name = tensor<string, []>("tile_4"), val = tensor<int32, [6]>([64, 64, 64, 64, 64, 64])];
            tensor<int32, []> var_266_axis_0 = const()[name = tensor<string, []>("op_266_axis_0"), val = tensor<int32, []>(3)];
            tensor<fp16, [1, 1500, 1, 384]> var_265_cast_fp16 = transpose(perm = var_265_perm_0, x = k_3_cast_fp16)[name = tensor<string, []>("transpose_8")];
            tensor<fp16, [1, 1500, 1, 64]> var_266_cast_fp16_0, tensor<fp16, [1, 1500, 1, 64]> var_266_cast_fp16_1, tensor<fp16, [1, 1500, 1, 64]> var_266_cast_fp16_2, tensor<fp16, [1, 1500, 1, 64]> var_266_cast_fp16_3, tensor<fp16, [1, 1500, 1, 64]> var_266_cast_fp16_4, tensor<fp16, [1, 1500, 1, 64]> var_266_cast_fp16_5 = split(axis = var_266_axis_0, split_sizes = tile_4, x = var_265_cast_fp16)[name = tensor<string, []>("op_266_cast_fp16")];
            tensor<int32, [6]> tile_5 = const()[name = tensor<string, []>("tile_5"), val = tensor<int32, [6]>([64, 64, 64, 64, 64, 64])];
            tensor<int32, []> var_273_axis_0 = const()[name = tensor<string, []>("op_273_axis_0"), val = tensor<int32, []>(1)];
            tensor<fp16, [1, 64, 1, 1500]> var_273_cast_fp16_0, tensor<fp16, [1, 64, 1, 1500]> var_273_cast_fp16_1, tensor<fp16, [1, 64, 1, 1500]> var_273_cast_fp16_2, tensor<fp16, [1, 64, 1, 1500]> var_273_cast_fp16_3, tensor<fp16, [1, 64, 1, 1500]> var_273_cast_fp16_4, tensor<fp16, [1, 64, 1, 1500]> var_273_cast_fp16_5 = split(axis = var_273_axis_0, split_sizes = tile_5, x = var_255_cast_fp16)[name = tensor<string, []>("op_273_cast_fp16")];
            tensor<string, []> aw_13_equation_0 = const()[name = tensor<string, []>("aw_13_equation_0"), val = tensor<string, []>("bkhc,bchq->bkhq")];
            tensor<fp16, [1, 1500, 1, 24]> aw_13_cast_fp16 = einsum(equation = aw_13_equation_0, values = (var_266_cast_fp16_0, var_258_cast_fp16_0))[name = tensor<string, []>("aw_13_cast_fp16")];
            tensor<string, []> aw_15_equation_0 = const()[name = tensor<string, []>("aw_15_equation_0"), val = tensor<string, []>("bkhc,bchq->bkhq")];
            tensor<fp16, [1, 1500, 1, 24]> aw_15_cast_fp16 = einsum(equation = aw_15_equation_0, values = (var_266_cast_fp16_1, var_258_cast_fp16_1))[name = tensor<string, []>("aw_15_cast_fp16")];
            tensor<string, []> aw_17_equation_0 = const()[name = tensor<string, []>("aw_17_equation_0"), val = tensor<string, []>("bkhc,bchq->bkhq")];
            tensor<fp16, [1, 1500, 1, 24]> aw_17_cast_fp16 = einsum(equation = aw_17_equation_0, values = (var_266_cast_fp16_2, var_258_cast_fp16_2))[name = tensor<string, []>("aw_17_cast_fp16")];
            tensor<string, []> aw_19_equation_0 = const()[name = tensor<string, []>("aw_19_equation_0"), val = tensor<string, []>("bkhc,bchq->bkhq")];
            tensor<fp16, [1, 1500, 1, 24]> aw_19_cast_fp16 = einsum(equation = aw_19_equation_0, values = (var_266_cast_fp16_3, var_258_cast_fp16_3))[name = tensor<string, []>("aw_19_cast_fp16")];
            tensor<string, []> aw_21_equation_0 = const()[name = tensor<string, []>("aw_21_equation_0"), val = tensor<string, []>("bkhc,bchq->bkhq")];
            tensor<fp16, [1, 1500, 1, 24]> aw_21_cast_fp16 = einsum(equation = aw_21_equation_0, values = (var_266_cast_fp16_4, var_258_cast_fp16_4))[name = tensor<string, []>("aw_21_cast_fp16")];
            tensor<string, []> aw_23_equation_0 = const()[name = tensor<string, []>("aw_23_equation_0"), val = tensor<string, []>("bkhc,bchq->bkhq")];
            tensor<fp16, [1, 1500, 1, 24]> aw_23_cast_fp16 = einsum(equation = aw_23_equation_0, values = (var_266_cast_fp16_5, var_258_cast_fp16_5))[name = tensor<string, []>("aw_23_cast_fp16")];
            tensor<fp16, [1, 1500, 1, 24]> var_292_cast_fp16 = softmax(axis = var_67, x = aw_13_cast_fp16)[name = tensor<string, []>("op_292_cast_fp16")];
            tensor<fp16, [1, 1500, 1, 24]> var_293_cast_fp16 = softmax(axis = var_67, x = aw_15_cast_fp16)[name = tensor<string, []>("op_293_cast_fp16")];
            tensor<fp16, [1, 1500, 1, 24]> var_294_cast_fp16 = softmax(axis = var_67, x = aw_17_cast_fp16)[name = tensor<string, []>("op_294_cast_fp16")];
            tensor<fp16, [1, 1500, 1, 24]> var_295_cast_fp16 = softmax(axis = var_67, x = aw_19_cast_fp16)[name = tensor<string, []>("op_295_cast_fp16")];
            tensor<fp16, [1, 1500, 1, 24]> var_296_cast_fp16 = softmax(axis = var_67, x = aw_21_cast_fp16)[name = tensor<string, []>("op_296_cast_fp16")];
            tensor<fp16, [1, 1500, 1, 24]> var_297_cast_fp16 = softmax(axis = var_67, x = aw_23_cast_fp16)[name = tensor<string, []>("op_297_cast_fp16")];
            tensor<string, []> var_299_equation_0 = const()[name = tensor<string, []>("op_299_equation_0"), val = tensor<string, []>("bchk,bkhq->bchq")];
            tensor<fp16, [1, 64, 1, 24]> var_299_cast_fp16 = einsum(equation = var_299_equation_0, values = (var_273_cast_fp16_0, var_292_cast_fp16))[name = tensor<string, []>("op_299_cast_fp16")];
            tensor<string, []> var_301_equation_0 = const()[name = tensor<string, []>("op_301_equation_0"), val = tensor<string, []>("bchk,bkhq->bchq")];
            tensor<fp16, [1, 64, 1, 24]> var_301_cast_fp16 = einsum(equation = var_301_equation_0, values = (var_273_cast_fp16_1, var_293_cast_fp16))[name = tensor<string, []>("op_301_cast_fp16")];
            tensor<string, []> var_303_equation_0 = const()[name = tensor<string, []>("op_303_equation_0"), val = tensor<string, []>("bchk,bkhq->bchq")];
            tensor<fp16, [1, 64, 1, 24]> var_303_cast_fp16 = einsum(equation = var_303_equation_0, values = (var_273_cast_fp16_2, var_294_cast_fp16))[name = tensor<string, []>("op_303_cast_fp16")];
            tensor<string, []> var_305_equation_0 = const()[name = tensor<string, []>("op_305_equation_0"), val = tensor<string, []>("bchk,bkhq->bchq")];
            tensor<fp16, [1, 64, 1, 24]> var_305_cast_fp16 = einsum(equation = var_305_equation_0, values = (var_273_cast_fp16_3, var_295_cast_fp16))[name = tensor<string, []>("op_305_cast_fp16")];
            tensor<string, []> var_307_equation_0 = const()[name = tensor<string, []>("op_307_equation_0"), val = tensor<string, []>("bchk,bkhq->bchq")];
            tensor<fp16, [1, 64, 1, 24]> var_307_cast_fp16 = einsum(equation = var_307_equation_0, values = (var_273_cast_fp16_4, var_296_cast_fp16))[name = tensor<string, []>("op_307_cast_fp16")];
            tensor<string, []> var_309_equation_0 = const()[name = tensor<string, []>("op_309_equation_0"), val = tensor<string, []>("bchk,bkhq->bchq")];
            tensor<fp16, [1, 64, 1, 24]> var_309_cast_fp16 = einsum(equation = var_309_equation_0, values = (var_273_cast_fp16_5, var_297_cast_fp16))[name = tensor<string, []>("op_309_cast_fp16")];
            tensor<bool, []> input_9_interleave_0 = const()[name = tensor<string, []>("input_9_interleave_0"), val = tensor<bool, []>(false)];
            tensor<fp16, [1, 384, 1, 24]> input_9_cast_fp16 = concat(axis = var_67, interleave = input_9_interleave_0, values = (var_299_cast_fp16, var_301_cast_fp16, var_303_cast_fp16, var_305_cast_fp16, var_307_cast_fp16, var_309_cast_fp16))[name = tensor<string, []>("input_9_cast_fp16")];
            tensor<string, []> var_318_pad_type_0 = const()[name = tensor<string, []>("op_318_pad_type_0"), val = tensor<string, []>("valid")];
            tensor<int32, [2]> var_318_strides_0 = const()[name = tensor<string, []>("op_318_strides_0"), val = tensor<int32, [2]>([1, 1])];
            tensor<int32, [4]> var_318_pad_0 = const()[name = tensor<string, []>("op_318_pad_0"), val = tensor<int32, [4]>([0, 0, 0, 0])];
            tensor<int32, [2]> var_318_dilations_0 = const()[name = tensor<string, []>("op_318_dilations_0"), val = tensor<int32, [2]>([1, 1])];
            tensor<int32, []> var_318_groups_0 = const()[name = tensor<string, []>("op_318_groups_0"), val = tensor<int32, []>(1)];
            tensor<fp16, [384, 384, 1, 1]> blocks_0_cross_attn_out_weight_to_fp16 = const()[name = tensor<string, []>("blocks_0_cross_attn_out_weight_to_fp16"), val = tensor<fp16, [384, 384, 1, 1]>(BLOBFILE(path = tensor<string, []>("@model_path/weights/weight.bin"), offset = tensor<uint64, []>(41924480)))];
            tensor<fp16, [384]> blocks_0_cross_attn_out_bias_to_fp16 = const()[name = tensor<string, []>("blocks_0_cross_attn_out_bias_to_fp16"), val = tensor<fp16, [384]>(BLOBFILE(path = tensor<string, []>("@model_path/weights/weight.bin"), offset = tensor<uint64, []>(42219456)))];
            tensor<fp16, [1, 384, 1, 24]> var_318_cast_fp16 = conv(bias = blocks_0_cross_attn_out_bias_to_fp16, dilations = var_318_dilations_0, groups = var_318_groups_0, pad = var_318_pad_0, pad_type = var_318_pad_type_0, strides = var_318_strides_0, weight = blocks_0_cross_attn_out_weight_to_fp16, x = input_9_cast_fp16)[name = tensor<string, []>("op_318_cast_fp16")];
            tensor<fp16, [1, 384, 1, 24]> inputs_5_cast_fp16 = add(x = inputs_3_cast_fp16, y = var_318_cast_fp16)[name = tensor<string, []>("inputs_5_cast_fp16")];
            tensor<int32, [1]> input_11_axes_0 = const()[name = tensor<string, []>("input_11_axes_0"), val = tensor<int32, [1]>([1])];
            tensor<fp16, [384]> input_11_gamma_0_to_fp16 = const()[name = tensor<string, []>("input_11_gamma_0_to_fp16"), val = tensor<fp16, [384]>(BLOBFILE(path = tensor<string, []>("@model_path/weights/weight.bin"), offset = tensor<uint64, []>(42220288)))];
            tensor<fp16, [384]> input_11_beta_0_to_fp16 = const()[name = tensor<string, []>("input_11_beta_0_to_fp16"), val = tensor<fp16, [384]>(BLOBFILE(path = tensor<string, []>("@model_path/weights/weight.bin"), offset = tensor<uint64, []>(42221120)))];
            tensor<fp16, []> var_328_to_fp16 = const()[name = tensor<string, []>("op_328_to_fp16"), val = tensor<fp16, []>(0x1.5p-17)];
            tensor<fp16, [1, 384, 1, 24]> input_11_cast_fp16 = layer_norm(axes = input_11_axes_0, beta = input_11_beta_0_to_fp16, epsilon = var_328_to_fp16, gamma = input_11_gamma_0_to_fp16, x = inputs_5_cast_fp16)[name = tensor<string, []>("input_11_cast_fp16")];
            tensor<string, []> input_13_pad_type_0 = const()[name = tensor<string, []>("input_13_pad_type_0"), val = tensor<string, []>("valid")];
            tensor<int32, [2]> input_13_strides_0 = const()[name = tensor<string, []>("input_13_strides_0"), val = tensor<int32, [2]>([1, 1])];
            tensor<int32, [4]> input_13_pad_0 = const()[name = tensor<string, []>("input_13_pad_0"), val = tensor<int32, [4]>([0, 0, 0, 0])];
            tensor<int32, [2]> input_13_dilations_0 = const()[name = tensor<string, []>("input_13_dilations_0"), val = tensor<int32, [2]>([1, 1])];
            tensor<int32, []> input_13_groups_0 = const()[name = tensor<string, []>("input_13_groups_0"), val = tensor<int32, []>(1)];
            tensor<fp16, [1536, 384, 1, 1]> blocks_0_mlp_0_weight_to_fp16 = const()[name = tensor<string, []>("blocks_0_mlp_0_weight_to_fp16"), val = tensor<fp16, [1536, 384, 1, 1]>(BLOBFILE(path = tensor<string, []>("@model_path/weights/weight.bin"), offset = tensor<uint64, []>(42221952)))];
            tensor<fp16, [1536]> blocks_0_mlp_0_bias_to_fp16 = const()[name = tensor<string, []>("blocks_0_mlp_0_bias_to_fp16"), val = tensor<fp16, [1536]>(BLOBFILE(path = tensor<string, []>("@model_path/weights/weight.bin"), offset = tensor<uint64, []>(43401664)))];
            tensor<fp16, [1, 1536, 1, 24]> input_13_cast_fp16 = conv(bias = blocks_0_mlp_0_bias_to_fp16, dilations = input_13_dilations_0, groups = input_13_groups_0, pad = input_13_pad_0, pad_type = input_13_pad_type_0, strides = input_13_strides_0, weight = blocks_0_mlp_0_weight_to_fp16, x = input_11_cast_fp16)[name = tensor<string, []>("input_13_cast_fp16")];
            tensor<string, []> input_15_mode_0 = const()[name = tensor<string, []>("input_15_mode_0"), val = tensor<string, []>("EXACT")];
            tensor<fp16, [1, 1536, 1, 24]> input_15_cast_fp16 = gelu(mode = input_15_mode_0, x = input_13_cast_fp16)[name = tensor<string, []>("input_15_cast_fp16")];
            tensor<string, []> var_354_pad_type_0 = const()[name = tensor<string, []>("op_354_pad_type_0"), val = tensor<string, []>("valid")];
            tensor<int32, [2]> var_354_strides_0 = const()[name = tensor<string, []>("op_354_strides_0"), val = tensor<int32, [2]>([1, 1])];
            tensor<int32, [4]> var_354_pad_0 = const()[name = tensor<string, []>("op_354_pad_0"), val = tensor<int32, [4]>([0, 0, 0, 0])];
            tensor<int32, [2]> var_354_dilations_0 = const()[name = tensor<string, []>("op_354_dilations_0"), val = tensor<int32, [2]>([1, 1])];
            tensor<int32, []> var_354_groups_0 = const()[name = tensor<string, []>("op_354_groups_0"), val = tensor<int32, []>(1)];
            tensor<fp16, [384, 1536, 1, 1]> blocks_0_mlp_2_weight_to_fp16 = const()[name = tensor<string, []>("blocks_0_mlp_2_weight_to_fp16"), val = tensor<fp16, [384, 1536, 1, 1]>(BLOBFILE(path = tensor<string, []>("@model_path/weights/weight.bin"), offset = tensor<uint64, []>(43404800)))];
            tensor<fp16, [384]> blocks_0_mlp_2_bias_to_fp16 = const()[name = tensor<string, []>("blocks_0_mlp_2_bias_to_fp16"), val = tensor<fp16, [384]>(BLOBFILE(path = tensor<string, []>("@model_path/weights/weight.bin"), offset = tensor<uint64, []>(44584512)))];
            tensor<fp16, [1, 384, 1, 24]> var_354_cast_fp16 = conv(bias = blocks_0_mlp_2_bias_to_fp16, dilations = var_354_dilations_0, groups = var_354_groups_0, pad = var_354_pad_0, pad_type = var_354_pad_type_0, strides = var_354_strides_0, weight = blocks_0_mlp_2_weight_to_fp16, x = input_15_cast_fp16)[name = tensor<string, []>("op_354_cast_fp16")];
            tensor<fp16, [1, 384, 1, 24]> inputs_7_cast_fp16 = add(x = inputs_5_cast_fp16, y = var_354_cast_fp16)[name = tensor<string, []>("inputs_7_cast_fp16")];
            tensor<int32, []> var_365 = const()[name = tensor<string, []>("op_365"), val = tensor<int32, []>(1)];
            tensor<int32, [1]> input_17_axes_0 = const()[name = tensor<string, []>("input_17_axes_0"), val = tensor<int32, [1]>([1])];
            tensor<fp16, [384]> input_17_gamma_0_to_fp16 = const()[name = tensor<string, []>("input_17_gamma_0_to_fp16"), val = tensor<fp16, [384]>(BLOBFILE(path = tensor<string, []>("@model_path/weights/weight.bin"), offset = tensor<uint64, []>(44585344)))];
            tensor<fp16, [384]> input_17_beta_0_to_fp16 = const()[name = tensor<string, []>("input_17_beta_0_to_fp16"), val = tensor<fp16, [384]>(BLOBFILE(path = tensor<string, []>("@model_path/weights/weight.bin"), offset = tensor<uint64, []>(44586176)))];
            tensor<fp16, []> var_383_to_fp16 = const()[name = tensor<string, []>("op_383_to_fp16"), val = tensor<fp16, []>(0x1.5p-17)];
            tensor<fp16, [1, 384, 1, 24]> input_17_cast_fp16 = layer_norm(axes = input_17_axes_0, beta = input_17_beta_0_to_fp16, epsilon = var_383_to_fp16, gamma = input_17_gamma_0_to_fp16, x = inputs_7_cast_fp16)[name = tensor<string, []>("input_17_cast_fp16")];
            tensor<string, []> q_5_pad_type_0 = const()[name = tensor<string, []>("q_5_pad_type_0"), val = tensor<string, []>("valid")];
            tensor<int32, [2]> q_5_strides_0 = const()[name = tensor<string, []>("q_5_strides_0"), val = tensor<int32, [2]>([1, 1])];
            tensor<int32, [4]> q_5_pad_0 = const()[name = tensor<string, []>("q_5_pad_0"), val = tensor<int32, [4]>([0, 0, 0, 0])];
            tensor<int32, [2]> q_5_dilations_0 = const()[name = tensor<string, []>("q_5_dilations_0"), val = tensor<int32, [2]>([1, 1])];
            tensor<int32, []> q_5_groups_0 = const()[name = tensor<string, []>("q_5_groups_0"), val = tensor<int32, []>(1)];
            tensor<fp16, [384, 384, 1, 1]> var_419_weight_0_to_fp16 = const()[name = tensor<string, []>("op_419_weight_0_to_fp16"), val = tensor<fp16, [384, 384, 1, 1]>(BLOBFILE(path = tensor<string, []>("@model_path/weights/weight.bin"), offset = tensor<uint64, []>(44587008)))];
            tensor<fp16, [384]> var_419_bias_0_to_fp16 = const()[name = tensor<string, []>("op_419_bias_0_to_fp16"), val = tensor<fp16, [384]>(BLOBFILE(path = tensor<string, []>("@model_path/weights/weight.bin"), offset = tensor<uint64, []>(44881984)))];
            tensor<fp16, [1, 384, 1, 24]> var_419_cast_fp16 = conv(bias = var_419_bias_0_to_fp16, dilations = q_5_dilations_0, groups = q_5_groups_0, pad = q_5_pad_0, pad_type = q_5_pad_type_0, strides = q_5_strides_0, weight = var_419_weight_0_to_fp16, x = input_17_cast_fp16)[name = tensor<string, []>("op_419_cast_fp16")];
            tensor<string, []> k_5_pad_type_0 = const()[name = tensor<string, []>("k_5_pad_type_0"), val = tensor<string, []>("valid")];
            tensor<int32, [2]> k_5_strides_0 = const()[name = tensor<string, []>("k_5_strides_0"), val = tensor<int32, [2]>([1, 1])];
            tensor<int32, [4]> k_5_pad_0 = const()[name = tensor<string, []>("k_5_pad_0"), val = tensor<int32, [4]>([0, 0, 0, 0])];
            tensor<int32, [2]> k_5_dilations_0 = const()[name = tensor<string, []>("k_5_dilations_0"), val = tensor<int32, [2]>([1, 1])];
            tensor<int32, []> k_5_groups_0 = const()[name = tensor<string, []>("k_5_groups_0"), val = tensor<int32, []>(1)];
            tensor<fp16, [384, 384, 1, 1]> blocks_1_attn_key_weight_to_fp16 = const()[name = tensor<string, []>("blocks_1_attn_key_weight_to_fp16"), val = tensor<fp16, [384, 384, 1, 1]>(BLOBFILE(path = tensor<string, []>("@model_path/weights/weight.bin"), offset = tensor<uint64, []>(44882816)))];
            tensor<fp16, [1, 384, 1, 24]> k_5_cast_fp16 = conv(dilations = k_5_dilations_0, groups = k_5_groups_0, pad = k_5_pad_0, pad_type = k_5_pad_type_0, strides = k_5_strides_0, weight = blocks_1_attn_key_weight_to_fp16, x = input_17_cast_fp16)[name = tensor<string, []>("k_5_cast_fp16")];
            tensor<string, []> var_416_pad_type_0 = const()[name = tensor<string, []>("op_416_pad_type_0"), val = tensor<string, []>("valid")];
            tensor<int32, [2]> var_416_strides_0 = const()[name = tensor<string, []>("op_416_strides_0"), val = tensor<int32, [2]>([1, 1])];
            tensor<int32, [4]> var_416_pad_0 = const()[name = tensor<string, []>("op_416_pad_0"), val = tensor<int32, [4]>([0, 0, 0, 0])];
            tensor<int32, [2]> var_416_dilations_0 = const()[name = tensor<string, []>("op_416_dilations_0"), val = tensor<int32, [2]>([1, 1])];
            tensor<int32, []> var_416_groups_0 = const()[name = tensor<string, []>("op_416_groups_0"), val = tensor<int32, []>(1)];
            tensor<fp16, [384, 384, 1, 1]> blocks_1_attn_value_weight_to_fp16 = const()[name = tensor<string, []>("blocks_1_attn_value_weight_to_fp16"), val = tensor<fp16, [384, 384, 1, 1]>(BLOBFILE(path = tensor<string, []>("@model_path/weights/weight.bin"), offset = tensor<uint64, []>(45177792)))];
            tensor<fp16, [384]> blocks_1_attn_value_bias_to_fp16 = const()[name = tensor<string, []>("blocks_1_attn_value_bias_to_fp16"), val = tensor<fp16, [384]>(BLOBFILE(path = tensor<string, []>("@model_path/weights/weight.bin"), offset = tensor<uint64, []>(45472768)))];
            tensor<fp16, [1, 384, 1, 24]> var_416_cast_fp16 = conv(bias = blocks_1_attn_value_bias_to_fp16, dilations = var_416_dilations_0, groups = var_416_groups_0, pad = var_416_pad_0, pad_type = var_416_pad_type_0, strides = var_416_strides_0, weight = blocks_1_attn_value_weight_to_fp16, x = input_17_cast_fp16)[name = tensor<string, []>("op_416_cast_fp16")];
            tensor<int32, [6]> tile_6 = const()[name = tensor<string, []>("tile_6"), val = tensor<int32, [6]>([64, 64, 64, 64, 64, 64])];
            tensor<int32, []> var_420_axis_0 = const()[name = tensor<string, []>("op_420_axis_0"), val = tensor<int32, []>(1)];
            tensor<fp16, [1, 64, 1, 24]> var_420_cast_fp16_0, tensor<fp16, [1, 64, 1, 24]> var_420_cast_fp16_1, tensor<fp16, [1, 64, 1, 24]> var_420_cast_fp16_2, tensor<fp16, [1, 64, 1, 24]> var_420_cast_fp16_3, tensor<fp16, [1, 64, 1, 24]> var_420_cast_fp16_4, tensor<fp16, [1, 64, 1, 24]> var_420_cast_fp16_5 = split(axis = var_420_axis_0, split_sizes = tile_6, x = var_419_cast_fp16)[name = tensor<string, []>("op_420_cast_fp16")];
            tensor<int32, [4]> var_427_perm_0 = const()[name = tensor<string, []>("op_427_perm_0"), val = tensor<int32, [4]>([0, 3, 2, 1])];
            tensor<int32, [6]> tile_7 = const()[name = tensor<string, []>("tile_7"), val = tensor<int32, [6]>([64, 64, 64, 64, 64, 64])];
            tensor<int32, []> var_428_axis_0 = const()[name = tensor<string, []>("op_428_axis_0"), val = tensor<int32, []>(3)];
            tensor<fp16, [1, 24, 1, 384]> var_427_cast_fp16 = transpose(perm = var_427_perm_0, x = k_5_cast_fp16)[name = tensor<string, []>("transpose_7")];
            tensor<fp16, [1, 24, 1, 64]> var_428_cast_fp16_0, tensor<fp16, [1, 24, 1, 64]> var_428_cast_fp16_1, tensor<fp16, [1, 24, 1, 64]> var_428_cast_fp16_2, tensor<fp16, [1, 24, 1, 64]> var_428_cast_fp16_3, tensor<fp16, [1, 24, 1, 64]> var_428_cast_fp16_4, tensor<fp16, [1, 24, 1, 64]> var_428_cast_fp16_5 = split(axis = var_428_axis_0, split_sizes = tile_7, x = var_427_cast_fp16)[name = tensor<string, []>("op_428_cast_fp16")];
            tensor<int32, [6]> tile_8 = const()[name = tensor<string, []>("tile_8"), val = tensor<int32, [6]>([64, 64, 64, 64, 64, 64])];
            tensor<int32, []> var_435_axis_0 = const()[name = tensor<string, []>("op_435_axis_0"), val = tensor<int32, []>(1)];
            tensor<fp16, [1, 64, 1, 24]> var_435_cast_fp16_0, tensor<fp16, [1, 64, 1, 24]> var_435_cast_fp16_1, tensor<fp16, [1, 64, 1, 24]> var_435_cast_fp16_2, tensor<fp16, [1, 64, 1, 24]> var_435_cast_fp16_3, tensor<fp16, [1, 64, 1, 24]> var_435_cast_fp16_4, tensor<fp16, [1, 64, 1, 24]> var_435_cast_fp16_5 = split(axis = var_435_axis_0, split_sizes = tile_8, x = var_416_cast_fp16)[name = tensor<string, []>("op_435_cast_fp16")];
            tensor<string, []> var_443_equation_0 = const()[name = tensor<string, []>("op_443_equation_0"), val = tensor<string, []>("bkhc,bchq->bkhq")];
            tensor<fp16, [1, 24, 1, 24]> var_443_cast_fp16 = einsum(equation = var_443_equation_0, values = (var_428_cast_fp16_0, var_420_cast_fp16_0))[name = tensor<string, []>("op_443_cast_fp16")];
            tensor<string, []> var_445_equation_0 = const()[name = tensor<string, []>("op_445_equation_0"), val = tensor<string, []>("bkhc,bchq->bkhq")];
            tensor<fp16, [1, 24, 1, 24]> var_445_cast_fp16 = einsum(equation = var_445_equation_0, values = (var_428_cast_fp16_1, var_420_cast_fp16_1))[name = tensor<string, []>("op_445_cast_fp16")];
            tensor<string, []> var_447_equation_0 = const()[name = tensor<string, []>("op_447_equation_0"), val = tensor<string, []>("bkhc,bchq->bkhq")];
            tensor<fp16, [1, 24, 1, 24]> var_447_cast_fp16 = einsum(equation = var_447_equation_0, values = (var_428_cast_fp16_2, var_420_cast_fp16_2))[name = tensor<string, []>("op_447_cast_fp16")];
            tensor<string, []> var_449_equation_0 = const()[name = tensor<string, []>("op_449_equation_0"), val = tensor<string, []>("bkhc,bchq->bkhq")];
            tensor<fp16, [1, 24, 1, 24]> var_449_cast_fp16 = einsum(equation = var_449_equation_0, values = (var_428_cast_fp16_3, var_420_cast_fp16_3))[name = tensor<string, []>("op_449_cast_fp16")];
            tensor<string, []> var_451_equation_0 = const()[name = tensor<string, []>("op_451_equation_0"), val = tensor<string, []>("bkhc,bchq->bkhq")];
            tensor<fp16, [1, 24, 1, 24]> var_451_cast_fp16 = einsum(equation = var_451_equation_0, values = (var_428_cast_fp16_4, var_420_cast_fp16_4))[name = tensor<string, []>("op_451_cast_fp16")];
            tensor<string, []> var_453_equation_0 = const()[name = tensor<string, []>("op_453_equation_0"), val = tensor<string, []>("bkhc,bchq->bkhq")];
            tensor<fp16, [1, 24, 1, 24]> var_453_cast_fp16 = einsum(equation = var_453_equation_0, values = (var_428_cast_fp16_5, var_420_cast_fp16_5))[name = tensor<string, []>("op_453_cast_fp16")];
            tensor<fp16, [1, 24, 1, 24]> aw_25_cast_fp16 = add(x = var_443_cast_fp16, y = mask_1_to_fp16)[name = tensor<string, []>("aw_25_cast_fp16")];
            tensor<fp16, [1, 24, 1, 24]> aw_27_cast_fp16 = add(x = var_445_cast_fp16, y = mask_1_to_fp16)[name = tensor<string, []>("aw_27_cast_fp16")];
            tensor<fp16, [1, 24, 1, 24]> aw_29_cast_fp16 = add(x = var_447_cast_fp16, y = mask_1_to_fp16)[name = tensor<string, []>("aw_29_cast_fp16")];
            tensor<fp16, [1, 24, 1, 24]> aw_31_cast_fp16 = add(x = var_449_cast_fp16, y = mask_1_to_fp16)[name = tensor<string, []>("aw_31_cast_fp16")];
            tensor<fp16, [1, 24, 1, 24]> aw_33_cast_fp16 = add(x = var_451_cast_fp16, y = mask_1_to_fp16)[name = tensor<string, []>("aw_33_cast_fp16")];
            tensor<fp16, [1, 24, 1, 24]> aw_35_cast_fp16 = add(x = var_453_cast_fp16, y = mask_1_to_fp16)[name = tensor<string, []>("aw_35_cast_fp16")];
            tensor<fp16, [1, 24, 1, 24]> var_484_cast_fp16 = softmax(axis = var_365, x = aw_25_cast_fp16)[name = tensor<string, []>("op_484_cast_fp16")];
            tensor<fp16, [1, 24, 1, 24]> var_485_cast_fp16 = softmax(axis = var_365, x = aw_27_cast_fp16)[name = tensor<string, []>("op_485_cast_fp16")];
            tensor<fp16, [1, 24, 1, 24]> var_486_cast_fp16 = softmax(axis = var_365, x = aw_29_cast_fp16)[name = tensor<string, []>("op_486_cast_fp16")];
            tensor<fp16, [1, 24, 1, 24]> var_487_cast_fp16 = softmax(axis = var_365, x = aw_31_cast_fp16)[name = tensor<string, []>("op_487_cast_fp16")];
            tensor<fp16, [1, 24, 1, 24]> var_488_cast_fp16 = softmax(axis = var_365, x = aw_33_cast_fp16)[name = tensor<string, []>("op_488_cast_fp16")];
            tensor<fp16, [1, 24, 1, 24]> var_489_cast_fp16 = softmax(axis = var_365, x = aw_35_cast_fp16)[name = tensor<string, []>("op_489_cast_fp16")];
            tensor<string, []> var_491_equation_0 = const()[name = tensor<string, []>("op_491_equation_0"), val = tensor<string, []>("bchk,bkhq->bchq")];
            tensor<fp16, [1, 64, 1, 24]> var_491_cast_fp16 = einsum(equation = var_491_equation_0, values = (var_435_cast_fp16_0, var_484_cast_fp16))[name = tensor<string, []>("op_491_cast_fp16")];
            tensor<string, []> var_493_equation_0 = const()[name = tensor<string, []>("op_493_equation_0"), val = tensor<string, []>("bchk,bkhq->bchq")];
            tensor<fp16, [1, 64, 1, 24]> var_493_cast_fp16 = einsum(equation = var_493_equation_0, values = (var_435_cast_fp16_1, var_485_cast_fp16))[name = tensor<string, []>("op_493_cast_fp16")];
            tensor<string, []> var_495_equation_0 = const()[name = tensor<string, []>("op_495_equation_0"), val = tensor<string, []>("bchk,bkhq->bchq")];
            tensor<fp16, [1, 64, 1, 24]> var_495_cast_fp16 = einsum(equation = var_495_equation_0, values = (var_435_cast_fp16_2, var_486_cast_fp16))[name = tensor<string, []>("op_495_cast_fp16")];
            tensor<string, []> var_497_equation_0 = const()[name = tensor<string, []>("op_497_equation_0"), val = tensor<string, []>("bchk,bkhq->bchq")];
            tensor<fp16, [1, 64, 1, 24]> var_497_cast_fp16 = einsum(equation = var_497_equation_0, values = (var_435_cast_fp16_3, var_487_cast_fp16))[name = tensor<string, []>("op_497_cast_fp16")];
            tensor<string, []> var_499_equation_0 = const()[name = tensor<string, []>("op_499_equation_0"), val = tensor<string, []>("bchk,bkhq->bchq")];
            tensor<fp16, [1, 64, 1, 24]> var_499_cast_fp16 = einsum(equation = var_499_equation_0, values = (var_435_cast_fp16_4, var_488_cast_fp16))[name = tensor<string, []>("op_499_cast_fp16")];
            tensor<string, []> var_501_equation_0 = const()[name = tensor<string, []>("op_501_equation_0"), val = tensor<string, []>("bchk,bkhq->bchq")];
            tensor<fp16, [1, 64, 1, 24]> var_501_cast_fp16 = einsum(equation = var_501_equation_0, values = (var_435_cast_fp16_5, var_489_cast_fp16))[name = tensor<string, []>("op_501_cast_fp16")];
            tensor<bool, []> input_19_interleave_0 = const()[name = tensor<string, []>("input_19_interleave_0"), val = tensor<bool, []>(false)];
            tensor<fp16, [1, 384, 1, 24]> input_19_cast_fp16 = concat(axis = var_365, interleave = input_19_interleave_0, values = (var_491_cast_fp16, var_493_cast_fp16, var_495_cast_fp16, var_497_cast_fp16, var_499_cast_fp16, var_501_cast_fp16))[name = tensor<string, []>("input_19_cast_fp16")];
            tensor<string, []> var_510_pad_type_0 = const()[name = tensor<string, []>("op_510_pad_type_0"), val = tensor<string, []>("valid")];
            tensor<int32, [2]> var_510_strides_0 = const()[name = tensor<string, []>("op_510_strides_0"), val = tensor<int32, [2]>([1, 1])];
            tensor<int32, [4]> var_510_pad_0 = const()[name = tensor<string, []>("op_510_pad_0"), val = tensor<int32, [4]>([0, 0, 0, 0])];
            tensor<int32, [2]> var_510_dilations_0 = const()[name = tensor<string, []>("op_510_dilations_0"), val = tensor<int32, [2]>([1, 1])];
            tensor<int32, []> var_510_groups_0 = const()[name = tensor<string, []>("op_510_groups_0"), val = tensor<int32, []>(1)];
            tensor<fp16, [384, 384, 1, 1]> blocks_1_attn_out_weight_to_fp16 = const()[name = tensor<string, []>("blocks_1_attn_out_weight_to_fp16"), val = tensor<fp16, [384, 384, 1, 1]>(BLOBFILE(path = tensor<string, []>("@model_path/weights/weight.bin"), offset = tensor<uint64, []>(45473600)))];
            tensor<fp16, [384]> blocks_1_attn_out_bias_to_fp16 = const()[name = tensor<string, []>("blocks_1_attn_out_bias_to_fp16"), val = tensor<fp16, [384]>(BLOBFILE(path = tensor<string, []>("@model_path/weights/weight.bin"), offset = tensor<uint64, []>(45768576)))];
            tensor<fp16, [1, 384, 1, 24]> var_510_cast_fp16 = conv(bias = blocks_1_attn_out_bias_to_fp16, dilations = var_510_dilations_0, groups = var_510_groups_0, pad = var_510_pad_0, pad_type = var_510_pad_type_0, strides = var_510_strides_0, weight = blocks_1_attn_out_weight_to_fp16, x = input_19_cast_fp16)[name = tensor<string, []>("op_510_cast_fp16")];
            tensor<fp16, [1, 384, 1, 24]> inputs_9_cast_fp16 = add(x = inputs_7_cast_fp16, y = var_510_cast_fp16)[name = tensor<string, []>("inputs_9_cast_fp16")];
            tensor<int32, [1]> input_21_axes_0 = const()[name = tensor<string, []>("input_21_axes_0"), val = tensor<int32, [1]>([1])];
            tensor<fp16, [384]> input_21_gamma_0_to_fp16 = const()[name = tensor<string, []>("input_21_gamma_0_to_fp16"), val = tensor<fp16, [384]>(BLOBFILE(path = tensor<string, []>("@model_path/weights/weight.bin"), offset = tensor<uint64, []>(45769408)))];
            tensor<fp16, [384]> input_21_beta_0_to_fp16 = const()[name = tensor<string, []>("input_21_beta_0_to_fp16"), val = tensor<fp16, [384]>(BLOBFILE(path = tensor<string, []>("@model_path/weights/weight.bin"), offset = tensor<uint64, []>(45770240)))];
            tensor<fp16, []> var_520_to_fp16 = const()[name = tensor<string, []>("op_520_to_fp16"), val = tensor<fp16, []>(0x1.5p-17)];
            tensor<fp16, [1, 384, 1, 24]> input_21_cast_fp16 = layer_norm(axes = input_21_axes_0, beta = input_21_beta_0_to_fp16, epsilon = var_520_to_fp16, gamma = input_21_gamma_0_to_fp16, x = inputs_9_cast_fp16)[name = tensor<string, []>("input_21_cast_fp16")];
            tensor<string, []> q_7_pad_type_0 = const()[name = tensor<string, []>("q_7_pad_type_0"), val = tensor<string, []>("valid")];
            tensor<int32, [2]> q_7_strides_0 = const()[name = tensor<string, []>("q_7_strides_0"), val = tensor<int32, [2]>([1, 1])];
            tensor<int32, [4]> q_7_pad_0 = const()[name = tensor<string, []>("q_7_pad_0"), val = tensor<int32, [4]>([0, 0, 0, 0])];
            tensor<int32, [2]> q_7_dilations_0 = const()[name = tensor<string, []>("q_7_dilations_0"), val = tensor<int32, [2]>([1, 1])];
            tensor<int32, []> q_7_groups_0 = const()[name = tensor<string, []>("q_7_groups_0"), val = tensor<int32, []>(1)];
            tensor<fp16, [384, 384, 1, 1]> var_555_weight_0_to_fp16 = const()[name = tensor<string, []>("op_555_weight_0_to_fp16"), val = tensor<fp16, [384, 384, 1, 1]>(BLOBFILE(path = tensor<string, []>("@model_path/weights/weight.bin"), offset = tensor<uint64, []>(45771072)))];
            tensor<fp16, [384]> var_555_bias_0_to_fp16 = const()[name = tensor<string, []>("op_555_bias_0_to_fp16"), val = tensor<fp16, [384]>(BLOBFILE(path = tensor<string, []>("@model_path/weights/weight.bin"), offset = tensor<uint64, []>(46066048)))];
            tensor<fp16, [1, 384, 1, 24]> var_555_cast_fp16 = conv(bias = var_555_bias_0_to_fp16, dilations = q_7_dilations_0, groups = q_7_groups_0, pad = q_7_pad_0, pad_type = q_7_pad_type_0, strides = q_7_strides_0, weight = var_555_weight_0_to_fp16, x = input_21_cast_fp16)[name = tensor<string, []>("op_555_cast_fp16")];
            tensor<string, []> k_7_pad_type_0 = const()[name = tensor<string, []>("k_7_pad_type_0"), val = tensor<string, []>("valid")];
            tensor<int32, [2]> k_7_strides_0 = const()[name = tensor<string, []>("k_7_strides_0"), val = tensor<int32, [2]>([1, 1])];
            tensor<int32, [4]> k_7_pad_0 = const()[name = tensor<string, []>("k_7_pad_0"), val = tensor<int32, [4]>([0, 0, 0, 0])];
            tensor<int32, [2]> k_7_dilations_0 = const()[name = tensor<string, []>("k_7_dilations_0"), val = tensor<int32, [2]>([1, 1])];
            tensor<int32, []> k_7_groups_0 = const()[name = tensor<string, []>("k_7_groups_0"), val = tensor<int32, []>(1)];
            tensor<fp16, [384, 384, 1, 1]> blocks_1_cross_attn_key_weight_to_fp16 = const()[name = tensor<string, []>("blocks_1_cross_attn_key_weight_to_fp16"), val = tensor<fp16, [384, 384, 1, 1]>(BLOBFILE(path = tensor<string, []>("@model_path/weights/weight.bin"), offset = tensor<uint64, []>(46066880)))];
            tensor<fp16, [1, 384, 1, 1500]> k_7_cast_fp16 = conv(dilations = k_7_dilations_0, groups = k_7_groups_0, pad = k_7_pad_0, pad_type = k_7_pad_type_0, strides = k_7_strides_0, weight = blocks_1_cross_attn_key_weight_to_fp16, x = input_7_cast_fp16)[name = tensor<string, []>("k_7_cast_fp16")];
            tensor<string, []> var_553_pad_type_0 = const()[name = tensor<string, []>("op_553_pad_type_0"), val = tensor<string, []>("valid")];
            tensor<int32, [2]> var_553_strides_0 = const()[name = tensor<string, []>("op_553_strides_0"), val = tensor<int32, [2]>([1, 1])];
            tensor<int32, [4]> var_553_pad_0 = const()[name = tensor<string, []>("op_553_pad_0"), val = tensor<int32, [4]>([0, 0, 0, 0])];
            tensor<int32, [2]> var_553_dilations_0 = const()[name = tensor<string, []>("op_553_dilations_0"), val = tensor<int32, [2]>([1, 1])];
            tensor<int32, []> var_553_groups_0 = const()[name = tensor<string, []>("op_553_groups_0"), val = tensor<int32, []>(1)];
            tensor<fp16, [384, 384, 1, 1]> blocks_1_cross_attn_value_weight_to_fp16 = const()[name = tensor<string, []>("blocks_1_cross_attn_value_weight_to_fp16"), val = tensor<fp16, [384, 384, 1, 1]>(BLOBFILE(path = tensor<string, []>("@model_path/weights/weight.bin"), offset = tensor<uint64, []>(46361856)))];
            tensor<fp16, [384]> blocks_1_cross_attn_value_bias_to_fp16 = const()[name = tensor<string, []>("blocks_1_cross_attn_value_bias_to_fp16"), val = tensor<fp16, [384]>(BLOBFILE(path = tensor<string, []>("@model_path/weights/weight.bin"), offset = tensor<uint64, []>(46656832)))];
            tensor<fp16, [1, 384, 1, 1500]> var_553_cast_fp16 = conv(bias = blocks_1_cross_attn_value_bias_to_fp16, dilations = var_553_dilations_0, groups = var_553_groups_0, pad = var_553_pad_0, pad_type = var_553_pad_type_0, strides = var_553_strides_0, weight = blocks_1_cross_attn_value_weight_to_fp16, x = input_7_cast_fp16)[name = tensor<string, []>("op_553_cast_fp16")];
            tensor<int32, [6]> tile_9 = const()[name = tensor<string, []>("tile_9"), val = tensor<int32, [6]>([64, 64, 64, 64, 64, 64])];
            tensor<int32, []> var_556_axis_0 = const()[name = tensor<string, []>("op_556_axis_0"), val = tensor<int32, []>(1)];
            tensor<fp16, [1, 64, 1, 24]> var_556_cast_fp16_0, tensor<fp16, [1, 64, 1, 24]> var_556_cast_fp16_1, tensor<fp16, [1, 64, 1, 24]> var_556_cast_fp16_2, tensor<fp16, [1, 64, 1, 24]> var_556_cast_fp16_3, tensor<fp16, [1, 64, 1, 24]> var_556_cast_fp16_4, tensor<fp16, [1, 64, 1, 24]> var_556_cast_fp16_5 = split(axis = var_556_axis_0, split_sizes = tile_9, x = var_555_cast_fp16)[name = tensor<string, []>("op_556_cast_fp16")];
            tensor<int32, [4]> var_563_perm_0 = const()[name = tensor<string, []>("op_563_perm_0"), val = tensor<int32, [4]>([0, 3, 2, 1])];
            tensor<int32, [6]> tile_10 = const()[name = tensor<string, []>("tile_10"), val = tensor<int32, [6]>([64, 64, 64, 64, 64, 64])];
            tensor<int32, []> var_564_axis_0 = const()[name = tensor<string, []>("op_564_axis_0"), val = tensor<int32, []>(3)];
            tensor<fp16, [1, 1500, 1, 384]> var_563_cast_fp16 = transpose(perm = var_563_perm_0, x = k_7_cast_fp16)[name = tensor<string, []>("transpose_6")];
            tensor<fp16, [1, 1500, 1, 64]> var_564_cast_fp16_0, tensor<fp16, [1, 1500, 1, 64]> var_564_cast_fp16_1, tensor<fp16, [1, 1500, 1, 64]> var_564_cast_fp16_2, tensor<fp16, [1, 1500, 1, 64]> var_564_cast_fp16_3, tensor<fp16, [1, 1500, 1, 64]> var_564_cast_fp16_4, tensor<fp16, [1, 1500, 1, 64]> var_564_cast_fp16_5 = split(axis = var_564_axis_0, split_sizes = tile_10, x = var_563_cast_fp16)[name = tensor<string, []>("op_564_cast_fp16")];
            tensor<int32, [6]> tile_11 = const()[name = tensor<string, []>("tile_11"), val = tensor<int32, [6]>([64, 64, 64, 64, 64, 64])];
            tensor<int32, []> var_571_axis_0 = const()[name = tensor<string, []>("op_571_axis_0"), val = tensor<int32, []>(1)];
            tensor<fp16, [1, 64, 1, 1500]> var_571_cast_fp16_0, tensor<fp16, [1, 64, 1, 1500]> var_571_cast_fp16_1, tensor<fp16, [1, 64, 1, 1500]> var_571_cast_fp16_2, tensor<fp16, [1, 64, 1, 1500]> var_571_cast_fp16_3, tensor<fp16, [1, 64, 1, 1500]> var_571_cast_fp16_4, tensor<fp16, [1, 64, 1, 1500]> var_571_cast_fp16_5 = split(axis = var_571_axis_0, split_sizes = tile_11, x = var_553_cast_fp16)[name = tensor<string, []>("op_571_cast_fp16")];
            tensor<string, []> aw_37_equation_0 = const()[name = tensor<string, []>("aw_37_equation_0"), val = tensor<string, []>("bkhc,bchq->bkhq")];
            tensor<fp16, [1, 1500, 1, 24]> aw_37_cast_fp16 = einsum(equation = aw_37_equation_0, values = (var_564_cast_fp16_0, var_556_cast_fp16_0))[name = tensor<string, []>("aw_37_cast_fp16")];
            tensor<string, []> aw_39_equation_0 = const()[name = tensor<string, []>("aw_39_equation_0"), val = tensor<string, []>("bkhc,bchq->bkhq")];
            tensor<fp16, [1, 1500, 1, 24]> aw_39_cast_fp16 = einsum(equation = aw_39_equation_0, values = (var_564_cast_fp16_1, var_556_cast_fp16_1))[name = tensor<string, []>("aw_39_cast_fp16")];
            tensor<string, []> aw_41_equation_0 = const()[name = tensor<string, []>("aw_41_equation_0"), val = tensor<string, []>("bkhc,bchq->bkhq")];
            tensor<fp16, [1, 1500, 1, 24]> aw_41_cast_fp16 = einsum(equation = aw_41_equation_0, values = (var_564_cast_fp16_2, var_556_cast_fp16_2))[name = tensor<string, []>("aw_41_cast_fp16")];
            tensor<string, []> aw_43_equation_0 = const()[name = tensor<string, []>("aw_43_equation_0"), val = tensor<string, []>("bkhc,bchq->bkhq")];
            tensor<fp16, [1, 1500, 1, 24]> aw_43_cast_fp16 = einsum(equation = aw_43_equation_0, values = (var_564_cast_fp16_3, var_556_cast_fp16_3))[name = tensor<string, []>("aw_43_cast_fp16")];
            tensor<string, []> aw_45_equation_0 = const()[name = tensor<string, []>("aw_45_equation_0"), val = tensor<string, []>("bkhc,bchq->bkhq")];
            tensor<fp16, [1, 1500, 1, 24]> aw_45_cast_fp16 = einsum(equation = aw_45_equation_0, values = (var_564_cast_fp16_4, var_556_cast_fp16_4))[name = tensor<string, []>("aw_45_cast_fp16")];
            tensor<string, []> aw_47_equation_0 = const()[name = tensor<string, []>("aw_47_equation_0"), val = tensor<string, []>("bkhc,bchq->bkhq")];
            tensor<fp16, [1, 1500, 1, 24]> aw_47_cast_fp16 = einsum(equation = aw_47_equation_0, values = (var_564_cast_fp16_5, var_556_cast_fp16_5))[name = tensor<string, []>("aw_47_cast_fp16")];
            tensor<fp16, [1, 1500, 1, 24]> var_590_cast_fp16 = softmax(axis = var_365, x = aw_37_cast_fp16)[name = tensor<string, []>("op_590_cast_fp16")];
            tensor<fp16, [1, 1500, 1, 24]> var_591_cast_fp16 = softmax(axis = var_365, x = aw_39_cast_fp16)[name = tensor<string, []>("op_591_cast_fp16")];
            tensor<fp16, [1, 1500, 1, 24]> var_592_cast_fp16 = softmax(axis = var_365, x = aw_41_cast_fp16)[name = tensor<string, []>("op_592_cast_fp16")];
            tensor<fp16, [1, 1500, 1, 24]> var_593_cast_fp16 = softmax(axis = var_365, x = aw_43_cast_fp16)[name = tensor<string, []>("op_593_cast_fp16")];
            tensor<fp16, [1, 1500, 1, 24]> var_594_cast_fp16 = softmax(axis = var_365, x = aw_45_cast_fp16)[name = tensor<string, []>("op_594_cast_fp16")];
            tensor<fp16, [1, 1500, 1, 24]> var_595_cast_fp16 = softmax(axis = var_365, x = aw_47_cast_fp16)[name = tensor<string, []>("op_595_cast_fp16")];
            tensor<string, []> var_597_equation_0 = const()[name = tensor<string, []>("op_597_equation_0"), val = tensor<string, []>("bchk,bkhq->bchq")];
            tensor<fp16, [1, 64, 1, 24]> var_597_cast_fp16 = einsum(equation = var_597_equation_0, values = (var_571_cast_fp16_0, var_590_cast_fp16))[name = tensor<string, []>("op_597_cast_fp16")];
            tensor<string, []> var_599_equation_0 = const()[name = tensor<string, []>("op_599_equation_0"), val = tensor<string, []>("bchk,bkhq->bchq")];
            tensor<fp16, [1, 64, 1, 24]> var_599_cast_fp16 = einsum(equation = var_599_equation_0, values = (var_571_cast_fp16_1, var_591_cast_fp16))[name = tensor<string, []>("op_599_cast_fp16")];
            tensor<string, []> var_601_equation_0 = const()[name = tensor<string, []>("op_601_equation_0"), val = tensor<string, []>("bchk,bkhq->bchq")];
            tensor<fp16, [1, 64, 1, 24]> var_601_cast_fp16 = einsum(equation = var_601_equation_0, values = (var_571_cast_fp16_2, var_592_cast_fp16))[name = tensor<string, []>("op_601_cast_fp16")];
            tensor<string, []> var_603_equation_0 = const()[name = tensor<string, []>("op_603_equation_0"), val = tensor<string, []>("bchk,bkhq->bchq")];
            tensor<fp16, [1, 64, 1, 24]> var_603_cast_fp16 = einsum(equation = var_603_equation_0, values = (var_571_cast_fp16_3, var_593_cast_fp16))[name = tensor<string, []>("op_603_cast_fp16")];
            tensor<string, []> var_605_equation_0 = const()[name = tensor<string, []>("op_605_equation_0"), val = tensor<string, []>("bchk,bkhq->bchq")];
            tensor<fp16, [1, 64, 1, 24]> var_605_cast_fp16 = einsum(equation = var_605_equation_0, values = (var_571_cast_fp16_4, var_594_cast_fp16))[name = tensor<string, []>("op_605_cast_fp16")];
            tensor<string, []> var_607_equation_0 = const()[name = tensor<string, []>("op_607_equation_0"), val = tensor<string, []>("bchk,bkhq->bchq")];
            tensor<fp16, [1, 64, 1, 24]> var_607_cast_fp16 = einsum(equation = var_607_equation_0, values = (var_571_cast_fp16_5, var_595_cast_fp16))[name = tensor<string, []>("op_607_cast_fp16")];
            tensor<bool, []> input_23_interleave_0 = const()[name = tensor<string, []>("input_23_interleave_0"), val = tensor<bool, []>(false)];
            tensor<fp16, [1, 384, 1, 24]> input_23_cast_fp16 = concat(axis = var_365, interleave = input_23_interleave_0, values = (var_597_cast_fp16, var_599_cast_fp16, var_601_cast_fp16, var_603_cast_fp16, var_605_cast_fp16, var_607_cast_fp16))[name = tensor<string, []>("input_23_cast_fp16")];
            tensor<string, []> var_616_pad_type_0 = const()[name = tensor<string, []>("op_616_pad_type_0"), val = tensor<string, []>("valid")];
            tensor<int32, [2]> var_616_strides_0 = const()[name = tensor<string, []>("op_616_strides_0"), val = tensor<int32, [2]>([1, 1])];
            tensor<int32, [4]> var_616_pad_0 = const()[name = tensor<string, []>("op_616_pad_0"), val = tensor<int32, [4]>([0, 0, 0, 0])];
            tensor<int32, [2]> var_616_dilations_0 = const()[name = tensor<string, []>("op_616_dilations_0"), val = tensor<int32, [2]>([1, 1])];
            tensor<int32, []> var_616_groups_0 = const()[name = tensor<string, []>("op_616_groups_0"), val = tensor<int32, []>(1)];
            tensor<fp16, [384, 384, 1, 1]> blocks_1_cross_attn_out_weight_to_fp16 = const()[name = tensor<string, []>("blocks_1_cross_attn_out_weight_to_fp16"), val = tensor<fp16, [384, 384, 1, 1]>(BLOBFILE(path = tensor<string, []>("@model_path/weights/weight.bin"), offset = tensor<uint64, []>(46657664)))];
            tensor<fp16, [384]> blocks_1_cross_attn_out_bias_to_fp16 = const()[name = tensor<string, []>("blocks_1_cross_attn_out_bias_to_fp16"), val = tensor<fp16, [384]>(BLOBFILE(path = tensor<string, []>("@model_path/weights/weight.bin"), offset = tensor<uint64, []>(46952640)))];
            tensor<fp16, [1, 384, 1, 24]> var_616_cast_fp16 = conv(bias = blocks_1_cross_attn_out_bias_to_fp16, dilations = var_616_dilations_0, groups = var_616_groups_0, pad = var_616_pad_0, pad_type = var_616_pad_type_0, strides = var_616_strides_0, weight = blocks_1_cross_attn_out_weight_to_fp16, x = input_23_cast_fp16)[name = tensor<string, []>("op_616_cast_fp16")];
            tensor<fp16, [1, 384, 1, 24]> inputs_11_cast_fp16 = add(x = inputs_9_cast_fp16, y = var_616_cast_fp16)[name = tensor<string, []>("inputs_11_cast_fp16")];
            tensor<int32, [1]> input_25_axes_0 = const()[name = tensor<string, []>("input_25_axes_0"), val = tensor<int32, [1]>([1])];
            tensor<fp16, [384]> input_25_gamma_0_to_fp16 = const()[name = tensor<string, []>("input_25_gamma_0_to_fp16"), val = tensor<fp16, [384]>(BLOBFILE(path = tensor<string, []>("@model_path/weights/weight.bin"), offset = tensor<uint64, []>(46953472)))];
            tensor<fp16, [384]> input_25_beta_0_to_fp16 = const()[name = tensor<string, []>("input_25_beta_0_to_fp16"), val = tensor<fp16, [384]>(BLOBFILE(path = tensor<string, []>("@model_path/weights/weight.bin"), offset = tensor<uint64, []>(46954304)))];
            tensor<fp16, []> var_626_to_fp16 = const()[name = tensor<string, []>("op_626_to_fp16"), val = tensor<fp16, []>(0x1.5p-17)];
            tensor<fp16, [1, 384, 1, 24]> input_25_cast_fp16 = layer_norm(axes = input_25_axes_0, beta = input_25_beta_0_to_fp16, epsilon = var_626_to_fp16, gamma = input_25_gamma_0_to_fp16, x = inputs_11_cast_fp16)[name = tensor<string, []>("input_25_cast_fp16")];
            tensor<string, []> input_27_pad_type_0 = const()[name = tensor<string, []>("input_27_pad_type_0"), val = tensor<string, []>("valid")];
            tensor<int32, [2]> input_27_strides_0 = const()[name = tensor<string, []>("input_27_strides_0"), val = tensor<int32, [2]>([1, 1])];
            tensor<int32, [4]> input_27_pad_0 = const()[name = tensor<string, []>("input_27_pad_0"), val = tensor<int32, [4]>([0, 0, 0, 0])];
            tensor<int32, [2]> input_27_dilations_0 = const()[name = tensor<string, []>("input_27_dilations_0"), val = tensor<int32, [2]>([1, 1])];
            tensor<int32, []> input_27_groups_0 = const()[name = tensor<string, []>("input_27_groups_0"), val = tensor<int32, []>(1)];
            tensor<fp16, [1536, 384, 1, 1]> blocks_1_mlp_0_weight_to_fp16 = const()[name = tensor<string, []>("blocks_1_mlp_0_weight_to_fp16"), val = tensor<fp16, [1536, 384, 1, 1]>(BLOBFILE(path = tensor<string, []>("@model_path/weights/weight.bin"), offset = tensor<uint64, []>(46955136)))];
            tensor<fp16, [1536]> blocks_1_mlp_0_bias_to_fp16 = const()[name = tensor<string, []>("blocks_1_mlp_0_bias_to_fp16"), val = tensor<fp16, [1536]>(BLOBFILE(path = tensor<string, []>("@model_path/weights/weight.bin"), offset = tensor<uint64, []>(48134848)))];
            tensor<fp16, [1, 1536, 1, 24]> input_27_cast_fp16 = conv(bias = blocks_1_mlp_0_bias_to_fp16, dilations = input_27_dilations_0, groups = input_27_groups_0, pad = input_27_pad_0, pad_type = input_27_pad_type_0, strides = input_27_strides_0, weight = blocks_1_mlp_0_weight_to_fp16, x = input_25_cast_fp16)[name = tensor<string, []>("input_27_cast_fp16")];
            tensor<string, []> input_29_mode_0 = const()[name = tensor<string, []>("input_29_mode_0"), val = tensor<string, []>("EXACT")];
            tensor<fp16, [1, 1536, 1, 24]> input_29_cast_fp16 = gelu(mode = input_29_mode_0, x = input_27_cast_fp16)[name = tensor<string, []>("input_29_cast_fp16")];
            tensor<string, []> var_652_pad_type_0 = const()[name = tensor<string, []>("op_652_pad_type_0"), val = tensor<string, []>("valid")];
            tensor<int32, [2]> var_652_strides_0 = const()[name = tensor<string, []>("op_652_strides_0"), val = tensor<int32, [2]>([1, 1])];
            tensor<int32, [4]> var_652_pad_0 = const()[name = tensor<string, []>("op_652_pad_0"), val = tensor<int32, [4]>([0, 0, 0, 0])];
            tensor<int32, [2]> var_652_dilations_0 = const()[name = tensor<string, []>("op_652_dilations_0"), val = tensor<int32, [2]>([1, 1])];
            tensor<int32, []> var_652_groups_0 = const()[name = tensor<string, []>("op_652_groups_0"), val = tensor<int32, []>(1)];
            tensor<fp16, [384, 1536, 1, 1]> blocks_1_mlp_2_weight_to_fp16 = const()[name = tensor<string, []>("blocks_1_mlp_2_weight_to_fp16"), val = tensor<fp16, [384, 1536, 1, 1]>(BLOBFILE(path = tensor<string, []>("@model_path/weights/weight.bin"), offset = tensor<uint64, []>(48137984)))];
            tensor<fp16, [384]> blocks_1_mlp_2_bias_to_fp16 = const()[name = tensor<string, []>("blocks_1_mlp_2_bias_to_fp16"), val = tensor<fp16, [384]>(BLOBFILE(path = tensor<string, []>("@model_path/weights/weight.bin"), offset = tensor<uint64, []>(49317696)))];
            tensor<fp16, [1, 384, 1, 24]> var_652_cast_fp16 = conv(bias = blocks_1_mlp_2_bias_to_fp16, dilations = var_652_dilations_0, groups = var_652_groups_0, pad = var_652_pad_0, pad_type = var_652_pad_type_0, strides = var_652_strides_0, weight = blocks_1_mlp_2_weight_to_fp16, x = input_29_cast_fp16)[name = tensor<string, []>("op_652_cast_fp16")];
            tensor<fp16, [1, 384, 1, 24]> inputs_13_cast_fp16 = add(x = inputs_11_cast_fp16, y = var_652_cast_fp16)[name = tensor<string, []>("inputs_13_cast_fp16")];
            tensor<int32, []> var_663 = const()[name = tensor<string, []>("op_663"), val = tensor<int32, []>(1)];
            tensor<int32, [1]> input_31_axes_0 = const()[name = tensor<string, []>("input_31_axes_0"), val = tensor<int32, [1]>([1])];
            tensor<fp16, [384]> input_31_gamma_0_to_fp16 = const()[name = tensor<string, []>("input_31_gamma_0_to_fp16"), val = tensor<fp16, [384]>(BLOBFILE(path = tensor<string, []>("@model_path/weights/weight.bin"), offset = tensor<uint64, []>(49318528)))];
            tensor<fp16, [384]> input_31_beta_0_to_fp16 = const()[name = tensor<string, []>("input_31_beta_0_to_fp16"), val = tensor<fp16, [384]>(BLOBFILE(path = tensor<string, []>("@model_path/weights/weight.bin"), offset = tensor<uint64, []>(49319360)))];
            tensor<fp16, []> var_681_to_fp16 = const()[name = tensor<string, []>("op_681_to_fp16"), val = tensor<fp16, []>(0x1.5p-17)];
            tensor<fp16, [1, 384, 1, 24]> input_31_cast_fp16 = layer_norm(axes = input_31_axes_0, beta = input_31_beta_0_to_fp16, epsilon = var_681_to_fp16, gamma = input_31_gamma_0_to_fp16, x = inputs_13_cast_fp16)[name = tensor<string, []>("input_31_cast_fp16")];
            tensor<string, []> q_9_pad_type_0 = const()[name = tensor<string, []>("q_9_pad_type_0"), val = tensor<string, []>("valid")];
            tensor<int32, [2]> q_9_strides_0 = const()[name = tensor<string, []>("q_9_strides_0"), val = tensor<int32, [2]>([1, 1])];
            tensor<int32, [4]> q_9_pad_0 = const()[name = tensor<string, []>("q_9_pad_0"), val = tensor<int32, [4]>([0, 0, 0, 0])];
            tensor<int32, [2]> q_9_dilations_0 = const()[name = tensor<string, []>("q_9_dilations_0"), val = tensor<int32, [2]>([1, 1])];
            tensor<int32, []> q_9_groups_0 = const()[name = tensor<string, []>("q_9_groups_0"), val = tensor<int32, []>(1)];
            tensor<fp16, [384, 384, 1, 1]> var_717_weight_0_to_fp16 = const()[name = tensor<string, []>("op_717_weight_0_to_fp16"), val = tensor<fp16, [384, 384, 1, 1]>(BLOBFILE(path = tensor<string, []>("@model_path/weights/weight.bin"), offset = tensor<uint64, []>(49320192)))];
            tensor<fp16, [384]> var_717_bias_0_to_fp16 = const()[name = tensor<string, []>("op_717_bias_0_to_fp16"), val = tensor<fp16, [384]>(BLOBFILE(path = tensor<string, []>("@model_path/weights/weight.bin"), offset = tensor<uint64, []>(49615168)))];
            tensor<fp16, [1, 384, 1, 24]> var_717_cast_fp16 = conv(bias = var_717_bias_0_to_fp16, dilations = q_9_dilations_0, groups = q_9_groups_0, pad = q_9_pad_0, pad_type = q_9_pad_type_0, strides = q_9_strides_0, weight = var_717_weight_0_to_fp16, x = input_31_cast_fp16)[name = tensor<string, []>("op_717_cast_fp16")];
            tensor<string, []> k_9_pad_type_0 = const()[name = tensor<string, []>("k_9_pad_type_0"), val = tensor<string, []>("valid")];
            tensor<int32, [2]> k_9_strides_0 = const()[name = tensor<string, []>("k_9_strides_0"), val = tensor<int32, [2]>([1, 1])];
            tensor<int32, [4]> k_9_pad_0 = const()[name = tensor<string, []>("k_9_pad_0"), val = tensor<int32, [4]>([0, 0, 0, 0])];
            tensor<int32, [2]> k_9_dilations_0 = const()[name = tensor<string, []>("k_9_dilations_0"), val = tensor<int32, [2]>([1, 1])];
            tensor<int32, []> k_9_groups_0 = const()[name = tensor<string, []>("k_9_groups_0"), val = tensor<int32, []>(1)];
            tensor<fp16, [384, 384, 1, 1]> blocks_2_attn_key_weight_to_fp16 = const()[name = tensor<string, []>("blocks_2_attn_key_weight_to_fp16"), val = tensor<fp16, [384, 384, 1, 1]>(BLOBFILE(path = tensor<string, []>("@model_path/weights/weight.bin"), offset = tensor<uint64, []>(49616000)))];
            tensor<fp16, [1, 384, 1, 24]> k_9_cast_fp16 = conv(dilations = k_9_dilations_0, groups = k_9_groups_0, pad = k_9_pad_0, pad_type = k_9_pad_type_0, strides = k_9_strides_0, weight = blocks_2_attn_key_weight_to_fp16, x = input_31_cast_fp16)[name = tensor<string, []>("k_9_cast_fp16")];
            tensor<string, []> var_714_pad_type_0 = const()[name = tensor<string, []>("op_714_pad_type_0"), val = tensor<string, []>("valid")];
            tensor<int32, [2]> var_714_strides_0 = const()[name = tensor<string, []>("op_714_strides_0"), val = tensor<int32, [2]>([1, 1])];
            tensor<int32, [4]> var_714_pad_0 = const()[name = tensor<string, []>("op_714_pad_0"), val = tensor<int32, [4]>([0, 0, 0, 0])];
            tensor<int32, [2]> var_714_dilations_0 = const()[name = tensor<string, []>("op_714_dilations_0"), val = tensor<int32, [2]>([1, 1])];
            tensor<int32, []> var_714_groups_0 = const()[name = tensor<string, []>("op_714_groups_0"), val = tensor<int32, []>(1)];
            tensor<fp16, [384, 384, 1, 1]> blocks_2_attn_value_weight_to_fp16 = const()[name = tensor<string, []>("blocks_2_attn_value_weight_to_fp16"), val = tensor<fp16, [384, 384, 1, 1]>(BLOBFILE(path = tensor<string, []>("@model_path/weights/weight.bin"), offset = tensor<uint64, []>(49910976)))];
            tensor<fp16, [384]> blocks_2_attn_value_bias_to_fp16 = const()[name = tensor<string, []>("blocks_2_attn_value_bias_to_fp16"), val = tensor<fp16, [384]>(BLOBFILE(path = tensor<string, []>("@model_path/weights/weight.bin"), offset = tensor<uint64, []>(50205952)))];
            tensor<fp16, [1, 384, 1, 24]> var_714_cast_fp16 = conv(bias = blocks_2_attn_value_bias_to_fp16, dilations = var_714_dilations_0, groups = var_714_groups_0, pad = var_714_pad_0, pad_type = var_714_pad_type_0, strides = var_714_strides_0, weight = blocks_2_attn_value_weight_to_fp16, x = input_31_cast_fp16)[name = tensor<string, []>("op_714_cast_fp16")];
            tensor<int32, [6]> tile_12 = const()[name = tensor<string, []>("tile_12"), val = tensor<int32, [6]>([64, 64, 64, 64, 64, 64])];
            tensor<int32, []> var_718_axis_0 = const()[name = tensor<string, []>("op_718_axis_0"), val = tensor<int32, []>(1)];
            tensor<fp16, [1, 64, 1, 24]> var_718_cast_fp16_0, tensor<fp16, [1, 64, 1, 24]> var_718_cast_fp16_1, tensor<fp16, [1, 64, 1, 24]> var_718_cast_fp16_2, tensor<fp16, [1, 64, 1, 24]> var_718_cast_fp16_3, tensor<fp16, [1, 64, 1, 24]> var_718_cast_fp16_4, tensor<fp16, [1, 64, 1, 24]> var_718_cast_fp16_5 = split(axis = var_718_axis_0, split_sizes = tile_12, x = var_717_cast_fp16)[name = tensor<string, []>("op_718_cast_fp16")];
            tensor<int32, [4]> var_725_perm_0 = const()[name = tensor<string, []>("op_725_perm_0"), val = tensor<int32, [4]>([0, 3, 2, 1])];
            tensor<int32, [6]> tile_13 = const()[name = tensor<string, []>("tile_13"), val = tensor<int32, [6]>([64, 64, 64, 64, 64, 64])];
            tensor<int32, []> var_726_axis_0 = const()[name = tensor<string, []>("op_726_axis_0"), val = tensor<int32, []>(3)];
            tensor<fp16, [1, 24, 1, 384]> var_725_cast_fp16 = transpose(perm = var_725_perm_0, x = k_9_cast_fp16)[name = tensor<string, []>("transpose_5")];
            tensor<fp16, [1, 24, 1, 64]> var_726_cast_fp16_0, tensor<fp16, [1, 24, 1, 64]> var_726_cast_fp16_1, tensor<fp16, [1, 24, 1, 64]> var_726_cast_fp16_2, tensor<fp16, [1, 24, 1, 64]> var_726_cast_fp16_3, tensor<fp16, [1, 24, 1, 64]> var_726_cast_fp16_4, tensor<fp16, [1, 24, 1, 64]> var_726_cast_fp16_5 = split(axis = var_726_axis_0, split_sizes = tile_13, x = var_725_cast_fp16)[name = tensor<string, []>("op_726_cast_fp16")];
            tensor<int32, [6]> tile_14 = const()[name = tensor<string, []>("tile_14"), val = tensor<int32, [6]>([64, 64, 64, 64, 64, 64])];
            tensor<int32, []> var_733_axis_0 = const()[name = tensor<string, []>("op_733_axis_0"), val = tensor<int32, []>(1)];
            tensor<fp16, [1, 64, 1, 24]> var_733_cast_fp16_0, tensor<fp16, [1, 64, 1, 24]> var_733_cast_fp16_1, tensor<fp16, [1, 64, 1, 24]> var_733_cast_fp16_2, tensor<fp16, [1, 64, 1, 24]> var_733_cast_fp16_3, tensor<fp16, [1, 64, 1, 24]> var_733_cast_fp16_4, tensor<fp16, [1, 64, 1, 24]> var_733_cast_fp16_5 = split(axis = var_733_axis_0, split_sizes = tile_14, x = var_714_cast_fp16)[name = tensor<string, []>("op_733_cast_fp16")];
            tensor<string, []> var_741_equation_0 = const()[name = tensor<string, []>("op_741_equation_0"), val = tensor<string, []>("bkhc,bchq->bkhq")];
            tensor<fp16, [1, 24, 1, 24]> var_741_cast_fp16 = einsum(equation = var_741_equation_0, values = (var_726_cast_fp16_0, var_718_cast_fp16_0))[name = tensor<string, []>("op_741_cast_fp16")];
            tensor<string, []> var_743_equation_0 = const()[name = tensor<string, []>("op_743_equation_0"), val = tensor<string, []>("bkhc,bchq->bkhq")];
            tensor<fp16, [1, 24, 1, 24]> var_743_cast_fp16 = einsum(equation = var_743_equation_0, values = (var_726_cast_fp16_1, var_718_cast_fp16_1))[name = tensor<string, []>("op_743_cast_fp16")];
            tensor<string, []> var_745_equation_0 = const()[name = tensor<string, []>("op_745_equation_0"), val = tensor<string, []>("bkhc,bchq->bkhq")];
            tensor<fp16, [1, 24, 1, 24]> var_745_cast_fp16 = einsum(equation = var_745_equation_0, values = (var_726_cast_fp16_2, var_718_cast_fp16_2))[name = tensor<string, []>("op_745_cast_fp16")];
            tensor<string, []> var_747_equation_0 = const()[name = tensor<string, []>("op_747_equation_0"), val = tensor<string, []>("bkhc,bchq->bkhq")];
            tensor<fp16, [1, 24, 1, 24]> var_747_cast_fp16 = einsum(equation = var_747_equation_0, values = (var_726_cast_fp16_3, var_718_cast_fp16_3))[name = tensor<string, []>("op_747_cast_fp16")];
            tensor<string, []> var_749_equation_0 = const()[name = tensor<string, []>("op_749_equation_0"), val = tensor<string, []>("bkhc,bchq->bkhq")];
            tensor<fp16, [1, 24, 1, 24]> var_749_cast_fp16 = einsum(equation = var_749_equation_0, values = (var_726_cast_fp16_4, var_718_cast_fp16_4))[name = tensor<string, []>("op_749_cast_fp16")];
            tensor<string, []> var_751_equation_0 = const()[name = tensor<string, []>("op_751_equation_0"), val = tensor<string, []>("bkhc,bchq->bkhq")];
            tensor<fp16, [1, 24, 1, 24]> var_751_cast_fp16 = einsum(equation = var_751_equation_0, values = (var_726_cast_fp16_5, var_718_cast_fp16_5))[name = tensor<string, []>("op_751_cast_fp16")];
            tensor<fp16, [1, 24, 1, 24]> aw_49_cast_fp16 = add(x = var_741_cast_fp16, y = mask_1_to_fp16)[name = tensor<string, []>("aw_49_cast_fp16")];
            tensor<fp16, [1, 24, 1, 24]> aw_51_cast_fp16 = add(x = var_743_cast_fp16, y = mask_1_to_fp16)[name = tensor<string, []>("aw_51_cast_fp16")];
            tensor<fp16, [1, 24, 1, 24]> aw_53_cast_fp16 = add(x = var_745_cast_fp16, y = mask_1_to_fp16)[name = tensor<string, []>("aw_53_cast_fp16")];
            tensor<fp16, [1, 24, 1, 24]> aw_55_cast_fp16 = add(x = var_747_cast_fp16, y = mask_1_to_fp16)[name = tensor<string, []>("aw_55_cast_fp16")];
            tensor<fp16, [1, 24, 1, 24]> aw_57_cast_fp16 = add(x = var_749_cast_fp16, y = mask_1_to_fp16)[name = tensor<string, []>("aw_57_cast_fp16")];
            tensor<fp16, [1, 24, 1, 24]> aw_59_cast_fp16 = add(x = var_751_cast_fp16, y = mask_1_to_fp16)[name = tensor<string, []>("aw_59_cast_fp16")];
            tensor<fp16, [1, 24, 1, 24]> var_782_cast_fp16 = softmax(axis = var_663, x = aw_49_cast_fp16)[name = tensor<string, []>("op_782_cast_fp16")];
            tensor<fp16, [1, 24, 1, 24]> var_783_cast_fp16 = softmax(axis = var_663, x = aw_51_cast_fp16)[name = tensor<string, []>("op_783_cast_fp16")];
            tensor<fp16, [1, 24, 1, 24]> var_784_cast_fp16 = softmax(axis = var_663, x = aw_53_cast_fp16)[name = tensor<string, []>("op_784_cast_fp16")];
            tensor<fp16, [1, 24, 1, 24]> var_785_cast_fp16 = softmax(axis = var_663, x = aw_55_cast_fp16)[name = tensor<string, []>("op_785_cast_fp16")];
            tensor<fp16, [1, 24, 1, 24]> var_786_cast_fp16 = softmax(axis = var_663, x = aw_57_cast_fp16)[name = tensor<string, []>("op_786_cast_fp16")];
            tensor<fp16, [1, 24, 1, 24]> var_787_cast_fp16 = softmax(axis = var_663, x = aw_59_cast_fp16)[name = tensor<string, []>("op_787_cast_fp16")];
            tensor<string, []> var_789_equation_0 = const()[name = tensor<string, []>("op_789_equation_0"), val = tensor<string, []>("bchk,bkhq->bchq")];
            tensor<fp16, [1, 64, 1, 24]> var_789_cast_fp16 = einsum(equation = var_789_equation_0, values = (var_733_cast_fp16_0, var_782_cast_fp16))[name = tensor<string, []>("op_789_cast_fp16")];
            tensor<string, []> var_791_equation_0 = const()[name = tensor<string, []>("op_791_equation_0"), val = tensor<string, []>("bchk,bkhq->bchq")];
            tensor<fp16, [1, 64, 1, 24]> var_791_cast_fp16 = einsum(equation = var_791_equation_0, values = (var_733_cast_fp16_1, var_783_cast_fp16))[name = tensor<string, []>("op_791_cast_fp16")];
            tensor<string, []> var_793_equation_0 = const()[name = tensor<string, []>("op_793_equation_0"), val = tensor<string, []>("bchk,bkhq->bchq")];
            tensor<fp16, [1, 64, 1, 24]> var_793_cast_fp16 = einsum(equation = var_793_equation_0, values = (var_733_cast_fp16_2, var_784_cast_fp16))[name = tensor<string, []>("op_793_cast_fp16")];
            tensor<string, []> var_795_equation_0 = const()[name = tensor<string, []>("op_795_equation_0"), val = tensor<string, []>("bchk,bkhq->bchq")];
            tensor<fp16, [1, 64, 1, 24]> var_795_cast_fp16 = einsum(equation = var_795_equation_0, values = (var_733_cast_fp16_3, var_785_cast_fp16))[name = tensor<string, []>("op_795_cast_fp16")];
            tensor<string, []> var_797_equation_0 = const()[name = tensor<string, []>("op_797_equation_0"), val = tensor<string, []>("bchk,bkhq->bchq")];
            tensor<fp16, [1, 64, 1, 24]> var_797_cast_fp16 = einsum(equation = var_797_equation_0, values = (var_733_cast_fp16_4, var_786_cast_fp16))[name = tensor<string, []>("op_797_cast_fp16")];
            tensor<string, []> var_799_equation_0 = const()[name = tensor<string, []>("op_799_equation_0"), val = tensor<string, []>("bchk,bkhq->bchq")];
            tensor<fp16, [1, 64, 1, 24]> var_799_cast_fp16 = einsum(equation = var_799_equation_0, values = (var_733_cast_fp16_5, var_787_cast_fp16))[name = tensor<string, []>("op_799_cast_fp16")];
            tensor<bool, []> input_33_interleave_0 = const()[name = tensor<string, []>("input_33_interleave_0"), val = tensor<bool, []>(false)];
            tensor<fp16, [1, 384, 1, 24]> input_33_cast_fp16 = concat(axis = var_663, interleave = input_33_interleave_0, values = (var_789_cast_fp16, var_791_cast_fp16, var_793_cast_fp16, var_795_cast_fp16, var_797_cast_fp16, var_799_cast_fp16))[name = tensor<string, []>("input_33_cast_fp16")];
            tensor<string, []> var_808_pad_type_0 = const()[name = tensor<string, []>("op_808_pad_type_0"), val = tensor<string, []>("valid")];
            tensor<int32, [2]> var_808_strides_0 = const()[name = tensor<string, []>("op_808_strides_0"), val = tensor<int32, [2]>([1, 1])];
            tensor<int32, [4]> var_808_pad_0 = const()[name = tensor<string, []>("op_808_pad_0"), val = tensor<int32, [4]>([0, 0, 0, 0])];
            tensor<int32, [2]> var_808_dilations_0 = const()[name = tensor<string, []>("op_808_dilations_0"), val = tensor<int32, [2]>([1, 1])];
            tensor<int32, []> var_808_groups_0 = const()[name = tensor<string, []>("op_808_groups_0"), val = tensor<int32, []>(1)];
            tensor<fp16, [384, 384, 1, 1]> blocks_2_attn_out_weight_to_fp16 = const()[name = tensor<string, []>("blocks_2_attn_out_weight_to_fp16"), val = tensor<fp16, [384, 384, 1, 1]>(BLOBFILE(path = tensor<string, []>("@model_path/weights/weight.bin"), offset = tensor<uint64, []>(50206784)))];
            tensor<fp16, [384]> blocks_2_attn_out_bias_to_fp16 = const()[name = tensor<string, []>("blocks_2_attn_out_bias_to_fp16"), val = tensor<fp16, [384]>(BLOBFILE(path = tensor<string, []>("@model_path/weights/weight.bin"), offset = tensor<uint64, []>(50501760)))];
            tensor<fp16, [1, 384, 1, 24]> var_808_cast_fp16 = conv(bias = blocks_2_attn_out_bias_to_fp16, dilations = var_808_dilations_0, groups = var_808_groups_0, pad = var_808_pad_0, pad_type = var_808_pad_type_0, strides = var_808_strides_0, weight = blocks_2_attn_out_weight_to_fp16, x = input_33_cast_fp16)[name = tensor<string, []>("op_808_cast_fp16")];
            tensor<fp16, [1, 384, 1, 24]> inputs_15_cast_fp16 = add(x = inputs_13_cast_fp16, y = var_808_cast_fp16)[name = tensor<string, []>("inputs_15_cast_fp16")];
            tensor<int32, [1]> input_35_axes_0 = const()[name = tensor<string, []>("input_35_axes_0"), val = tensor<int32, [1]>([1])];
            tensor<fp16, [384]> input_35_gamma_0_to_fp16 = const()[name = tensor<string, []>("input_35_gamma_0_to_fp16"), val = tensor<fp16, [384]>(BLOBFILE(path = tensor<string, []>("@model_path/weights/weight.bin"), offset = tensor<uint64, []>(50502592)))];
            tensor<fp16, [384]> input_35_beta_0_to_fp16 = const()[name = tensor<string, []>("input_35_beta_0_to_fp16"), val = tensor<fp16, [384]>(BLOBFILE(path = tensor<string, []>("@model_path/weights/weight.bin"), offset = tensor<uint64, []>(50503424)))];
            tensor<fp16, []> var_818_to_fp16 = const()[name = tensor<string, []>("op_818_to_fp16"), val = tensor<fp16, []>(0x1.5p-17)];
            tensor<fp16, [1, 384, 1, 24]> input_35_cast_fp16 = layer_norm(axes = input_35_axes_0, beta = input_35_beta_0_to_fp16, epsilon = var_818_to_fp16, gamma = input_35_gamma_0_to_fp16, x = inputs_15_cast_fp16)[name = tensor<string, []>("input_35_cast_fp16")];
            tensor<string, []> q_11_pad_type_0 = const()[name = tensor<string, []>("q_11_pad_type_0"), val = tensor<string, []>("valid")];
            tensor<int32, [2]> q_11_strides_0 = const()[name = tensor<string, []>("q_11_strides_0"), val = tensor<int32, [2]>([1, 1])];
            tensor<int32, [4]> q_11_pad_0 = const()[name = tensor<string, []>("q_11_pad_0"), val = tensor<int32, [4]>([0, 0, 0, 0])];
            tensor<int32, [2]> q_11_dilations_0 = const()[name = tensor<string, []>("q_11_dilations_0"), val = tensor<int32, [2]>([1, 1])];
            tensor<int32, []> q_11_groups_0 = const()[name = tensor<string, []>("q_11_groups_0"), val = tensor<int32, []>(1)];
            tensor<fp16, [384, 384, 1, 1]> var_853_weight_0_to_fp16 = const()[name = tensor<string, []>("op_853_weight_0_to_fp16"), val = tensor<fp16, [384, 384, 1, 1]>(BLOBFILE(path = tensor<string, []>("@model_path/weights/weight.bin"), offset = tensor<uint64, []>(50504256)))];
            tensor<fp16, [384]> var_853_bias_0_to_fp16 = const()[name = tensor<string, []>("op_853_bias_0_to_fp16"), val = tensor<fp16, [384]>(BLOBFILE(path = tensor<string, []>("@model_path/weights/weight.bin"), offset = tensor<uint64, []>(50799232)))];
            tensor<fp16, [1, 384, 1, 24]> var_853_cast_fp16 = conv(bias = var_853_bias_0_to_fp16, dilations = q_11_dilations_0, groups = q_11_groups_0, pad = q_11_pad_0, pad_type = q_11_pad_type_0, strides = q_11_strides_0, weight = var_853_weight_0_to_fp16, x = input_35_cast_fp16)[name = tensor<string, []>("op_853_cast_fp16")];
            tensor<string, []> k_11_pad_type_0 = const()[name = tensor<string, []>("k_11_pad_type_0"), val = tensor<string, []>("valid")];
            tensor<int32, [2]> k_11_strides_0 = const()[name = tensor<string, []>("k_11_strides_0"), val = tensor<int32, [2]>([1, 1])];
            tensor<int32, [4]> k_11_pad_0 = const()[name = tensor<string, []>("k_11_pad_0"), val = tensor<int32, [4]>([0, 0, 0, 0])];
            tensor<int32, [2]> k_11_dilations_0 = const()[name = tensor<string, []>("k_11_dilations_0"), val = tensor<int32, [2]>([1, 1])];
            tensor<int32, []> k_11_groups_0 = const()[name = tensor<string, []>("k_11_groups_0"), val = tensor<int32, []>(1)];
            tensor<fp16, [384, 384, 1, 1]> blocks_2_cross_attn_key_weight_to_fp16 = const()[name = tensor<string, []>("blocks_2_cross_attn_key_weight_to_fp16"), val = tensor<fp16, [384, 384, 1, 1]>(BLOBFILE(path = tensor<string, []>("@model_path/weights/weight.bin"), offset = tensor<uint64, []>(50800064)))];
            tensor<fp16, [1, 384, 1, 1500]> k_11_cast_fp16 = conv(dilations = k_11_dilations_0, groups = k_11_groups_0, pad = k_11_pad_0, pad_type = k_11_pad_type_0, strides = k_11_strides_0, weight = blocks_2_cross_attn_key_weight_to_fp16, x = input_7_cast_fp16)[name = tensor<string, []>("k_11_cast_fp16")];
            tensor<string, []> var_851_pad_type_0 = const()[name = tensor<string, []>("op_851_pad_type_0"), val = tensor<string, []>("valid")];
            tensor<int32, [2]> var_851_strides_0 = const()[name = tensor<string, []>("op_851_strides_0"), val = tensor<int32, [2]>([1, 1])];
            tensor<int32, [4]> var_851_pad_0 = const()[name = tensor<string, []>("op_851_pad_0"), val = tensor<int32, [4]>([0, 0, 0, 0])];
            tensor<int32, [2]> var_851_dilations_0 = const()[name = tensor<string, []>("op_851_dilations_0"), val = tensor<int32, [2]>([1, 1])];
            tensor<int32, []> var_851_groups_0 = const()[name = tensor<string, []>("op_851_groups_0"), val = tensor<int32, []>(1)];
            tensor<fp16, [384, 384, 1, 1]> blocks_2_cross_attn_value_weight_to_fp16 = const()[name = tensor<string, []>("blocks_2_cross_attn_value_weight_to_fp16"), val = tensor<fp16, [384, 384, 1, 1]>(BLOBFILE(path = tensor<string, []>("@model_path/weights/weight.bin"), offset = tensor<uint64, []>(51095040)))];
            tensor<fp16, [384]> blocks_2_cross_attn_value_bias_to_fp16 = const()[name = tensor<string, []>("blocks_2_cross_attn_value_bias_to_fp16"), val = tensor<fp16, [384]>(BLOBFILE(path = tensor<string, []>("@model_path/weights/weight.bin"), offset = tensor<uint64, []>(51390016)))];
            tensor<fp16, [1, 384, 1, 1500]> var_851_cast_fp16 = conv(bias = blocks_2_cross_attn_value_bias_to_fp16, dilations = var_851_dilations_0, groups = var_851_groups_0, pad = var_851_pad_0, pad_type = var_851_pad_type_0, strides = var_851_strides_0, weight = blocks_2_cross_attn_value_weight_to_fp16, x = input_7_cast_fp16)[name = tensor<string, []>("op_851_cast_fp16")];
            tensor<int32, [6]> tile_15 = const()[name = tensor<string, []>("tile_15"), val = tensor<int32, [6]>([64, 64, 64, 64, 64, 64])];
            tensor<int32, []> var_854_axis_0 = const()[name = tensor<string, []>("op_854_axis_0"), val = tensor<int32, []>(1)];
            tensor<fp16, [1, 64, 1, 24]> var_854_cast_fp16_0, tensor<fp16, [1, 64, 1, 24]> var_854_cast_fp16_1, tensor<fp16, [1, 64, 1, 24]> var_854_cast_fp16_2, tensor<fp16, [1, 64, 1, 24]> var_854_cast_fp16_3, tensor<fp16, [1, 64, 1, 24]> var_854_cast_fp16_4, tensor<fp16, [1, 64, 1, 24]> var_854_cast_fp16_5 = split(axis = var_854_axis_0, split_sizes = tile_15, x = var_853_cast_fp16)[name = tensor<string, []>("op_854_cast_fp16")];
            tensor<int32, [4]> var_861_perm_0 = const()[name = tensor<string, []>("op_861_perm_0"), val = tensor<int32, [4]>([0, 3, 2, 1])];
            tensor<int32, [6]> tile_16 = const()[name = tensor<string, []>("tile_16"), val = tensor<int32, [6]>([64, 64, 64, 64, 64, 64])];
            tensor<int32, []> var_862_axis_0 = const()[name = tensor<string, []>("op_862_axis_0"), val = tensor<int32, []>(3)];
            tensor<fp16, [1, 1500, 1, 384]> var_861_cast_fp16 = transpose(perm = var_861_perm_0, x = k_11_cast_fp16)[name = tensor<string, []>("transpose_4")];
            tensor<fp16, [1, 1500, 1, 64]> var_862_cast_fp16_0, tensor<fp16, [1, 1500, 1, 64]> var_862_cast_fp16_1, tensor<fp16, [1, 1500, 1, 64]> var_862_cast_fp16_2, tensor<fp16, [1, 1500, 1, 64]> var_862_cast_fp16_3, tensor<fp16, [1, 1500, 1, 64]> var_862_cast_fp16_4, tensor<fp16, [1, 1500, 1, 64]> var_862_cast_fp16_5 = split(axis = var_862_axis_0, split_sizes = tile_16, x = var_861_cast_fp16)[name = tensor<string, []>("op_862_cast_fp16")];
            tensor<int32, [6]> tile_17 = const()[name = tensor<string, []>("tile_17"), val = tensor<int32, [6]>([64, 64, 64, 64, 64, 64])];
            tensor<int32, []> var_869_axis_0 = const()[name = tensor<string, []>("op_869_axis_0"), val = tensor<int32, []>(1)];
            tensor<fp16, [1, 64, 1, 1500]> var_869_cast_fp16_0, tensor<fp16, [1, 64, 1, 1500]> var_869_cast_fp16_1, tensor<fp16, [1, 64, 1, 1500]> var_869_cast_fp16_2, tensor<fp16, [1, 64, 1, 1500]> var_869_cast_fp16_3, tensor<fp16, [1, 64, 1, 1500]> var_869_cast_fp16_4, tensor<fp16, [1, 64, 1, 1500]> var_869_cast_fp16_5 = split(axis = var_869_axis_0, split_sizes = tile_17, x = var_851_cast_fp16)[name = tensor<string, []>("op_869_cast_fp16")];
            tensor<string, []> aw_61_equation_0 = const()[name = tensor<string, []>("aw_61_equation_0"), val = tensor<string, []>("bkhc,bchq->bkhq")];
            tensor<fp16, [1, 1500, 1, 24]> aw_61_cast_fp16 = einsum(equation = aw_61_equation_0, values = (var_862_cast_fp16_0, var_854_cast_fp16_0))[name = tensor<string, []>("aw_61_cast_fp16")];
            tensor<string, []> aw_63_equation_0 = const()[name = tensor<string, []>("aw_63_equation_0"), val = tensor<string, []>("bkhc,bchq->bkhq")];
            tensor<fp16, [1, 1500, 1, 24]> aw_63_cast_fp16 = einsum(equation = aw_63_equation_0, values = (var_862_cast_fp16_1, var_854_cast_fp16_1))[name = tensor<string, []>("aw_63_cast_fp16")];
            tensor<string, []> aw_65_equation_0 = const()[name = tensor<string, []>("aw_65_equation_0"), val = tensor<string, []>("bkhc,bchq->bkhq")];
            tensor<fp16, [1, 1500, 1, 24]> aw_65_cast_fp16 = einsum(equation = aw_65_equation_0, values = (var_862_cast_fp16_2, var_854_cast_fp16_2))[name = tensor<string, []>("aw_65_cast_fp16")];
            tensor<string, []> aw_67_equation_0 = const()[name = tensor<string, []>("aw_67_equation_0"), val = tensor<string, []>("bkhc,bchq->bkhq")];
            tensor<fp16, [1, 1500, 1, 24]> aw_67_cast_fp16 = einsum(equation = aw_67_equation_0, values = (var_862_cast_fp16_3, var_854_cast_fp16_3))[name = tensor<string, []>("aw_67_cast_fp16")];
            tensor<string, []> aw_69_equation_0 = const()[name = tensor<string, []>("aw_69_equation_0"), val = tensor<string, []>("bkhc,bchq->bkhq")];
            tensor<fp16, [1, 1500, 1, 24]> aw_69_cast_fp16 = einsum(equation = aw_69_equation_0, values = (var_862_cast_fp16_4, var_854_cast_fp16_4))[name = tensor<string, []>("aw_69_cast_fp16")];
            tensor<string, []> aw_71_equation_0 = const()[name = tensor<string, []>("aw_71_equation_0"), val = tensor<string, []>("bkhc,bchq->bkhq")];
            tensor<fp16, [1, 1500, 1, 24]> aw_71_cast_fp16 = einsum(equation = aw_71_equation_0, values = (var_862_cast_fp16_5, var_854_cast_fp16_5))[name = tensor<string, []>("aw_71_cast_fp16")];
            tensor<fp16, [1, 1500, 1, 24]> var_888_cast_fp16 = softmax(axis = var_663, x = aw_61_cast_fp16)[name = tensor<string, []>("op_888_cast_fp16")];
            tensor<fp16, [1, 1500, 1, 24]> var_889_cast_fp16 = softmax(axis = var_663, x = aw_63_cast_fp16)[name = tensor<string, []>("op_889_cast_fp16")];
            tensor<fp16, [1, 1500, 1, 24]> var_890_cast_fp16 = softmax(axis = var_663, x = aw_65_cast_fp16)[name = tensor<string, []>("op_890_cast_fp16")];
            tensor<fp16, [1, 1500, 1, 24]> var_891_cast_fp16 = softmax(axis = var_663, x = aw_67_cast_fp16)[name = tensor<string, []>("op_891_cast_fp16")];
            tensor<fp16, [1, 1500, 1, 24]> var_892_cast_fp16 = softmax(axis = var_663, x = aw_69_cast_fp16)[name = tensor<string, []>("op_892_cast_fp16")];
            tensor<fp16, [1, 1500, 1, 24]> var_893_cast_fp16 = softmax(axis = var_663, x = aw_71_cast_fp16)[name = tensor<string, []>("op_893_cast_fp16")];
            tensor<string, []> var_895_equation_0 = const()[name = tensor<string, []>("op_895_equation_0"), val = tensor<string, []>("bchk,bkhq->bchq")];
            tensor<fp16, [1, 64, 1, 24]> var_895_cast_fp16 = einsum(equation = var_895_equation_0, values = (var_869_cast_fp16_0, var_888_cast_fp16))[name = tensor<string, []>("op_895_cast_fp16")];
            tensor<string, []> var_897_equation_0 = const()[name = tensor<string, []>("op_897_equation_0"), val = tensor<string, []>("bchk,bkhq->bchq")];
            tensor<fp16, [1, 64, 1, 24]> var_897_cast_fp16 = einsum(equation = var_897_equation_0, values = (var_869_cast_fp16_1, var_889_cast_fp16))[name = tensor<string, []>("op_897_cast_fp16")];
            tensor<string, []> var_899_equation_0 = const()[name = tensor<string, []>("op_899_equation_0"), val = tensor<string, []>("bchk,bkhq->bchq")];
            tensor<fp16, [1, 64, 1, 24]> var_899_cast_fp16 = einsum(equation = var_899_equation_0, values = (var_869_cast_fp16_2, var_890_cast_fp16))[name = tensor<string, []>("op_899_cast_fp16")];
            tensor<string, []> var_901_equation_0 = const()[name = tensor<string, []>("op_901_equation_0"), val = tensor<string, []>("bchk,bkhq->bchq")];
            tensor<fp16, [1, 64, 1, 24]> var_901_cast_fp16 = einsum(equation = var_901_equation_0, values = (var_869_cast_fp16_3, var_891_cast_fp16))[name = tensor<string, []>("op_901_cast_fp16")];
            tensor<string, []> var_903_equation_0 = const()[name = tensor<string, []>("op_903_equation_0"), val = tensor<string, []>("bchk,bkhq->bchq")];
            tensor<fp16, [1, 64, 1, 24]> var_903_cast_fp16 = einsum(equation = var_903_equation_0, values = (var_869_cast_fp16_4, var_892_cast_fp16))[name = tensor<string, []>("op_903_cast_fp16")];
            tensor<string, []> var_905_equation_0 = const()[name = tensor<string, []>("op_905_equation_0"), val = tensor<string, []>("bchk,bkhq->bchq")];
            tensor<fp16, [1, 64, 1, 24]> var_905_cast_fp16 = einsum(equation = var_905_equation_0, values = (var_869_cast_fp16_5, var_893_cast_fp16))[name = tensor<string, []>("op_905_cast_fp16")];
            tensor<bool, []> input_37_interleave_0 = const()[name = tensor<string, []>("input_37_interleave_0"), val = tensor<bool, []>(false)];
            tensor<fp16, [1, 384, 1, 24]> input_37_cast_fp16 = concat(axis = var_663, interleave = input_37_interleave_0, values = (var_895_cast_fp16, var_897_cast_fp16, var_899_cast_fp16, var_901_cast_fp16, var_903_cast_fp16, var_905_cast_fp16))[name = tensor<string, []>("input_37_cast_fp16")];
            tensor<string, []> var_914_pad_type_0 = const()[name = tensor<string, []>("op_914_pad_type_0"), val = tensor<string, []>("valid")];
            tensor<int32, [2]> var_914_strides_0 = const()[name = tensor<string, []>("op_914_strides_0"), val = tensor<int32, [2]>([1, 1])];
            tensor<int32, [4]> var_914_pad_0 = const()[name = tensor<string, []>("op_914_pad_0"), val = tensor<int32, [4]>([0, 0, 0, 0])];
            tensor<int32, [2]> var_914_dilations_0 = const()[name = tensor<string, []>("op_914_dilations_0"), val = tensor<int32, [2]>([1, 1])];
            tensor<int32, []> var_914_groups_0 = const()[name = tensor<string, []>("op_914_groups_0"), val = tensor<int32, []>(1)];
            tensor<fp16, [384, 384, 1, 1]> blocks_2_cross_attn_out_weight_to_fp16 = const()[name = tensor<string, []>("blocks_2_cross_attn_out_weight_to_fp16"), val = tensor<fp16, [384, 384, 1, 1]>(BLOBFILE(path = tensor<string, []>("@model_path/weights/weight.bin"), offset = tensor<uint64, []>(51390848)))];
            tensor<fp16, [384]> blocks_2_cross_attn_out_bias_to_fp16 = const()[name = tensor<string, []>("blocks_2_cross_attn_out_bias_to_fp16"), val = tensor<fp16, [384]>(BLOBFILE(path = tensor<string, []>("@model_path/weights/weight.bin"), offset = tensor<uint64, []>(51685824)))];
            tensor<fp16, [1, 384, 1, 24]> var_914_cast_fp16 = conv(bias = blocks_2_cross_attn_out_bias_to_fp16, dilations = var_914_dilations_0, groups = var_914_groups_0, pad = var_914_pad_0, pad_type = var_914_pad_type_0, strides = var_914_strides_0, weight = blocks_2_cross_attn_out_weight_to_fp16, x = input_37_cast_fp16)[name = tensor<string, []>("op_914_cast_fp16")];
            tensor<fp16, [1, 384, 1, 24]> inputs_17_cast_fp16 = add(x = inputs_15_cast_fp16, y = var_914_cast_fp16)[name = tensor<string, []>("inputs_17_cast_fp16")];
            tensor<int32, [1]> input_39_axes_0 = const()[name = tensor<string, []>("input_39_axes_0"), val = tensor<int32, [1]>([1])];
            tensor<fp16, [384]> input_39_gamma_0_to_fp16 = const()[name = tensor<string, []>("input_39_gamma_0_to_fp16"), val = tensor<fp16, [384]>(BLOBFILE(path = tensor<string, []>("@model_path/weights/weight.bin"), offset = tensor<uint64, []>(51686656)))];
            tensor<fp16, [384]> input_39_beta_0_to_fp16 = const()[name = tensor<string, []>("input_39_beta_0_to_fp16"), val = tensor<fp16, [384]>(BLOBFILE(path = tensor<string, []>("@model_path/weights/weight.bin"), offset = tensor<uint64, []>(51687488)))];
            tensor<fp16, []> var_924_to_fp16 = const()[name = tensor<string, []>("op_924_to_fp16"), val = tensor<fp16, []>(0x1.5p-17)];
            tensor<fp16, [1, 384, 1, 24]> input_39_cast_fp16 = layer_norm(axes = input_39_axes_0, beta = input_39_beta_0_to_fp16, epsilon = var_924_to_fp16, gamma = input_39_gamma_0_to_fp16, x = inputs_17_cast_fp16)[name = tensor<string, []>("input_39_cast_fp16")];
            tensor<string, []> input_41_pad_type_0 = const()[name = tensor<string, []>("input_41_pad_type_0"), val = tensor<string, []>("valid")];
            tensor<int32, [2]> input_41_strides_0 = const()[name = tensor<string, []>("input_41_strides_0"), val = tensor<int32, [2]>([1, 1])];
            tensor<int32, [4]> input_41_pad_0 = const()[name = tensor<string, []>("input_41_pad_0"), val = tensor<int32, [4]>([0, 0, 0, 0])];
            tensor<int32, [2]> input_41_dilations_0 = const()[name = tensor<string, []>("input_41_dilations_0"), val = tensor<int32, [2]>([1, 1])];
            tensor<int32, []> input_41_groups_0 = const()[name = tensor<string, []>("input_41_groups_0"), val = tensor<int32, []>(1)];
            tensor<fp16, [1536, 384, 1, 1]> blocks_2_mlp_0_weight_to_fp16 = const()[name = tensor<string, []>("blocks_2_mlp_0_weight_to_fp16"), val = tensor<fp16, [1536, 384, 1, 1]>(BLOBFILE(path = tensor<string, []>("@model_path/weights/weight.bin"), offset = tensor<uint64, []>(51688320)))];
            tensor<fp16, [1536]> blocks_2_mlp_0_bias_to_fp16 = const()[name = tensor<string, []>("blocks_2_mlp_0_bias_to_fp16"), val = tensor<fp16, [1536]>(BLOBFILE(path = tensor<string, []>("@model_path/weights/weight.bin"), offset = tensor<uint64, []>(52868032)))];
            tensor<fp16, [1, 1536, 1, 24]> input_41_cast_fp16 = conv(bias = blocks_2_mlp_0_bias_to_fp16, dilations = input_41_dilations_0, groups = input_41_groups_0, pad = input_41_pad_0, pad_type = input_41_pad_type_0, strides = input_41_strides_0, weight = blocks_2_mlp_0_weight_to_fp16, x = input_39_cast_fp16)[name = tensor<string, []>("input_41_cast_fp16")];
            tensor<string, []> input_43_mode_0 = const()[name = tensor<string, []>("input_43_mode_0"), val = tensor<string, []>("EXACT")];
            tensor<fp16, [1, 1536, 1, 24]> input_43_cast_fp16 = gelu(mode = input_43_mode_0, x = input_41_cast_fp16)[name = tensor<string, []>("input_43_cast_fp16")];
            tensor<string, []> var_950_pad_type_0 = const()[name = tensor<string, []>("op_950_pad_type_0"), val = tensor<string, []>("valid")];
            tensor<int32, [2]> var_950_strides_0 = const()[name = tensor<string, []>("op_950_strides_0"), val = tensor<int32, [2]>([1, 1])];
            tensor<int32, [4]> var_950_pad_0 = const()[name = tensor<string, []>("op_950_pad_0"), val = tensor<int32, [4]>([0, 0, 0, 0])];
            tensor<int32, [2]> var_950_dilations_0 = const()[name = tensor<string, []>("op_950_dilations_0"), val = tensor<int32, [2]>([1, 1])];
            tensor<int32, []> var_950_groups_0 = const()[name = tensor<string, []>("op_950_groups_0"), val = tensor<int32, []>(1)];
            tensor<fp16, [384, 1536, 1, 1]> blocks_2_mlp_2_weight_to_fp16 = const()[name = tensor<string, []>("blocks_2_mlp_2_weight_to_fp16"), val = tensor<fp16, [384, 1536, 1, 1]>(BLOBFILE(path = tensor<string, []>("@model_path/weights/weight.bin"), offset = tensor<uint64, []>(52871168)))];
            tensor<fp16, [384]> blocks_2_mlp_2_bias_to_fp16 = const()[name = tensor<string, []>("blocks_2_mlp_2_bias_to_fp16"), val = tensor<fp16, [384]>(BLOBFILE(path = tensor<string, []>("@model_path/weights/weight.bin"), offset = tensor<uint64, []>(54050880)))];
            tensor<fp16, [1, 384, 1, 24]> var_950_cast_fp16 = conv(bias = blocks_2_mlp_2_bias_to_fp16, dilations = var_950_dilations_0, groups = var_950_groups_0, pad = var_950_pad_0, pad_type = var_950_pad_type_0, strides = var_950_strides_0, weight = blocks_2_mlp_2_weight_to_fp16, x = input_43_cast_fp16)[name = tensor<string, []>("op_950_cast_fp16")];
            tensor<fp16, [1, 384, 1, 24]> inputs_19_cast_fp16 = add(x = inputs_17_cast_fp16, y = var_950_cast_fp16)[name = tensor<string, []>("inputs_19_cast_fp16")];
            tensor<int32, []> var_961 = const()[name = tensor<string, []>("op_961"), val = tensor<int32, []>(1)];
            tensor<int32, [1]> input_45_axes_0 = const()[name = tensor<string, []>("input_45_axes_0"), val = tensor<int32, [1]>([1])];
            tensor<fp16, [384]> input_45_gamma_0_to_fp16 = const()[name = tensor<string, []>("input_45_gamma_0_to_fp16"), val = tensor<fp16, [384]>(BLOBFILE(path = tensor<string, []>("@model_path/weights/weight.bin"), offset = tensor<uint64, []>(54051712)))];
            tensor<fp16, [384]> input_45_beta_0_to_fp16 = const()[name = tensor<string, []>("input_45_beta_0_to_fp16"), val = tensor<fp16, [384]>(BLOBFILE(path = tensor<string, []>("@model_path/weights/weight.bin"), offset = tensor<uint64, []>(54052544)))];
            tensor<fp16, []> var_979_to_fp16 = const()[name = tensor<string, []>("op_979_to_fp16"), val = tensor<fp16, []>(0x1.5p-17)];
            tensor<fp16, [1, 384, 1, 24]> input_45_cast_fp16 = layer_norm(axes = input_45_axes_0, beta = input_45_beta_0_to_fp16, epsilon = var_979_to_fp16, gamma = input_45_gamma_0_to_fp16, x = inputs_19_cast_fp16)[name = tensor<string, []>("input_45_cast_fp16")];
            tensor<string, []> q_13_pad_type_0 = const()[name = tensor<string, []>("q_13_pad_type_0"), val = tensor<string, []>("valid")];
            tensor<int32, [2]> q_13_strides_0 = const()[name = tensor<string, []>("q_13_strides_0"), val = tensor<int32, [2]>([1, 1])];
            tensor<int32, [4]> q_13_pad_0 = const()[name = tensor<string, []>("q_13_pad_0"), val = tensor<int32, [4]>([0, 0, 0, 0])];
            tensor<int32, [2]> q_13_dilations_0 = const()[name = tensor<string, []>("q_13_dilations_0"), val = tensor<int32, [2]>([1, 1])];
            tensor<int32, []> q_13_groups_0 = const()[name = tensor<string, []>("q_13_groups_0"), val = tensor<int32, []>(1)];
            tensor<fp16, [384, 384, 1, 1]> var_1015_weight_0_to_fp16 = const()[name = tensor<string, []>("op_1015_weight_0_to_fp16"), val = tensor<fp16, [384, 384, 1, 1]>(BLOBFILE(path = tensor<string, []>("@model_path/weights/weight.bin"), offset = tensor<uint64, []>(54053376)))];
            tensor<fp16, [384]> var_1015_bias_0_to_fp16 = const()[name = tensor<string, []>("op_1015_bias_0_to_fp16"), val = tensor<fp16, [384]>(BLOBFILE(path = tensor<string, []>("@model_path/weights/weight.bin"), offset = tensor<uint64, []>(54348352)))];
            tensor<fp16, [1, 384, 1, 24]> var_1015_cast_fp16 = conv(bias = var_1015_bias_0_to_fp16, dilations = q_13_dilations_0, groups = q_13_groups_0, pad = q_13_pad_0, pad_type = q_13_pad_type_0, strides = q_13_strides_0, weight = var_1015_weight_0_to_fp16, x = input_45_cast_fp16)[name = tensor<string, []>("op_1015_cast_fp16")];
            tensor<string, []> k_13_pad_type_0 = const()[name = tensor<string, []>("k_13_pad_type_0"), val = tensor<string, []>("valid")];
            tensor<int32, [2]> k_13_strides_0 = const()[name = tensor<string, []>("k_13_strides_0"), val = tensor<int32, [2]>([1, 1])];
            tensor<int32, [4]> k_13_pad_0 = const()[name = tensor<string, []>("k_13_pad_0"), val = tensor<int32, [4]>([0, 0, 0, 0])];
            tensor<int32, [2]> k_13_dilations_0 = const()[name = tensor<string, []>("k_13_dilations_0"), val = tensor<int32, [2]>([1, 1])];
            tensor<int32, []> k_13_groups_0 = const()[name = tensor<string, []>("k_13_groups_0"), val = tensor<int32, []>(1)];
            tensor<fp16, [384, 384, 1, 1]> blocks_3_attn_key_weight_to_fp16 = const()[name = tensor<string, []>("blocks_3_attn_key_weight_to_fp16"), val = tensor<fp16, [384, 384, 1, 1]>(BLOBFILE(path = tensor<string, []>("@model_path/weights/weight.bin"), offset = tensor<uint64, []>(54349184)))];
            tensor<fp16, [1, 384, 1, 24]> k_13_cast_fp16 = conv(dilations = k_13_dilations_0, groups = k_13_groups_0, pad = k_13_pad_0, pad_type = k_13_pad_type_0, strides = k_13_strides_0, weight = blocks_3_attn_key_weight_to_fp16, x = input_45_cast_fp16)[name = tensor<string, []>("k_13_cast_fp16")];
            tensor<string, []> var_1012_pad_type_0 = const()[name = tensor<string, []>("op_1012_pad_type_0"), val = tensor<string, []>("valid")];
            tensor<int32, [2]> var_1012_strides_0 = const()[name = tensor<string, []>("op_1012_strides_0"), val = tensor<int32, [2]>([1, 1])];
            tensor<int32, [4]> var_1012_pad_0 = const()[name = tensor<string, []>("op_1012_pad_0"), val = tensor<int32, [4]>([0, 0, 0, 0])];
            tensor<int32, [2]> var_1012_dilations_0 = const()[name = tensor<string, []>("op_1012_dilations_0"), val = tensor<int32, [2]>([1, 1])];
            tensor<int32, []> var_1012_groups_0 = const()[name = tensor<string, []>("op_1012_groups_0"), val = tensor<int32, []>(1)];
            tensor<fp16, [384, 384, 1, 1]> blocks_3_attn_value_weight_to_fp16 = const()[name = tensor<string, []>("blocks_3_attn_value_weight_to_fp16"), val = tensor<fp16, [384, 384, 1, 1]>(BLOBFILE(path = tensor<string, []>("@model_path/weights/weight.bin"), offset = tensor<uint64, []>(54644160)))];
            tensor<fp16, [384]> blocks_3_attn_value_bias_to_fp16 = const()[name = tensor<string, []>("blocks_3_attn_value_bias_to_fp16"), val = tensor<fp16, [384]>(BLOBFILE(path = tensor<string, []>("@model_path/weights/weight.bin"), offset = tensor<uint64, []>(54939136)))];
            tensor<fp16, [1, 384, 1, 24]> var_1012_cast_fp16 = conv(bias = blocks_3_attn_value_bias_to_fp16, dilations = var_1012_dilations_0, groups = var_1012_groups_0, pad = var_1012_pad_0, pad_type = var_1012_pad_type_0, strides = var_1012_strides_0, weight = blocks_3_attn_value_weight_to_fp16, x = input_45_cast_fp16)[name = tensor<string, []>("op_1012_cast_fp16")];
            tensor<int32, [6]> tile_18 = const()[name = tensor<string, []>("tile_18"), val = tensor<int32, [6]>([64, 64, 64, 64, 64, 64])];
            tensor<int32, []> var_1016_axis_0 = const()[name = tensor<string, []>("op_1016_axis_0"), val = tensor<int32, []>(1)];
            tensor<fp16, [1, 64, 1, 24]> var_1016_cast_fp16_0, tensor<fp16, [1, 64, 1, 24]> var_1016_cast_fp16_1, tensor<fp16, [1, 64, 1, 24]> var_1016_cast_fp16_2, tensor<fp16, [1, 64, 1, 24]> var_1016_cast_fp16_3, tensor<fp16, [1, 64, 1, 24]> var_1016_cast_fp16_4, tensor<fp16, [1, 64, 1, 24]> var_1016_cast_fp16_5 = split(axis = var_1016_axis_0, split_sizes = tile_18, x = var_1015_cast_fp16)[name = tensor<string, []>("op_1016_cast_fp16")];
            tensor<int32, [4]> var_1023_perm_0 = const()[name = tensor<string, []>("op_1023_perm_0"), val = tensor<int32, [4]>([0, 3, 2, 1])];
            tensor<int32, [6]> tile_19 = const()[name = tensor<string, []>("tile_19"), val = tensor<int32, [6]>([64, 64, 64, 64, 64, 64])];
            tensor<int32, []> var_1024_axis_0 = const()[name = tensor<string, []>("op_1024_axis_0"), val = tensor<int32, []>(3)];
            tensor<fp16, [1, 24, 1, 384]> var_1023_cast_fp16 = transpose(perm = var_1023_perm_0, x = k_13_cast_fp16)[name = tensor<string, []>("transpose_3")];
            tensor<fp16, [1, 24, 1, 64]> var_1024_cast_fp16_0, tensor<fp16, [1, 24, 1, 64]> var_1024_cast_fp16_1, tensor<fp16, [1, 24, 1, 64]> var_1024_cast_fp16_2, tensor<fp16, [1, 24, 1, 64]> var_1024_cast_fp16_3, tensor<fp16, [1, 24, 1, 64]> var_1024_cast_fp16_4, tensor<fp16, [1, 24, 1, 64]> var_1024_cast_fp16_5 = split(axis = var_1024_axis_0, split_sizes = tile_19, x = var_1023_cast_fp16)[name = tensor<string, []>("op_1024_cast_fp16")];
            tensor<int32, [6]> tile_20 = const()[name = tensor<string, []>("tile_20"), val = tensor<int32, [6]>([64, 64, 64, 64, 64, 64])];
            tensor<int32, []> var_1031_axis_0 = const()[name = tensor<string, []>("op_1031_axis_0"), val = tensor<int32, []>(1)];
            tensor<fp16, [1, 64, 1, 24]> var_1031_cast_fp16_0, tensor<fp16, [1, 64, 1, 24]> var_1031_cast_fp16_1, tensor<fp16, [1, 64, 1, 24]> var_1031_cast_fp16_2, tensor<fp16, [1, 64, 1, 24]> var_1031_cast_fp16_3, tensor<fp16, [1, 64, 1, 24]> var_1031_cast_fp16_4, tensor<fp16, [1, 64, 1, 24]> var_1031_cast_fp16_5 = split(axis = var_1031_axis_0, split_sizes = tile_20, x = var_1012_cast_fp16)[name = tensor<string, []>("op_1031_cast_fp16")];
            tensor<string, []> var_1039_equation_0 = const()[name = tensor<string, []>("op_1039_equation_0"), val = tensor<string, []>("bkhc,bchq->bkhq")];
            tensor<fp16, [1, 24, 1, 24]> var_1039_cast_fp16 = einsum(equation = var_1039_equation_0, values = (var_1024_cast_fp16_0, var_1016_cast_fp16_0))[name = tensor<string, []>("op_1039_cast_fp16")];
            tensor<string, []> var_1041_equation_0 = const()[name = tensor<string, []>("op_1041_equation_0"), val = tensor<string, []>("bkhc,bchq->bkhq")];
            tensor<fp16, [1, 24, 1, 24]> var_1041_cast_fp16 = einsum(equation = var_1041_equation_0, values = (var_1024_cast_fp16_1, var_1016_cast_fp16_1))[name = tensor<string, []>("op_1041_cast_fp16")];
            tensor<string, []> var_1043_equation_0 = const()[name = tensor<string, []>("op_1043_equation_0"), val = tensor<string, []>("bkhc,bchq->bkhq")];
            tensor<fp16, [1, 24, 1, 24]> var_1043_cast_fp16 = einsum(equation = var_1043_equation_0, values = (var_1024_cast_fp16_2, var_1016_cast_fp16_2))[name = tensor<string, []>("op_1043_cast_fp16")];
            tensor<string, []> var_1045_equation_0 = const()[name = tensor<string, []>("op_1045_equation_0"), val = tensor<string, []>("bkhc,bchq->bkhq")];
            tensor<fp16, [1, 24, 1, 24]> var_1045_cast_fp16 = einsum(equation = var_1045_equation_0, values = (var_1024_cast_fp16_3, var_1016_cast_fp16_3))[name = tensor<string, []>("op_1045_cast_fp16")];
            tensor<string, []> var_1047_equation_0 = const()[name = tensor<string, []>("op_1047_equation_0"), val = tensor<string, []>("bkhc,bchq->bkhq")];
            tensor<fp16, [1, 24, 1, 24]> var_1047_cast_fp16 = einsum(equation = var_1047_equation_0, values = (var_1024_cast_fp16_4, var_1016_cast_fp16_4))[name = tensor<string, []>("op_1047_cast_fp16")];
            tensor<string, []> var_1049_equation_0 = const()[name = tensor<string, []>("op_1049_equation_0"), val = tensor<string, []>("bkhc,bchq->bkhq")];
            tensor<fp16, [1, 24, 1, 24]> var_1049_cast_fp16 = einsum(equation = var_1049_equation_0, values = (var_1024_cast_fp16_5, var_1016_cast_fp16_5))[name = tensor<string, []>("op_1049_cast_fp16")];
            tensor<fp16, [1, 24, 1, 24]> aw_73_cast_fp16 = add(x = var_1039_cast_fp16, y = mask_1_to_fp16)[name = tensor<string, []>("aw_73_cast_fp16")];
            tensor<fp16, [1, 24, 1, 24]> aw_75_cast_fp16 = add(x = var_1041_cast_fp16, y = mask_1_to_fp16)[name = tensor<string, []>("aw_75_cast_fp16")];
            tensor<fp16, [1, 24, 1, 24]> aw_77_cast_fp16 = add(x = var_1043_cast_fp16, y = mask_1_to_fp16)[name = tensor<string, []>("aw_77_cast_fp16")];
            tensor<fp16, [1, 24, 1, 24]> aw_79_cast_fp16 = add(x = var_1045_cast_fp16, y = mask_1_to_fp16)[name = tensor<string, []>("aw_79_cast_fp16")];
            tensor<fp16, [1, 24, 1, 24]> aw_81_cast_fp16 = add(x = var_1047_cast_fp16, y = mask_1_to_fp16)[name = tensor<string, []>("aw_81_cast_fp16")];
            tensor<fp16, [1, 24, 1, 24]> aw_83_cast_fp16 = add(x = var_1049_cast_fp16, y = mask_1_to_fp16)[name = tensor<string, []>("aw_83_cast_fp16")];
            tensor<fp16, [1, 24, 1, 24]> var_1080_cast_fp16 = softmax(axis = var_961, x = aw_73_cast_fp16)[name = tensor<string, []>("op_1080_cast_fp16")];
            tensor<fp16, [1, 24, 1, 24]> var_1081_cast_fp16 = softmax(axis = var_961, x = aw_75_cast_fp16)[name = tensor<string, []>("op_1081_cast_fp16")];
            tensor<fp16, [1, 24, 1, 24]> var_1082_cast_fp16 = softmax(axis = var_961, x = aw_77_cast_fp16)[name = tensor<string, []>("op_1082_cast_fp16")];
            tensor<fp16, [1, 24, 1, 24]> var_1083_cast_fp16 = softmax(axis = var_961, x = aw_79_cast_fp16)[name = tensor<string, []>("op_1083_cast_fp16")];
            tensor<fp16, [1, 24, 1, 24]> var_1084_cast_fp16 = softmax(axis = var_961, x = aw_81_cast_fp16)[name = tensor<string, []>("op_1084_cast_fp16")];
            tensor<fp16, [1, 24, 1, 24]> var_1085_cast_fp16 = softmax(axis = var_961, x = aw_83_cast_fp16)[name = tensor<string, []>("op_1085_cast_fp16")];
            tensor<string, []> var_1087_equation_0 = const()[name = tensor<string, []>("op_1087_equation_0"), val = tensor<string, []>("bchk,bkhq->bchq")];
            tensor<fp16, [1, 64, 1, 24]> var_1087_cast_fp16 = einsum(equation = var_1087_equation_0, values = (var_1031_cast_fp16_0, var_1080_cast_fp16))[name = tensor<string, []>("op_1087_cast_fp16")];
            tensor<string, []> var_1089_equation_0 = const()[name = tensor<string, []>("op_1089_equation_0"), val = tensor<string, []>("bchk,bkhq->bchq")];
            tensor<fp16, [1, 64, 1, 24]> var_1089_cast_fp16 = einsum(equation = var_1089_equation_0, values = (var_1031_cast_fp16_1, var_1081_cast_fp16))[name = tensor<string, []>("op_1089_cast_fp16")];
            tensor<string, []> var_1091_equation_0 = const()[name = tensor<string, []>("op_1091_equation_0"), val = tensor<string, []>("bchk,bkhq->bchq")];
            tensor<fp16, [1, 64, 1, 24]> var_1091_cast_fp16 = einsum(equation = var_1091_equation_0, values = (var_1031_cast_fp16_2, var_1082_cast_fp16))[name = tensor<string, []>("op_1091_cast_fp16")];
            tensor<string, []> var_1093_equation_0 = const()[name = tensor<string, []>("op_1093_equation_0"), val = tensor<string, []>("bchk,bkhq->bchq")];
            tensor<fp16, [1, 64, 1, 24]> var_1093_cast_fp16 = einsum(equation = var_1093_equation_0, values = (var_1031_cast_fp16_3, var_1083_cast_fp16))[name = tensor<string, []>("op_1093_cast_fp16")];
            tensor<string, []> var_1095_equation_0 = const()[name = tensor<string, []>("op_1095_equation_0"), val = tensor<string, []>("bchk,bkhq->bchq")];
            tensor<fp16, [1, 64, 1, 24]> var_1095_cast_fp16 = einsum(equation = var_1095_equation_0, values = (var_1031_cast_fp16_4, var_1084_cast_fp16))[name = tensor<string, []>("op_1095_cast_fp16")];
            tensor<string, []> var_1097_equation_0 = const()[name = tensor<string, []>("op_1097_equation_0"), val = tensor<string, []>("bchk,bkhq->bchq")];
            tensor<fp16, [1, 64, 1, 24]> var_1097_cast_fp16 = einsum(equation = var_1097_equation_0, values = (var_1031_cast_fp16_5, var_1085_cast_fp16))[name = tensor<string, []>("op_1097_cast_fp16")];
            tensor<bool, []> input_47_interleave_0 = const()[name = tensor<string, []>("input_47_interleave_0"), val = tensor<bool, []>(false)];
            tensor<fp16, [1, 384, 1, 24]> input_47_cast_fp16 = concat(axis = var_961, interleave = input_47_interleave_0, values = (var_1087_cast_fp16, var_1089_cast_fp16, var_1091_cast_fp16, var_1093_cast_fp16, var_1095_cast_fp16, var_1097_cast_fp16))[name = tensor<string, []>("input_47_cast_fp16")];
            tensor<string, []> var_1106_pad_type_0 = const()[name = tensor<string, []>("op_1106_pad_type_0"), val = tensor<string, []>("valid")];
            tensor<int32, [2]> var_1106_strides_0 = const()[name = tensor<string, []>("op_1106_strides_0"), val = tensor<int32, [2]>([1, 1])];
            tensor<int32, [4]> var_1106_pad_0 = const()[name = tensor<string, []>("op_1106_pad_0"), val = tensor<int32, [4]>([0, 0, 0, 0])];
            tensor<int32, [2]> var_1106_dilations_0 = const()[name = tensor<string, []>("op_1106_dilations_0"), val = tensor<int32, [2]>([1, 1])];
            tensor<int32, []> var_1106_groups_0 = const()[name = tensor<string, []>("op_1106_groups_0"), val = tensor<int32, []>(1)];
            tensor<fp16, [384, 384, 1, 1]> blocks_3_attn_out_weight_to_fp16 = const()[name = tensor<string, []>("blocks_3_attn_out_weight_to_fp16"), val = tensor<fp16, [384, 384, 1, 1]>(BLOBFILE(path = tensor<string, []>("@model_path/weights/weight.bin"), offset = tensor<uint64, []>(54939968)))];
            tensor<fp16, [384]> blocks_3_attn_out_bias_to_fp16 = const()[name = tensor<string, []>("blocks_3_attn_out_bias_to_fp16"), val = tensor<fp16, [384]>(BLOBFILE(path = tensor<string, []>("@model_path/weights/weight.bin"), offset = tensor<uint64, []>(55234944)))];
            tensor<fp16, [1, 384, 1, 24]> var_1106_cast_fp16 = conv(bias = blocks_3_attn_out_bias_to_fp16, dilations = var_1106_dilations_0, groups = var_1106_groups_0, pad = var_1106_pad_0, pad_type = var_1106_pad_type_0, strides = var_1106_strides_0, weight = blocks_3_attn_out_weight_to_fp16, x = input_47_cast_fp16)[name = tensor<string, []>("op_1106_cast_fp16")];
            tensor<fp16, [1, 384, 1, 24]> inputs_21_cast_fp16 = add(x = inputs_19_cast_fp16, y = var_1106_cast_fp16)[name = tensor<string, []>("inputs_21_cast_fp16")];
            tensor<int32, [1]> input_49_axes_0 = const()[name = tensor<string, []>("input_49_axes_0"), val = tensor<int32, [1]>([1])];
            tensor<fp16, [384]> input_49_gamma_0_to_fp16 = const()[name = tensor<string, []>("input_49_gamma_0_to_fp16"), val = tensor<fp16, [384]>(BLOBFILE(path = tensor<string, []>("@model_path/weights/weight.bin"), offset = tensor<uint64, []>(55235776)))];
            tensor<fp16, [384]> input_49_beta_0_to_fp16 = const()[name = tensor<string, []>("input_49_beta_0_to_fp16"), val = tensor<fp16, [384]>(BLOBFILE(path = tensor<string, []>("@model_path/weights/weight.bin"), offset = tensor<uint64, []>(55236608)))];
            tensor<fp16, []> var_1116_to_fp16 = const()[name = tensor<string, []>("op_1116_to_fp16"), val = tensor<fp16, []>(0x1.5p-17)];
            tensor<fp16, [1, 384, 1, 24]> input_49_cast_fp16 = layer_norm(axes = input_49_axes_0, beta = input_49_beta_0_to_fp16, epsilon = var_1116_to_fp16, gamma = input_49_gamma_0_to_fp16, x = inputs_21_cast_fp16)[name = tensor<string, []>("input_49_cast_fp16")];
            tensor<string, []> q_pad_type_0 = const()[name = tensor<string, []>("q_pad_type_0"), val = tensor<string, []>("valid")];
            tensor<int32, [2]> q_strides_0 = const()[name = tensor<string, []>("q_strides_0"), val = tensor<int32, [2]>([1, 1])];
            tensor<int32, [4]> q_pad_0 = const()[name = tensor<string, []>("q_pad_0"), val = tensor<int32, [4]>([0, 0, 0, 0])];
            tensor<int32, [2]> q_dilations_0 = const()[name = tensor<string, []>("q_dilations_0"), val = tensor<int32, [2]>([1, 1])];
            tensor<int32, []> q_groups_0 = const()[name = tensor<string, []>("q_groups_0"), val = tensor<int32, []>(1)];
            tensor<fp16, [384, 384, 1, 1]> var_1151_weight_0_to_fp16 = const()[name = tensor<string, []>("op_1151_weight_0_to_fp16"), val = tensor<fp16, [384, 384, 1, 1]>(BLOBFILE(path = tensor<string, []>("@model_path/weights/weight.bin"), offset = tensor<uint64, []>(55237440)))];
            tensor<fp16, [384]> var_1151_bias_0_to_fp16 = const()[name = tensor<string, []>("op_1151_bias_0_to_fp16"), val = tensor<fp16, [384]>(BLOBFILE(path = tensor<string, []>("@model_path/weights/weight.bin"), offset = tensor<uint64, []>(55532416)))];
            tensor<fp16, [1, 384, 1, 24]> var_1151_cast_fp16 = conv(bias = var_1151_bias_0_to_fp16, dilations = q_dilations_0, groups = q_groups_0, pad = q_pad_0, pad_type = q_pad_type_0, strides = q_strides_0, weight = var_1151_weight_0_to_fp16, x = input_49_cast_fp16)[name = tensor<string, []>("op_1151_cast_fp16")];
            tensor<string, []> k_pad_type_0 = const()[name = tensor<string, []>("k_pad_type_0"), val = tensor<string, []>("valid")];
            tensor<int32, [2]> k_strides_0 = const()[name = tensor<string, []>("k_strides_0"), val = tensor<int32, [2]>([1, 1])];
            tensor<int32, [4]> k_pad_0 = const()[name = tensor<string, []>("k_pad_0"), val = tensor<int32, [4]>([0, 0, 0, 0])];
            tensor<int32, [2]> k_dilations_0 = const()[name = tensor<string, []>("k_dilations_0"), val = tensor<int32, [2]>([1, 1])];
            tensor<int32, []> k_groups_0 = const()[name = tensor<string, []>("k_groups_0"), val = tensor<int32, []>(1)];
            tensor<fp16, [384, 384, 1, 1]> blocks_3_cross_attn_key_weight_to_fp16 = const()[name = tensor<string, []>("blocks_3_cross_attn_key_weight_to_fp16"), val = tensor<fp16, [384, 384, 1, 1]>(BLOBFILE(path = tensor<string, []>("@model_path/weights/weight.bin"), offset = tensor<uint64, []>(55533248)))];
            tensor<fp16, [1, 384, 1, 1500]> k_cast_fp16 = conv(dilations = k_dilations_0, groups = k_groups_0, pad = k_pad_0, pad_type = k_pad_type_0, strides = k_strides_0, weight = blocks_3_cross_attn_key_weight_to_fp16, x = input_7_cast_fp16)[name = tensor<string, []>("k_cast_fp16")];
            tensor<string, []> var_1149_pad_type_0 = const()[name = tensor<string, []>("op_1149_pad_type_0"), val = tensor<string, []>("valid")];
            tensor<int32, [2]> var_1149_strides_0 = const()[name = tensor<string, []>("op_1149_strides_0"), val = tensor<int32, [2]>([1, 1])];
            tensor<int32, [4]> var_1149_pad_0 = const()[name = tensor<string, []>("op_1149_pad_0"), val = tensor<int32, [4]>([0, 0, 0, 0])];
            tensor<int32, [2]> var_1149_dilations_0 = const()[name = tensor<string, []>("op_1149_dilations_0"), val = tensor<int32, [2]>([1, 1])];
            tensor<int32, []> var_1149_groups_0 = const()[name = tensor<string, []>("op_1149_groups_0"), val = tensor<int32, []>(1)];
            tensor<fp16, [384, 384, 1, 1]> blocks_3_cross_attn_value_weight_to_fp16 = const()[name = tensor<string, []>("blocks_3_cross_attn_value_weight_to_fp16"), val = tensor<fp16, [384, 384, 1, 1]>(BLOBFILE(path = tensor<string, []>("@model_path/weights/weight.bin"), offset = tensor<uint64, []>(55828224)))];
            tensor<fp16, [384]> blocks_3_cross_attn_value_bias_to_fp16 = const()[name = tensor<string, []>("blocks_3_cross_attn_value_bias_to_fp16"), val = tensor<fp16, [384]>(BLOBFILE(path = tensor<string, []>("@model_path/weights/weight.bin"), offset = tensor<uint64, []>(56123200)))];
            tensor<fp16, [1, 384, 1, 1500]> var_1149_cast_fp16 = conv(bias = blocks_3_cross_attn_value_bias_to_fp16, dilations = var_1149_dilations_0, groups = var_1149_groups_0, pad = var_1149_pad_0, pad_type = var_1149_pad_type_0, strides = var_1149_strides_0, weight = blocks_3_cross_attn_value_weight_to_fp16, x = input_7_cast_fp16)[name = tensor<string, []>("op_1149_cast_fp16")];
            tensor<int32, [6]> tile_21 = const()[name = tensor<string, []>("tile_21"), val = tensor<int32, [6]>([64, 64, 64, 64, 64, 64])];
            tensor<int32, []> var_1152_axis_0 = const()[name = tensor<string, []>("op_1152_axis_0"), val = tensor<int32, []>(1)];
            tensor<fp16, [1, 64, 1, 24]> var_1152_cast_fp16_0, tensor<fp16, [1, 64, 1, 24]> var_1152_cast_fp16_1, tensor<fp16, [1, 64, 1, 24]> var_1152_cast_fp16_2, tensor<fp16, [1, 64, 1, 24]> var_1152_cast_fp16_3, tensor<fp16, [1, 64, 1, 24]> var_1152_cast_fp16_4, tensor<fp16, [1, 64, 1, 24]> var_1152_cast_fp16_5 = split(axis = var_1152_axis_0, split_sizes = tile_21, x = var_1151_cast_fp16)[name = tensor<string, []>("op_1152_cast_fp16")];
            tensor<int32, [4]> var_1159_perm_0 = const()[name = tensor<string, []>("op_1159_perm_0"), val = tensor<int32, [4]>([0, 3, 2, 1])];
            tensor<int32, [6]> tile_22 = const()[name = tensor<string, []>("tile_22"), val = tensor<int32, [6]>([64, 64, 64, 64, 64, 64])];
            tensor<int32, []> var_1160_axis_0 = const()[name = tensor<string, []>("op_1160_axis_0"), val = tensor<int32, []>(3)];
            tensor<fp16, [1, 1500, 1, 384]> var_1159_cast_fp16 = transpose(perm = var_1159_perm_0, x = k_cast_fp16)[name = tensor<string, []>("transpose_2")];
            tensor<fp16, [1, 1500, 1, 64]> var_1160_cast_fp16_0, tensor<fp16, [1, 1500, 1, 64]> var_1160_cast_fp16_1, tensor<fp16, [1, 1500, 1, 64]> var_1160_cast_fp16_2, tensor<fp16, [1, 1500, 1, 64]> var_1160_cast_fp16_3, tensor<fp16, [1, 1500, 1, 64]> var_1160_cast_fp16_4, tensor<fp16, [1, 1500, 1, 64]> var_1160_cast_fp16_5 = split(axis = var_1160_axis_0, split_sizes = tile_22, x = var_1159_cast_fp16)[name = tensor<string, []>("op_1160_cast_fp16")];
            tensor<int32, [6]> tile_23 = const()[name = tensor<string, []>("tile_23"), val = tensor<int32, [6]>([64, 64, 64, 64, 64, 64])];
            tensor<int32, []> var_1167_axis_0 = const()[name = tensor<string, []>("op_1167_axis_0"), val = tensor<int32, []>(1)];
            tensor<fp16, [1, 64, 1, 1500]> var_1167_cast_fp16_0, tensor<fp16, [1, 64, 1, 1500]> var_1167_cast_fp16_1, tensor<fp16, [1, 64, 1, 1500]> var_1167_cast_fp16_2, tensor<fp16, [1, 64, 1, 1500]> var_1167_cast_fp16_3, tensor<fp16, [1, 64, 1, 1500]> var_1167_cast_fp16_4, tensor<fp16, [1, 64, 1, 1500]> var_1167_cast_fp16_5 = split(axis = var_1167_axis_0, split_sizes = tile_23, x = var_1149_cast_fp16)[name = tensor<string, []>("op_1167_cast_fp16")];
            tensor<string, []> aw_85_equation_0 = const()[name = tensor<string, []>("aw_85_equation_0"), val = tensor<string, []>("bkhc,bchq->bkhq")];
            tensor<fp16, [1, 1500, 1, 24]> aw_85_cast_fp16 = einsum(equation = aw_85_equation_0, values = (var_1160_cast_fp16_0, var_1152_cast_fp16_0))[name = tensor<string, []>("aw_85_cast_fp16")];
            tensor<string, []> aw_87_equation_0 = const()[name = tensor<string, []>("aw_87_equation_0"), val = tensor<string, []>("bkhc,bchq->bkhq")];
            tensor<fp16, [1, 1500, 1, 24]> aw_87_cast_fp16 = einsum(equation = aw_87_equation_0, values = (var_1160_cast_fp16_1, var_1152_cast_fp16_1))[name = tensor<string, []>("aw_87_cast_fp16")];
            tensor<string, []> aw_89_equation_0 = const()[name = tensor<string, []>("aw_89_equation_0"), val = tensor<string, []>("bkhc,bchq->bkhq")];
            tensor<fp16, [1, 1500, 1, 24]> aw_89_cast_fp16 = einsum(equation = aw_89_equation_0, values = (var_1160_cast_fp16_2, var_1152_cast_fp16_2))[name = tensor<string, []>("aw_89_cast_fp16")];
            tensor<string, []> aw_91_equation_0 = const()[name = tensor<string, []>("aw_91_equation_0"), val = tensor<string, []>("bkhc,bchq->bkhq")];
            tensor<fp16, [1, 1500, 1, 24]> aw_91_cast_fp16 = einsum(equation = aw_91_equation_0, values = (var_1160_cast_fp16_3, var_1152_cast_fp16_3))[name = tensor<string, []>("aw_91_cast_fp16")];
            tensor<string, []> aw_93_equation_0 = const()[name = tensor<string, []>("aw_93_equation_0"), val = tensor<string, []>("bkhc,bchq->bkhq")];
            tensor<fp16, [1, 1500, 1, 24]> aw_93_cast_fp16 = einsum(equation = aw_93_equation_0, values = (var_1160_cast_fp16_4, var_1152_cast_fp16_4))[name = tensor<string, []>("aw_93_cast_fp16")];
            tensor<string, []> aw_equation_0 = const()[name = tensor<string, []>("aw_equation_0"), val = tensor<string, []>("bkhc,bchq->bkhq")];
            tensor<fp16, [1, 1500, 1, 24]> aw_cast_fp16 = einsum(equation = aw_equation_0, values = (var_1160_cast_fp16_5, var_1152_cast_fp16_5))[name = tensor<string, []>("aw_cast_fp16")];
            tensor<fp16, [1, 1500, 1, 24]> var_1186_cast_fp16 = softmax(axis = var_961, x = aw_85_cast_fp16)[name = tensor<string, []>("op_1186_cast_fp16")];
            tensor<fp16, [1, 1500, 1, 24]> var_1187_cast_fp16 = softmax(axis = var_961, x = aw_87_cast_fp16)[name = tensor<string, []>("op_1187_cast_fp16")];
            tensor<fp16, [1, 1500, 1, 24]> var_1188_cast_fp16 = softmax(axis = var_961, x = aw_89_cast_fp16)[name = tensor<string, []>("op_1188_cast_fp16")];
            tensor<fp16, [1, 1500, 1, 24]> var_1189_cast_fp16 = softmax(axis = var_961, x = aw_91_cast_fp16)[name = tensor<string, []>("op_1189_cast_fp16")];
            tensor<fp16, [1, 1500, 1, 24]> var_1190_cast_fp16 = softmax(axis = var_961, x = aw_93_cast_fp16)[name = tensor<string, []>("op_1190_cast_fp16")];
            tensor<fp16, [1, 1500, 1, 24]> var_1191_cast_fp16 = softmax(axis = var_961, x = aw_cast_fp16)[name = tensor<string, []>("op_1191_cast_fp16")];
            tensor<string, []> var_1193_equation_0 = const()[name = tensor<string, []>("op_1193_equation_0"), val = tensor<string, []>("bchk,bkhq->bchq")];
            tensor<fp16, [1, 64, 1, 24]> var_1193_cast_fp16 = einsum(equation = var_1193_equation_0, values = (var_1167_cast_fp16_0, var_1186_cast_fp16))[name = tensor<string, []>("op_1193_cast_fp16")];
            tensor<string, []> var_1195_equation_0 = const()[name = tensor<string, []>("op_1195_equation_0"), val = tensor<string, []>("bchk,bkhq->bchq")];
            tensor<fp16, [1, 64, 1, 24]> var_1195_cast_fp16 = einsum(equation = var_1195_equation_0, values = (var_1167_cast_fp16_1, var_1187_cast_fp16))[name = tensor<string, []>("op_1195_cast_fp16")];
            tensor<string, []> var_1197_equation_0 = const()[name = tensor<string, []>("op_1197_equation_0"), val = tensor<string, []>("bchk,bkhq->bchq")];
            tensor<fp16, [1, 64, 1, 24]> var_1197_cast_fp16 = einsum(equation = var_1197_equation_0, values = (var_1167_cast_fp16_2, var_1188_cast_fp16))[name = tensor<string, []>("op_1197_cast_fp16")];
            tensor<string, []> var_1199_equation_0 = const()[name = tensor<string, []>("op_1199_equation_0"), val = tensor<string, []>("bchk,bkhq->bchq")];
            tensor<fp16, [1, 64, 1, 24]> var_1199_cast_fp16 = einsum(equation = var_1199_equation_0, values = (var_1167_cast_fp16_3, var_1189_cast_fp16))[name = tensor<string, []>("op_1199_cast_fp16")];
            tensor<string, []> var_1201_equation_0 = const()[name = tensor<string, []>("op_1201_equation_0"), val = tensor<string, []>("bchk,bkhq->bchq")];
            tensor<fp16, [1, 64, 1, 24]> var_1201_cast_fp16 = einsum(equation = var_1201_equation_0, values = (var_1167_cast_fp16_4, var_1190_cast_fp16))[name = tensor<string, []>("op_1201_cast_fp16")];
            tensor<string, []> var_1203_equation_0 = const()[name = tensor<string, []>("op_1203_equation_0"), val = tensor<string, []>("bchk,bkhq->bchq")];
            tensor<fp16, [1, 64, 1, 24]> var_1203_cast_fp16 = einsum(equation = var_1203_equation_0, values = (var_1167_cast_fp16_5, var_1191_cast_fp16))[name = tensor<string, []>("op_1203_cast_fp16")];
            tensor<bool, []> input_51_interleave_0 = const()[name = tensor<string, []>("input_51_interleave_0"), val = tensor<bool, []>(false)];
            tensor<fp16, [1, 384, 1, 24]> input_51_cast_fp16 = concat(axis = var_961, interleave = input_51_interleave_0, values = (var_1193_cast_fp16, var_1195_cast_fp16, var_1197_cast_fp16, var_1199_cast_fp16, var_1201_cast_fp16, var_1203_cast_fp16))[name = tensor<string, []>("input_51_cast_fp16")];
            tensor<string, []> var_1212_pad_type_0 = const()[name = tensor<string, []>("op_1212_pad_type_0"), val = tensor<string, []>("valid")];
            tensor<int32, [2]> var_1212_strides_0 = const()[name = tensor<string, []>("op_1212_strides_0"), val = tensor<int32, [2]>([1, 1])];
            tensor<int32, [4]> var_1212_pad_0 = const()[name = tensor<string, []>("op_1212_pad_0"), val = tensor<int32, [4]>([0, 0, 0, 0])];
            tensor<int32, [2]> var_1212_dilations_0 = const()[name = tensor<string, []>("op_1212_dilations_0"), val = tensor<int32, [2]>([1, 1])];
            tensor<int32, []> var_1212_groups_0 = const()[name = tensor<string, []>("op_1212_groups_0"), val = tensor<int32, []>(1)];
            tensor<fp16, [384, 384, 1, 1]> blocks_3_cross_attn_out_weight_to_fp16 = const()[name = tensor<string, []>("blocks_3_cross_attn_out_weight_to_fp16"), val = tensor<fp16, [384, 384, 1, 1]>(BLOBFILE(path = tensor<string, []>("@model_path/weights/weight.bin"), offset = tensor<uint64, []>(56124032)))];
            tensor<fp16, [384]> blocks_3_cross_attn_out_bias_to_fp16 = const()[name = tensor<string, []>("blocks_3_cross_attn_out_bias_to_fp16"), val = tensor<fp16, [384]>(BLOBFILE(path = tensor<string, []>("@model_path/weights/weight.bin"), offset = tensor<uint64, []>(56419008)))];
            tensor<fp16, [1, 384, 1, 24]> var_1212_cast_fp16 = conv(bias = blocks_3_cross_attn_out_bias_to_fp16, dilations = var_1212_dilations_0, groups = var_1212_groups_0, pad = var_1212_pad_0, pad_type = var_1212_pad_type_0, strides = var_1212_strides_0, weight = blocks_3_cross_attn_out_weight_to_fp16, x = input_51_cast_fp16)[name = tensor<string, []>("op_1212_cast_fp16")];
            tensor<fp16, [1, 384, 1, 24]> inputs_23_cast_fp16 = add(x = inputs_21_cast_fp16, y = var_1212_cast_fp16)[name = tensor<string, []>("inputs_23_cast_fp16")];
            tensor<int32, [1]> input_53_axes_0 = const()[name = tensor<string, []>("input_53_axes_0"), val = tensor<int32, [1]>([1])];
            tensor<fp16, [384]> input_53_gamma_0_to_fp16 = const()[name = tensor<string, []>("input_53_gamma_0_to_fp16"), val = tensor<fp16, [384]>(BLOBFILE(path = tensor<string, []>("@model_path/weights/weight.bin"), offset = tensor<uint64, []>(56419840)))];
            tensor<fp16, [384]> input_53_beta_0_to_fp16 = const()[name = tensor<string, []>("input_53_beta_0_to_fp16"), val = tensor<fp16, [384]>(BLOBFILE(path = tensor<string, []>("@model_path/weights/weight.bin"), offset = tensor<uint64, []>(56420672)))];
            tensor<fp16, []> var_1222_to_fp16 = const()[name = tensor<string, []>("op_1222_to_fp16"), val = tensor<fp16, []>(0x1.5p-17)];
            tensor<fp16, [1, 384, 1, 24]> input_53_cast_fp16 = layer_norm(axes = input_53_axes_0, beta = input_53_beta_0_to_fp16, epsilon = var_1222_to_fp16, gamma = input_53_gamma_0_to_fp16, x = inputs_23_cast_fp16)[name = tensor<string, []>("input_53_cast_fp16")];
            tensor<string, []> input_55_pad_type_0 = const()[name = tensor<string, []>("input_55_pad_type_0"), val = tensor<string, []>("valid")];
            tensor<int32, [2]> input_55_strides_0 = const()[name = tensor<string, []>("input_55_strides_0"), val = tensor<int32, [2]>([1, 1])];
            tensor<int32, [4]> input_55_pad_0 = const()[name = tensor<string, []>("input_55_pad_0"), val = tensor<int32, [4]>([0, 0, 0, 0])];
            tensor<int32, [2]> input_55_dilations_0 = const()[name = tensor<string, []>("input_55_dilations_0"), val = tensor<int32, [2]>([1, 1])];
            tensor<int32, []> input_55_groups_0 = const()[name = tensor<string, []>("input_55_groups_0"), val = tensor<int32, []>(1)];
            tensor<fp16, [1536, 384, 1, 1]> blocks_3_mlp_0_weight_to_fp16 = const()[name = tensor<string, []>("blocks_3_mlp_0_weight_to_fp16"), val = tensor<fp16, [1536, 384, 1, 1]>(BLOBFILE(path = tensor<string, []>("@model_path/weights/weight.bin"), offset = tensor<uint64, []>(56421504)))];
            tensor<fp16, [1536]> blocks_3_mlp_0_bias_to_fp16 = const()[name = tensor<string, []>("blocks_3_mlp_0_bias_to_fp16"), val = tensor<fp16, [1536]>(BLOBFILE(path = tensor<string, []>("@model_path/weights/weight.bin"), offset = tensor<uint64, []>(57601216)))];
            tensor<fp16, [1, 1536, 1, 24]> input_55_cast_fp16 = conv(bias = blocks_3_mlp_0_bias_to_fp16, dilations = input_55_dilations_0, groups = input_55_groups_0, pad = input_55_pad_0, pad_type = input_55_pad_type_0, strides = input_55_strides_0, weight = blocks_3_mlp_0_weight_to_fp16, x = input_53_cast_fp16)[name = tensor<string, []>("input_55_cast_fp16")];
            tensor<string, []> input_mode_0 = const()[name = tensor<string, []>("input_mode_0"), val = tensor<string, []>("EXACT")];
            tensor<fp16, [1, 1536, 1, 24]> input_cast_fp16 = gelu(mode = input_mode_0, x = input_55_cast_fp16)[name = tensor<string, []>("input_cast_fp16")];
            tensor<string, []> var_1248_pad_type_0 = const()[name = tensor<string, []>("op_1248_pad_type_0"), val = tensor<string, []>("valid")];
            tensor<int32, [2]> var_1248_strides_0 = const()[name = tensor<string, []>("op_1248_strides_0"), val = tensor<int32, [2]>([1, 1])];
            tensor<int32, [4]> var_1248_pad_0 = const()[name = tensor<string, []>("op_1248_pad_0"), val = tensor<int32, [4]>([0, 0, 0, 0])];
            tensor<int32, [2]> var_1248_dilations_0 = const()[name = tensor<string, []>("op_1248_dilations_0"), val = tensor<int32, [2]>([1, 1])];
            tensor<int32, []> var_1248_groups_0 = const()[name = tensor<string, []>("op_1248_groups_0"), val = tensor<int32, []>(1)];
            tensor<fp16, [384, 1536, 1, 1]> blocks_3_mlp_2_weight_to_fp16 = const()[name = tensor<string, []>("blocks_3_mlp_2_weight_to_fp16"), val = tensor<fp16, [384, 1536, 1, 1]>(BLOBFILE(path = tensor<string, []>("@model_path/weights/weight.bin"), offset = tensor<uint64, []>(57604352)))];
            tensor<fp16, [384]> blocks_3_mlp_2_bias_to_fp16 = const()[name = tensor<string, []>("blocks_3_mlp_2_bias_to_fp16"), val = tensor<fp16, [384]>(BLOBFILE(path = tensor<string, []>("@model_path/weights/weight.bin"), offset = tensor<uint64, []>(58784064)))];
            tensor<fp16, [1, 384, 1, 24]> var_1248_cast_fp16 = conv(bias = blocks_3_mlp_2_bias_to_fp16, dilations = var_1248_dilations_0, groups = var_1248_groups_0, pad = var_1248_pad_0, pad_type = var_1248_pad_type_0, strides = var_1248_strides_0, weight = blocks_3_mlp_2_weight_to_fp16, x = input_cast_fp16)[name = tensor<string, []>("op_1248_cast_fp16")];
            tensor<fp16, [1, 384, 1, 24]> inputs_cast_fp16 = add(x = inputs_23_cast_fp16, y = var_1248_cast_fp16)[name = tensor<string, []>("inputs_cast_fp16")];
            tensor<int32, [1]> x_7_axes_0 = const()[name = tensor<string, []>("x_7_axes_0"), val = tensor<int32, [1]>([1])];
            tensor<fp16, [384]> x_7_gamma_0_to_fp16 = const()[name = tensor<string, []>("x_7_gamma_0_to_fp16"), val = tensor<fp16, [384]>(BLOBFILE(path = tensor<string, []>("@model_path/weights/weight.bin"), offset = tensor<uint64, []>(58784896)))];
            tensor<fp16, [384]> x_7_beta_0_to_fp16 = const()[name = tensor<string, []>("x_7_beta_0_to_fp16"), val = tensor<fp16, [384]>(BLOBFILE(path = tensor<string, []>("@model_path/weights/weight.bin"), offset = tensor<uint64, []>(58785728)))];
            tensor<fp16, []> var_1262_to_fp16 = const()[name = tensor<string, []>("op_1262_to_fp16"), val = tensor<fp16, []>(0x1.5p-17)];
            tensor<fp16, [1, 384, 1, 24]> x_7_cast_fp16 = layer_norm(axes = x_7_axes_0, beta = x_7_beta_0_to_fp16, epsilon = var_1262_to_fp16, gamma = x_7_gamma_0_to_fp16, x = inputs_cast_fp16)[name = tensor<string, []>("x_7_cast_fp16")];
            tensor<int32, [4]> var_1276 = const()[name = tensor<string, []>("op_1276"), val = tensor<int32, [4]>([0, 2, 3, 1])];
            tensor<int32, [1]> x_axes_0 = const()[name = tensor<string, []>("x_axes_0"), val = tensor<int32, [1]>([1])];
            tensor<fp16, [1, 1, 24, 384]> var_1277_cast_fp16 = transpose(perm = var_1276, x = x_7_cast_fp16)[name = tensor<string, []>("transpose_1")];
            tensor<fp16, [1, 24, 384]> x_cast_fp16 = squeeze(axes = x_axes_0, x = var_1277_cast_fp16)[name = tensor<string, []>("x_cast_fp16")];
            tensor<fp16, [51865]> var_1281_bias_0_to_fp16 = const()[name = tensor<string, []>("op_1281_bias_0_to_fp16"), val = tensor<fp16, [51865]>(BLOBFILE(path = tensor<string, []>("@model_path/weights/weight.bin"), offset = tensor<uint64, []>(58786560)))];
            tensor<fp16, [1, 24, 51865]> var_1281_cast_fp16 = linear(bias = var_1281_bias_0_to_fp16, weight = token_embedding_weight_to_fp16, x = x_cast_fp16)[name = tensor<string, []>("op_1281_cast_fp16")];
            tensor<string, []> var_1281_cast_fp16_to_fp32_dtype_0 = const()[name = tensor<string, []>("op_1281_cast_fp16_to_fp32_dtype_0"), val = tensor<string, []>("fp32")];
            tensor<fp32, [1, 24, 51865]> logits = cast(dtype = var_1281_cast_fp16_to_fp32_dtype_0, x = var_1281_cast_fp16)[name = tensor<string, []>("cast_27")];
        } -> (logits);
}