program(1.0)
[buildInfo = dict<tensor<string, []>, tensor<string, []>>({{"coremlc-component-MIL", "3520.4.1"}, {"coremlc-version", "3520.5.1"}, {"coremltools-component-torch", "2.11.0"}, {"coremltools-source-dialect", "TorchScript"}, {"coremltools-version", "9.0b1"}})]
{
    func main<ios17>(tensor<fp16, [1, 1500, 384]> encoder_output, tensor<int32, [1, ?]> input_ids) [FlexibleShapeInformation = tuple<tuple<tensor<string, []>, dict<tensor<string, []>, tensor<int32, [?]>>>, tuple<tensor<string, []>, dict<tensor<string, []>, list<tensor<int32, [2]>, ?>>>>((("DefaultShapes", {{"input_ids", [1, 1]}}), ("RangeDims", {{"input_ids", [[1, 1], [1, 20]]}})))] {
            tensor<int32, []> var_16 = const()[name = tensor<string, []>("op_16"), val = tensor<int32, []>(6)];
            tensor<int32, []> var_22 = const()[name = tensor<string, []>("op_22"), val = tensor<int32, []>(-1)];
            tensor<int32, []> var_23 = const()[name = tensor<string, []>("op_23"), val = tensor<int32, []>(1)];
            tensor<int32, [2]> var_36_shape = shape(x = input_ids)[name = tensor<string, []>("op_36_shape")];
            tensor<int32, []> gather_0 = const()[name = tensor<string, []>("gather_0"), val = tensor<int32, []>(1)];
            tensor<int32, []> gather_1_axis_0 = const()[name = tensor<string, []>("gather_1_axis_0"), val = tensor<int32, []>(0)];
            tensor<int32, []> gather_1_batch_dims_0 = const()[name = tensor<string, []>("gather_1_batch_dims_0"), val = tensor<int32, []>(0)];
            tensor<bool, []> gather_1_validate_indices_0 = const()[name = tensor<string, []>("gather_1_validate_indices_0"), val = tensor<bool, []>(false)];
            tensor<string, []> var_36_shape_to_int16_dtype_0 = const()[name = tensor<string, []>("op_36_shape_to_int16_dtype_0"), val = tensor<string, []>("int16")];
            tensor<uint16, []> gather_1_indices_0_to_uint16 = const()[name = tensor<string, []>("gather_1_indices_0_to_uint16"), val = tensor<uint16, []>(1)];
            tensor<int16, [2]> var_36_shape_to_int16 = cast(dtype = var_36_shape_to_int16_dtype_0, x = var_36_shape)[name = tensor<string, []>("cast_100")];
            tensor<int16, []> gather_1_cast_uint16 = gather(axis = gather_1_axis_0, batch_dims = gather_1_batch_dims_0, indices = gather_1_indices_0_to_uint16, validate_indices = gather_1_validate_indices_0, x = var_36_shape_to_int16)[name = tensor<string, []>("gather_1_cast_uint16")];
            tensor<string, []> gather_1_cast_uint16_to_int32_dtype_0 = const()[name = tensor<string, []>("gather_1_cast_uint16_to_int32_dtype_0"), val = tensor<string, []>("int32")];
            tensor<int32, []> inputs_embeds_batch_dims_0 = const()[name = tensor<string, []>("inputs_embeds_batch_dims_0"), val = tensor<int32, []>(0)];
            tensor<bool, []> inputs_embeds_validate_indices_0 = const()[name = tensor<string, []>("inputs_embeds_validate_indices_0"), val = tensor<bool, []>(false)];
            tensor<fp16, [51865, 384]> decoder_embed_tokens_weight_to_fp16 = const()[name = tensor<string, []>("decoder_embed_tokens_weight_to_fp16"), val = tensor<fp16, [51865, 384]>(BLOBFILE(path = tensor<string, []>("@model_path/weights/weight.bin"), offset = tensor<uint64, []>(64)))];
            tensor<int32, []> greater_equal_0_y_0 = const()[name = tensor<string, []>("greater_equal_0_y_0"), val = tensor<int32, []>(0)];
            tensor<bool, [1, ?]> greater_equal_0 = greater_equal(x = input_ids, y = greater_equal_0_y_0)[name = tensor<string, []>("greater_equal_0")];
            tensor<int32, []> slice_by_index_0 = const()[name = tensor<string, []>("slice_by_index_0"), val = tensor<int32, []>(51865)];
            tensor<int32, [1, ?]> add_0 = add(x = input_ids, y = slice_by_index_0)[name = tensor<string, []>("add_0")];
            tensor<int32, [1, ?]> select_0 = select(a = input_ids, b = add_0, cond = greater_equal_0)[name = tensor<string, []>("select_0")];
            tensor<int32, []> inputs_embeds_cast_fp16_axis_0 = const()[name = tensor<string, []>("inputs_embeds_cast_fp16_axis_0"), val = tensor<int32, []>(0)];
            tensor<fp16, [1, ?, 384]> inputs_embeds_cast_fp16 = gather(axis = inputs_embeds_cast_fp16_axis_0, batch_dims = inputs_embeds_batch_dims_0, indices = select_0, validate_indices = inputs_embeds_validate_indices_0, x = decoder_embed_tokens_weight_to_fp16)[name = tensor<string, []>("inputs_embeds_cast_fp16")];
            tensor<int32, []> gather_1_cast_uint16_to_int32 = cast(dtype = gather_1_cast_uint16_to_int32_dtype_0, x = gather_1_cast_uint16)[name = tensor<string, []>("cast_99")];
            tensor<int32, []> past_key_values_length = sub(x = gather_1_cast_uint16_to_int32, y = gather_1_cast_uint16_to_int32)[name = tensor<string, []>("past_key_values_length")];
            tensor<int32, []> concat_1_axis_0 = const()[name = tensor<string, []>("concat_1_axis_0"), val = tensor<int32, []>(0)];
            tensor<bool, []> concat_1_interleave_0 = const()[name = tensor<string, []>("concat_1_interleave_0"), val = tensor<bool, []>(false)];
            tensor<int32, [2]> concat_1 = concat(axis = concat_1_axis_0, interleave = concat_1_interleave_0, values = (gather_1_cast_uint16_to_int32, gather_1_cast_uint16_to_int32))[name = tensor<string, []>("concat_1")];
            tensor<fp16, []> mask_1_value_0_to_fp16 = const()[name = tensor<string, []>("mask_1_value_0_to_fp16"), val = tensor<fp16, []>(-inf)];
            tensor<fp16, [?, ?]> mask_1_cast_fp16 = fill(shape = concat_1, value = mask_1_value_0_to_fp16)[name = tensor<string, []>("mask_1_cast_fp16")];
            tensor<int32, [2]> var_48_shape_cast_fp16 = shape(x = mask_1_cast_fp16)[name = tensor<string, []>("op_48_shape_cast_fp16")];
            tensor<int32, []> gather_2_batch_dims_0 = const()[name = tensor<string, []>("gather_2_batch_dims_0"), val = tensor<int32, []>(0)];
            tensor<bool, []> gather_2_validate_indices_0 = const()[name = tensor<string, []>("gather_2_validate_indices_0"), val = tensor<bool, []>(false)];
            tensor<string, []> var_48_shape_cast_fp16_to_uint16_dtype_0 = const()[name = tensor<string, []>("op_48_shape_cast_fp16_to_uint16_dtype_0"), val = tensor<string, []>("uint16")];
            tensor<int32, []> gather_2_cast_uint16_axis_0 = const()[name = tensor<string, []>("gather_2_cast_uint16_axis_0"), val = tensor<int32, []>(0)];
            tensor<uint16, []> select_1_to_uint16 = const()[name = tensor<string, []>("select_1_to_uint16"), val = tensor<uint16, []>(1)];
            tensor<uint16, [2]> var_48_shape_cast_fp16_to_uint16 = cast(dtype = var_48_shape_cast_fp16_to_uint16_dtype_0, x = var_48_shape_cast_fp16)[name = tensor<string, []>("cast_98")];
            tensor<uint16, []> gather_2_cast_uint16_cast_uint16 = gather(axis = gather_2_cast_uint16_axis_0, batch_dims = gather_2_batch_dims_0, indices = select_1_to_uint16, validate_indices = gather_2_validate_indices_0, x = var_48_shape_cast_fp16_to_uint16)[name = tensor<string, []>("gather_2_cast_uint16_cast_uint16")];
            tensor<string, []> gather_2_cast_uint16_to_int32_dtype_0 = const()[name = tensor<string, []>("gather_2_cast_uint16_to_int32_dtype_0"), val = tensor<string, []>("int32")];
            tensor<int32, []> const_0 = const()[name = tensor<string, []>("const_0"), val = tensor<int32, []>(0)];
            tensor<int32, []> const_1 = const()[name = tensor<string, []>("const_1"), val = tensor<int32, []>(1)];
            tensor<int32, []> gather_2_cast_uint16_to_int32 = cast(dtype = gather_2_cast_uint16_to_int32_dtype_0, x = gather_2_cast_uint16_cast_uint16)[name = tensor<string, []>("cast_97")];
            tensor<int32, [?]> mask_cond = range_1d(end = gather_2_cast_uint16_to_int32, start = const_0, step = const_1)[name = tensor<string, []>("mask_cond")];
            tensor<int32, []> var_50 = const()[name = tensor<string, []>("op_50"), val = tensor<int32, []>(1)];
            tensor<int32, [?]> var_51 = add(x = mask_cond, y = var_50)[name = tensor<string, []>("op_51")];
            tensor<int32, [2]> concat_2x = const()[name = tensor<string, []>("concat_2x"), val = tensor<int32, [2]>([-1, 1])];
            tensor<int32, [?, 1]> var_54 = reshape(shape = concat_2x, x = var_51)[name = tensor<string, []>("op_54")];
            tensor<bool, [?, ?]> var_55 = less(x = mask_cond, y = var_54)[name = tensor<string, []>("op_55")];
            tensor<fp16, []> cast_4_to_fp16 = const()[name = tensor<string, []>("cast_4_to_fp16"), val = tensor<fp16, []>(0x0p+0)];
            tensor<fp16, [?, ?]> mask_3_cast_fp16 = select(a = cast_4_to_fp16, b = mask_1_cast_fp16, cond = var_55)[name = tensor<string, []>("mask_3_cast_fp16")];
            tensor<int32, [1]> var_58_axes_0 = const()[name = tensor<string, []>("op_58_axes_0"), val = tensor<int32, [1]>([0])];
            tensor<fp16, [1, ?, ?]> var_58_cast_fp16 = expand_dims(axes = var_58_axes_0, x = mask_3_cast_fp16)[name = tensor<string, []>("op_58_cast_fp16")];
            tensor<int32, [1]> var_59_axes_0 = const()[name = tensor<string, []>("op_59_axes_0"), val = tensor<int32, [1]>([1])];
            tensor<fp16, [1, 1, ?, ?]> var_59_cast_fp16 = expand_dims(axes = var_59_axes_0, x = var_58_cast_fp16)[name = tensor<string, []>("op_59_cast_fp16")];
            tensor<int32, []> var_62 = add(x = gather_1_cast_uint16_to_int32, y = past_key_values_length)[name = tensor<string, []>("op_62")];
            tensor<int32, []> concat_3_axis_0 = const()[name = tensor<string, []>("concat_3_axis_0"), val = tensor<int32, []>(0)];
            tensor<bool, []> concat_3_interleave_0 = const()[name = tensor<string, []>("concat_3_interleave_0"), val = tensor<bool, []>(false)];
            tensor<int32, [4]> concat_3 = concat(axis = concat_3_axis_0, interleave = concat_3_interleave_0, values = (gather_0, var_23, gather_1_cast_uint16_to_int32, var_62))[name = tensor<string, []>("concat_3")];
            tensor<int32, [4]> shape_0_cast_fp16 = shape(x = var_59_cast_fp16)[name = tensor<string, []>("shape_0_cast_fp16")];
            tensor<int32, [4]> real_div_0 = real_div(x = concat_3, y = shape_0_cast_fp16)[name = tensor<string, []>("real_div_0")];
            tensor<fp16, [?, ?, ?, ?]> attention_mask_cast_fp16 = tile(reps = real_div_0, x = var_59_cast_fp16)[name = tensor<string, []>("attention_mask_cast_fp16")];
            tensor<int32, []> concat_4_values1_0 = const()[name = tensor<string, []>("concat_4_values1_0"), val = tensor<int32, []>(384)];
            tensor<int32, []> concat_4_axis_0 = const()[name = tensor<string, []>("concat_4_axis_0"), val = tensor<int32, []>(0)];
            tensor<bool, []> concat_4_interleave_0 = const()[name = tensor<string, []>("concat_4_interleave_0"), val = tensor<bool, []>(false)];
            tensor<int32, [2]> concat_4 = concat(axis = concat_4_axis_0, interleave = concat_4_interleave_0, values = (gather_1_cast_uint16_to_int32, concat_4_values1_0))[name = tensor<string, []>("concat_4")];
            tensor<int32, [2]> positions_begin_0 = const()[name = tensor<string, []>("positions_begin_0"), val = tensor<int32, [2]>([0, 0])];
            tensor<bool, [2]> positions_end_mask_0 = const()[name = tensor<string, []>("positions_end_mask_0"), val = tensor<bool, [2]>([false, true])];
            tensor<fp16, [448, 384]> decoder_embed_positions_weight_to_fp16 = const()[name = tensor<string, []>("decoder_embed_positions_weight_to_fp16"), val = tensor<fp16, [448, 384]>(BLOBFILE(path = tensor<string, []>("@model_path/weights/weight.bin"), offset = tensor<uint64, []>(39832448)))];
            tensor<fp16, [?, 384]> positions_cast_fp16 = slice_by_index(begin = positions_begin_0, end = concat_4, end_mask = positions_end_mask_0, x = decoder_embed_positions_weight_to_fp16)[name = tensor<string, []>("positions_cast_fp16")];
            tensor<fp16, [1, ?, 384]> input_3_cast_fp16 = add(x = inputs_embeds_cast_fp16, y = positions_cast_fp16)[name = tensor<string, []>("input_3_cast_fp16")];
            tensor<int32, [1]> hidden_states_1_axes_0 = const()[name = tensor<string, []>("hidden_states_1_axes_0"), val = tensor<int32, [1]>([-1])];
            tensor<fp16, [384]> decoder_layers_0_self_attn_layer_norm_weight_to_fp16 = const()[name = tensor<string, []>("decoder_layers_0_self_attn_layer_norm_weight_to_fp16"), val = tensor<fp16, [384]>(BLOBFILE(path = tensor<string, []>("@model_path/weights/weight.bin"), offset = tensor<uint64, []>(40176576)))];
            tensor<fp16, [384]> decoder_layers_0_self_attn_layer_norm_bias_to_fp16 = const()[name = tensor<string, []>("decoder_layers_0_self_attn_layer_norm_bias_to_fp16"), val = tensor<fp16, [384]>(BLOBFILE(path = tensor<string, []>("@model_path/weights/weight.bin"), offset = tensor<uint64, []>(40177408)))];
            tensor<fp16, []> var_8_to_fp16 = const()[name = tensor<string, []>("op_8_to_fp16"), val = tensor<fp16, []>(0x1.5p-17)];
            tensor<fp16, [1, ?, 384]> hidden_states_1_cast_fp16 = layer_norm(axes = hidden_states_1_axes_0, beta = decoder_layers_0_self_attn_layer_norm_bias_to_fp16, epsilon = var_8_to_fp16, gamma = decoder_layers_0_self_attn_layer_norm_weight_to_fp16, x = input_3_cast_fp16)[name = tensor<string, []>("hidden_states_1_cast_fp16")];
            tensor<int32, [3]> var_90_shape_cast_fp16 = shape(x = hidden_states_1_cast_fp16)[name = tensor<string, []>("op_90_shape_cast_fp16")];
            tensor<int32, []> gather_5 = const()[name = tensor<string, []>("gather_5"), val = tensor<int32, []>(1)];
            tensor<int32, []> gather_6_axis_0 = const()[name = tensor<string, []>("gather_6_axis_0"), val = tensor<int32, []>(0)];
            tensor<int32, []> gather_6_batch_dims_0 = const()[name = tensor<string, []>("gather_6_batch_dims_0"), val = tensor<int32, []>(0)];
            tensor<bool, []> gather_6_validate_indices_0 = const()[name = tensor<string, []>("gather_6_validate_indices_0"), val = tensor<bool, []>(false)];
            tensor<string, []> var_90_shape_cast_fp16_to_uint16_dtype_0 = const()[name = tensor<string, []>("op_90_shape_cast_fp16_to_uint16_dtype_0"), val = tensor<string, []>("uint16")];
            tensor<uint16, []> gather_6_indices_0_to_uint16 = const()[name = tensor<string, []>("gather_6_indices_0_to_uint16"), val = tensor<uint16, []>(1)];
            tensor<uint16, [3]> var_90_shape_cast_fp16_to_uint16 = cast(dtype = var_90_shape_cast_fp16_to_uint16_dtype_0, x = var_90_shape_cast_fp16)[name = tensor<string, []>("cast_96")];
            tensor<uint16, []> gather_6_cast_uint16 = gather(axis = gather_6_axis_0, batch_dims = gather_6_batch_dims_0, indices = gather_6_indices_0_to_uint16, validate_indices = gather_6_validate_indices_0, x = var_90_shape_cast_fp16_to_uint16)[name = tensor<string, []>("gather_6_cast_uint16")];
            tensor<string, []> gather_6_cast_uint16_to_int32_dtype_0 = const()[name = tensor<string, []>("gather_6_cast_uint16_to_int32_dtype_0"), val = tensor<string, []>("int32")];
            tensor<fp16, [384, 384]> decoder_layers_0_self_attn_q_proj_weight_to_fp16 = const()[name = tensor<string, []>("decoder_layers_0_self_attn_q_proj_weight_to_fp16"), val = tensor<fp16, [384, 384]>(BLOBFILE(path = tensor<string, []>("@model_path/weights/weight.bin"), offset = tensor<uint64, []>(40178240)))];
            tensor<fp16, [384]> decoder_layers_0_self_attn_q_proj_bias_to_fp16 = const()[name = tensor<string, []>("decoder_layers_0_self_attn_q_proj_bias_to_fp16"), val = tensor<fp16, [384]>(BLOBFILE(path = tensor<string, []>("@model_path/weights/weight.bin"), offset = tensor<uint64, []>(40473216)))];
            tensor<fp16, [1, ?, 384]> linear_0_cast_fp16 = linear(bias = decoder_layers_0_self_attn_q_proj_bias_to_fp16, weight = decoder_layers_0_self_attn_q_proj_weight_to_fp16, x = hidden_states_1_cast_fp16)[name = tensor<string, []>("linear_0_cast_fp16")];
            tensor<fp16, []> var_96_to_fp16 = const()[name = tensor<string, []>("op_96_to_fp16"), val = tensor<fp16, []>(0x1p-3)];
            tensor<fp16, [1, ?, 384]> tensor_5_cast_fp16 = mul(x = linear_0_cast_fp16, y = var_96_to_fp16)[name = tensor<string, []>("tensor_5_cast_fp16")];
            tensor<fp16, [384, 384]> decoder_layers_0_self_attn_k_proj_weight_to_fp16 = const()[name = tensor<string, []>("decoder_layers_0_self_attn_k_proj_weight_to_fp16"), val = tensor<fp16, [384, 384]>(BLOBFILE(path = tensor<string, []>("@model_path/weights/weight.bin"), offset = tensor<uint64, []>(40474048)))];
            tensor<fp16, [384]> linear_1_bias_0_to_fp16 = const()[name = tensor<string, []>("linear_1_bias_0_to_fp16"), val = tensor<fp16, [384]>(BLOBFILE(path = tensor<string, []>("@model_path/weights/weight.bin"), offset = tensor<uint64, []>(40769024)))];
            tensor<fp16, [1, ?, 384]> linear_1_cast_fp16 = linear(bias = linear_1_bias_0_to_fp16, weight = decoder_layers_0_self_attn_k_proj_weight_to_fp16, x = hidden_states_1_cast_fp16)[name = tensor<string, []>("linear_1_cast_fp16")];
            tensor<int32, [4]> var_100 = const()[name = tensor<string, []>("op_100"), val = tensor<int32, [4]>([1, -1, 6, 64])];
            tensor<fp16, [1, ?, 6, 64]> var_101_cast_fp16 = reshape(shape = var_100, x = linear_1_cast_fp16)[name = tensor<string, []>("op_101_cast_fp16")];
            tensor<int32, [4]> var_102_perm_0 = const()[name = tensor<string, []>("op_102_perm_0"), val = tensor<int32, [4]>([0, 2, 1, 3])];
            tensor<fp16, [384, 384]> decoder_layers_0_self_attn_v_proj_weight_to_fp16 = const()[name = tensor<string, []>("decoder_layers_0_self_attn_v_proj_weight_to_fp16"), val = tensor<fp16, [384, 384]>(BLOBFILE(path = tensor<string, []>("@model_path/weights/weight.bin"), offset = tensor<uint64, []>(40769856)))];
            tensor<fp16, [384]> decoder_layers_0_self_attn_v_proj_bias_to_fp16 = const()[name = tensor<string, []>("decoder_layers_0_self_attn_v_proj_bias_to_fp16"), val = tensor<fp16, [384]>(BLOBFILE(path = tensor<string, []>("@model_path/weights/weight.bin"), offset = tensor<uint64, []>(41064832)))];
            tensor<fp16, [1, ?, 384]> linear_2_cast_fp16 = linear(bias = decoder_layers_0_self_attn_v_proj_bias_to_fp16, weight = decoder_layers_0_self_attn_v_proj_weight_to_fp16, x = hidden_states_1_cast_fp16)[name = tensor<string, []>("linear_2_cast_fp16")];
            tensor<int32, [4]> var_107 = const()[name = tensor<string, []>("op_107"), val = tensor<int32, [4]>([1, -1, 6, 64])];
            tensor<fp16, [1, ?, 6, 64]> var_108_cast_fp16 = reshape(shape = var_107, x = linear_2_cast_fp16)[name = tensor<string, []>("op_108_cast_fp16")];
            tensor<int32, [4]> var_109_perm_0 = const()[name = tensor<string, []>("op_109_perm_0"), val = tensor<int32, [4]>([0, 2, 1, 3])];
            tensor<int32, [4]> concat_5x = const()[name = tensor<string, []>("concat_5x"), val = tensor<int32, [4]>([1, -1, 6, 64])];
            tensor<fp16, [1, ?, 6, 64]> var_117_cast_fp16 = reshape(shape = concat_5x, x = tensor_5_cast_fp16)[name = tensor<string, []>("op_117_cast_fp16")];
            tensor<int32, [4]> var_118_perm_0 = const()[name = tensor<string, []>("op_118_perm_0"), val = tensor<int32, [4]>([0, 2, 1, 3])];
            tensor<int32, [3]> var_120 = const()[name = tensor<string, []>("op_120"), val = tensor<int32, [3]>([6, -1, 64])];
            tensor<fp16, [1, 6, ?, 64]> var_118_cast_fp16 = transpose(perm = var_118_perm_0, x = var_117_cast_fp16)[name = tensor<string, []>("transpose_29")];
            tensor<fp16, [6, ?, 64]> query_states_1_cast_fp16 = reshape(shape = var_120, x = var_118_cast_fp16)[name = tensor<string, []>("query_states_1_cast_fp16")];
            tensor<int32, [3]> var_122 = const()[name = tensor<string, []>("op_122"), val = tensor<int32, [3]>([6, -1, 64])];
            tensor<fp16, [1, 6, ?, 64]> var_102_cast_fp16 = transpose(perm = var_102_perm_0, x = var_101_cast_fp16)[name = tensor<string, []>("transpose_31")];
            tensor<fp16, [6, ?, 64]> key_states_3_cast_fp16 = reshape(shape = var_122, x = var_102_cast_fp16)[name = tensor<string, []>("key_states_3_cast_fp16")];
            tensor<int32, [3]> var_124 = const()[name = tensor<string, []>("op_124"), val = tensor<int32, [3]>([6, -1, 64])];
            tensor<fp16, [1, 6, ?, 64]> var_109_cast_fp16 = transpose(perm = var_109_perm_0, x = var_108_cast_fp16)[name = tensor<string, []>("transpose_30")];
            tensor<fp16, [6, ?, 64]> value_states_3_cast_fp16 = reshape(shape = var_124, x = var_109_cast_fp16)[name = tensor<string, []>("value_states_3_cast_fp16")];
            tensor<int32, [3]> var_126_shape_cast_fp16 = shape(x = key_states_3_cast_fp16)[name = tensor<string, []>("op_126_shape_cast_fp16")];
            tensor<int32, []> gather_7_axis_0 = const()[name = tensor<string, []>("gather_7_axis_0"), val = tensor<int32, []>(0)];
            tensor<int32, []> gather_7_batch_dims_0 = const()[name = tensor<string, []>("gather_7_batch_dims_0"), val = tensor<int32, []>(0)];
            tensor<bool, []> gather_7_validate_indices_0 = const()[name = tensor<string, []>("gather_7_validate_indices_0"), val = tensor<bool, []>(false)];
            tensor<string, []> var_126_shape_cast_fp16_to_uint16_dtype_0 = const()[name = tensor<string, []>("op_126_shape_cast_fp16_to_uint16_dtype_0"), val = tensor<string, []>("uint16")];
            tensor<uint16, []> gather_7_indices_0_to_uint16 = const()[name = tensor<string, []>("gather_7_indices_0_to_uint16"), val = tensor<uint16, []>(1)];
            tensor<uint16, [3]> var_126_shape_cast_fp16_to_uint16 = cast(dtype = var_126_shape_cast_fp16_to_uint16_dtype_0, x = var_126_shape_cast_fp16)[name = tensor<string, []>("cast_94")];
            tensor<uint16, []> gather_7_cast_uint16 = gather(axis = gather_7_axis_0, batch_dims = gather_7_batch_dims_0, indices = gather_7_indices_0_to_uint16, validate_indices = gather_7_validate_indices_0, x = var_126_shape_cast_fp16_to_uint16)[name = tensor<string, []>("gather_7_cast_uint16")];
            tensor<string, []> gather_7_cast_uint16_to_int32_dtype_0 = const()[name = tensor<string, []>("gather_7_cast_uint16_to_int32_dtype_0"), val = tensor<string, []>("int32")];
            tensor<bool, []> attn_weights_1_transpose_x_1 = const()[name = tensor<string, []>("attn_weights_1_transpose_x_1"), val = tensor<bool, []>(false)];
            tensor<bool, []> attn_weights_1_transpose_y_1 = const()[name = tensor<string, []>("attn_weights_1_transpose_y_1"), val = tensor<bool, []>(true)];
            tensor<fp16, [6, ?, ?]> attn_weights_1_cast_fp16 = matmul(transpose_x = attn_weights_1_transpose_x_1, transpose_y = attn_weights_1_transpose_y_1, x = query_states_1_cast_fp16, y = key_states_3_cast_fp16)[name = tensor<string, []>("attn_weights_1_cast_fp16")];
            tensor<int32, []> concat_6_axis_0 = const()[name = tensor<string, []>("concat_6_axis_0"), val = tensor<int32, []>(0)];
            tensor<bool, []> concat_6_interleave_0 = const()[name = tensor<string, []>("concat_6_interleave_0"), val = tensor<bool, []>(false)];
            tensor<int32, []> gather_7_cast_uint16_to_int32 = cast(dtype = gather_7_cast_uint16_to_int32_dtype_0, x = gather_7_cast_uint16)[name = tensor<string, []>("cast_93")];
            tensor<int32, []> gather_6_cast_uint16_to_int32 = cast(dtype = gather_6_cast_uint16_to_int32_dtype_0, x = gather_6_cast_uint16)[name = tensor<string, []>("cast_95")];
            tensor<int32, [4]> concat_6 = concat(axis = concat_6_axis_0, interleave = concat_6_interleave_0, values = (gather_5, var_16, gather_6_cast_uint16_to_int32, gather_7_cast_uint16_to_int32))[name = tensor<string, []>("concat_6")];
            tensor<fp16, [1, 6, ?, ?]> var_130_cast_fp16 = reshape(shape = concat_6, x = attn_weights_1_cast_fp16)[name = tensor<string, []>("op_130_cast_fp16")];
            tensor<fp16, [?, 6, ?, ?]> attn_weights_3_cast_fp16 = add(x = var_130_cast_fp16, y = attention_mask_cast_fp16)[name = tensor<string, []>("attn_weights_3_cast_fp16")];
            tensor<int32, []> var_134 = const()[name = tensor<string, []>("op_134"), val = tensor<int32, []>(6)];
            tensor<int32, []> concat_7_axis_0 = const()[name = tensor<string, []>("concat_7_axis_0"), val = tensor<int32, []>(0)];
            tensor<bool, []> concat_7_interleave_0 = const()[name = tensor<string, []>("concat_7_interleave_0"), val = tensor<bool, []>(false)];
            tensor<int32, [3]> concat_7 = concat(axis = concat_7_axis_0, interleave = concat_7_interleave_0, values = (var_134, gather_6_cast_uint16_to_int32, gather_7_cast_uint16_to_int32))[name = tensor<string, []>("concat_7")];
            tensor<fp16, [6, ?, ?]> input_7_cast_fp16 = reshape(shape = concat_7, x = attn_weights_3_cast_fp16)[name = tensor<string, []>("input_7_cast_fp16")];
            tensor<fp16, [6, ?, ?]> input_9_cast_fp16 = softmax(axis = var_22, x = input_7_cast_fp16)[name = tensor<string, []>("input_9_cast_fp16")];
            tensor<bool, []> attn_output_1_transpose_x_0 = const()[name = tensor<string, []>("attn_output_1_transpose_x_0"), val = tensor<bool, []>(false)];
            tensor<bool, []> attn_output_1_transpose_y_0 = const()[name = tensor<string, []>("attn_output_1_transpose_y_0"), val = tensor<bool, []>(false)];
            tensor<fp16, [6, ?, 64]> attn_output_1_cast_fp16 = matmul(transpose_x = attn_output_1_transpose_x_0, transpose_y = attn_output_1_transpose_y_0, x = input_9_cast_fp16, y = value_states_3_cast_fp16)[name = tensor<string, []>("attn_output_1_cast_fp16")];
            tensor<int32, [4]> concat_8x = const()[name = tensor<string, []>("concat_8x"), val = tensor<int32, [4]>([1, 6, -1, 64])];
            tensor<fp16, [1, 6, ?, 64]> attn_output_3_cast_fp16 = reshape(shape = concat_8x, x = attn_output_1_cast_fp16)[name = tensor<string, []>("attn_output_3_cast_fp16")];
            tensor<int32, [4]> attn_output_5_perm_0 = const()[name = tensor<string, []>("attn_output_5_perm_0"), val = tensor<int32, [4]>([0, 2, 1, 3])];
            tensor<int32, [3]> concat_9x = const()[name = tensor<string, []>("concat_9x"), val = tensor<int32, [3]>([1, -1, 384])];
            tensor<fp16, [1, ?, 6, 64]> attn_output_5_cast_fp16 = transpose(perm = attn_output_5_perm_0, x = attn_output_3_cast_fp16)[name = tensor<string, []>("transpose_28")];
            tensor<fp16, [1, ?, 384]> input_11_cast_fp16 = reshape(shape = concat_9x, x = attn_output_5_cast_fp16)[name = tensor<string, []>("input_11_cast_fp16")];
            tensor<fp16, [384, 384]> decoder_layers_0_self_attn_out_proj_weight_to_fp16 = const()[name = tensor<string, []>("decoder_layers_0_self_attn_out_proj_weight_to_fp16"), val = tensor<fp16, [384, 384]>(BLOBFILE(path = tensor<string, []>("@model_path/weights/weight.bin"), offset = tensor<uint64, []>(41065664)))];
            tensor<fp16, [384]> decoder_layers_0_self_attn_out_proj_bias_to_fp16 = const()[name = tensor<string, []>("decoder_layers_0_self_attn_out_proj_bias_to_fp16"), val = tensor<fp16, [384]>(BLOBFILE(path = tensor<string, []>("@model_path/weights/weight.bin"), offset = tensor<uint64, []>(41360640)))];
            tensor<fp16, [1, ?, 384]> linear_3_cast_fp16 = linear(bias = decoder_layers_0_self_attn_out_proj_bias_to_fp16, weight = decoder_layers_0_self_attn_out_proj_weight_to_fp16, x = input_11_cast_fp16)[name = tensor<string, []>("linear_3_cast_fp16")];
            tensor<fp16, [1, ?, 384]> input_15_cast_fp16 = add(x = input_3_cast_fp16, y = linear_3_cast_fp16)[name = tensor<string, []>("input_15_cast_fp16")];
            tensor<int32, [1]> hidden_states_5_axes_0 = const()[name = tensor<string, []>("hidden_states_5_axes_0"), val = tensor<int32, [1]>([-1])];
            tensor<fp16, [384]> decoder_layers_0_encoder_attn_layer_norm_weight_to_fp16 = const()[name = tensor<string, []>("decoder_layers_0_encoder_attn_layer_norm_weight_to_fp16"), val = tensor<fp16, [384]>(BLOBFILE(path = tensor<string, []>("@model_path/weights/weight.bin"), offset = tensor<uint64, []>(41361472)))];
            tensor<fp16, [384]> decoder_layers_0_encoder_attn_layer_norm_bias_to_fp16 = const()[name = tensor<string, []>("decoder_layers_0_encoder_attn_layer_norm_bias_to_fp16"), val = tensor<fp16, [384]>(BLOBFILE(path = tensor<string, []>("@model_path/weights/weight.bin"), offset = tensor<uint64, []>(41362304)))];
            tensor<fp16, [1, ?, 384]> hidden_states_5_cast_fp16 = layer_norm(axes = hidden_states_5_axes_0, beta = decoder_layers_0_encoder_attn_layer_norm_bias_to_fp16, epsilon = var_8_to_fp16, gamma = decoder_layers_0_encoder_attn_layer_norm_weight_to_fp16, x = input_15_cast_fp16)[name = tensor<string, []>("hidden_states_5_cast_fp16")];
            tensor<fp16, [384, 384]> decoder_layers_0_encoder_attn_q_proj_weight_to_fp16 = const()[name = tensor<string, []>("decoder_layers_0_encoder_attn_q_proj_weight_to_fp16"), val = tensor<fp16, [384, 384]>(BLOBFILE(path = tensor<string, []>("@model_path/weights/weight.bin"), offset = tensor<uint64, []>(41363136)))];
            tensor<fp16, [384]> decoder_layers_0_encoder_attn_q_proj_bias_to_fp16 = const()[name = tensor<string, []>("decoder_layers_0_encoder_attn_q_proj_bias_to_fp16"), val = tensor<fp16, [384]>(BLOBFILE(path = tensor<string, []>("@model_path/weights/weight.bin"), offset = tensor<uint64, []>(41658112)))];
            tensor<fp16, [1, ?, 384]> linear_4_cast_fp16 = linear(bias = decoder_layers_0_encoder_attn_q_proj_bias_to_fp16, weight = decoder_layers_0_encoder_attn_q_proj_weight_to_fp16, x = hidden_states_5_cast_fp16)[name = tensor<string, []>("linear_4_cast_fp16")];
            tensor<fp16, []> var_164_to_fp16 = const()[name = tensor<string, []>("op_164_to_fp16"), val = tensor<fp16, []>(0x1p-3)];
            tensor<fp16, [1, ?, 384]> tensor_11_cast_fp16 = mul(x = linear_4_cast_fp16, y = var_164_to_fp16)[name = tensor<string, []>("tensor_11_cast_fp16")];
            tensor<fp16, [384, 384]> decoder_layers_0_encoder_attn_k_proj_weight_to_fp16 = const()[name = tensor<string, []>("decoder_layers_0_encoder_attn_k_proj_weight_to_fp16"), val = tensor<fp16, [384, 384]>(BLOBFILE(path = tensor<string, []>("@model_path/weights/weight.bin"), offset = tensor<uint64, []>(41658944)))];
            tensor<fp16, [1, 1500, 384]> linear_5_cast_fp16 = linear(bias = linear_1_bias_0_to_fp16, weight = decoder_layers_0_encoder_attn_k_proj_weight_to_fp16, x = encoder_output)[name = tensor<string, []>("linear_5_cast_fp16")];
            tensor<int32, [4]> var_168 = const()[name = tensor<string, []>("op_168"), val = tensor<int32, [4]>([1, -1, 6, 64])];
            tensor<fp16, [1, 1500, 6, 64]> var_169_cast_fp16 = reshape(shape = var_168, x = linear_5_cast_fp16)[name = tensor<string, []>("op_169_cast_fp16")];
            tensor<int32, [4]> var_170_perm_0 = const()[name = tensor<string, []>("op_170_perm_0"), val = tensor<int32, [4]>([0, 2, 1, 3])];
            tensor<fp16, [384, 384]> decoder_layers_0_encoder_attn_v_proj_weight_to_fp16 = const()[name = tensor<string, []>("decoder_layers_0_encoder_attn_v_proj_weight_to_fp16"), val = tensor<fp16, [384, 384]>(BLOBFILE(path = tensor<string, []>("@model_path/weights/weight.bin"), offset = tensor<uint64, []>(41953920)))];
            tensor<fp16, [384]> decoder_layers_0_encoder_attn_v_proj_bias_to_fp16 = const()[name = tensor<string, []>("decoder_layers_0_encoder_attn_v_proj_bias_to_fp16"), val = tensor<fp16, [384]>(BLOBFILE(path = tensor<string, []>("@model_path/weights/weight.bin"), offset = tensor<uint64, []>(42248896)))];
            tensor<fp16, [1, 1500, 384]> linear_6_cast_fp16 = linear(bias = decoder_layers_0_encoder_attn_v_proj_bias_to_fp16, weight = decoder_layers_0_encoder_attn_v_proj_weight_to_fp16, x = encoder_output)[name = tensor<string, []>("linear_6_cast_fp16")];
            tensor<int32, [4]> var_175 = const()[name = tensor<string, []>("op_175"), val = tensor<int32, [4]>([1, -1, 6, 64])];
            tensor<fp16, [1, 1500, 6, 64]> var_176_cast_fp16 = reshape(shape = var_175, x = linear_6_cast_fp16)[name = tensor<string, []>("op_176_cast_fp16")];
            tensor<int32, [4]> var_177_perm_0 = const()[name = tensor<string, []>("op_177_perm_0"), val = tensor<int32, [4]>([0, 2, 1, 3])];
            tensor<int32, [4]> concat_10x = const()[name = tensor<string, []>("concat_10x"), val = tensor<int32, [4]>([1, -1, 6, 64])];
            tensor<fp16, [1, ?, 6, 64]> var_185_cast_fp16 = reshape(shape = concat_10x, x = tensor_11_cast_fp16)[name = tensor<string, []>("op_185_cast_fp16")];
            tensor<int32, [4]> var_186_perm_0 = const()[name = tensor<string, []>("op_186_perm_0"), val = tensor<int32, [4]>([0, 2, 1, 3])];
            tensor<int32, [3]> var_188 = const()[name = tensor<string, []>("op_188"), val = tensor<int32, [3]>([6, -1, 64])];
            tensor<fp16, [1, 6, ?, 64]> var_186_cast_fp16 = transpose(perm = var_186_perm_0, x = var_185_cast_fp16)[name = tensor<string, []>("transpose_25")];
            tensor<fp16, [6, ?, 64]> query_states_3_cast_fp16 = reshape(shape = var_188, x = var_186_cast_fp16)[name = tensor<string, []>("query_states_3_cast_fp16")];
            tensor<int32, [3]> var_190 = const()[name = tensor<string, []>("op_190"), val = tensor<int32, [3]>([6, -1, 64])];
            tensor<fp16, [1, 6, 1500, 64]> var_170_cast_fp16 = transpose(perm = var_170_perm_0, x = var_169_cast_fp16)[name = tensor<string, []>("transpose_27")];
            tensor<fp16, [6, 1500, 64]> key_states_7_cast_fp16 = reshape(shape = var_190, x = var_170_cast_fp16)[name = tensor<string, []>("key_states_7_cast_fp16")];
            tensor<int32, [3]> var_192 = const()[name = tensor<string, []>("op_192"), val = tensor<int32, [3]>([6, -1, 64])];
            tensor<fp16, [1, 6, 1500, 64]> var_177_cast_fp16 = transpose(perm = var_177_perm_0, x = var_176_cast_fp16)[name = tensor<string, []>("transpose_26")];
            tensor<fp16, [6, 1500, 64]> value_states_7_cast_fp16 = reshape(shape = var_192, x = var_177_cast_fp16)[name = tensor<string, []>("value_states_7_cast_fp16")];
            tensor<bool, []> attn_weights_7_transpose_x_1 = const()[name = tensor<string, []>("attn_weights_7_transpose_x_1"), val = tensor<bool, []>(false)];
            tensor<bool, []> attn_weights_7_transpose_y_1 = const()[name = tensor<string, []>("attn_weights_7_transpose_y_1"), val = tensor<bool, []>(true)];
            tensor<fp16, [6, ?, 1500]> attn_weights_7_cast_fp16 = matmul(transpose_x = attn_weights_7_transpose_x_1, transpose_y = attn_weights_7_transpose_y_1, x = query_states_3_cast_fp16, y = key_states_7_cast_fp16)[name = tensor<string, []>("attn_weights_7_cast_fp16")];
            tensor<fp16, [6, ?, 1500]> input_17_cast_fp16 = softmax(axis = var_22, x = attn_weights_7_cast_fp16)[name = tensor<string, []>("input_17_cast_fp16")];
            tensor<bool, []> attn_output_7_transpose_x_0 = const()[name = tensor<string, []>("attn_output_7_transpose_x_0"), val = tensor<bool, []>(false)];
            tensor<bool, []> attn_output_7_transpose_y_0 = const()[name = tensor<string, []>("attn_output_7_transpose_y_0"), val = tensor<bool, []>(false)];
            tensor<fp16, [6, ?, 64]> attn_output_7_cast_fp16 = matmul(transpose_x = attn_output_7_transpose_x_0, transpose_y = attn_output_7_transpose_y_0, x = input_17_cast_fp16, y = value_states_7_cast_fp16)[name = tensor<string, []>("attn_output_7_cast_fp16")];
            tensor<int32, [4]> concat_11x = const()[name = tensor<string, []>("concat_11x"), val = tensor<int32, [4]>([1, 6, -1, 64])];
            tensor<fp16, [1, 6, ?, 64]> attn_output_9_cast_fp16 = reshape(shape = concat_11x, x = attn_output_7_cast_fp16)[name = tensor<string, []>("attn_output_9_cast_fp16")];
            tensor<int32, [4]> attn_output_11_perm_0 = const()[name = tensor<string, []>("attn_output_11_perm_0"), val = tensor<int32, [4]>([0, 2, 1, 3])];
            tensor<int32, [3]> concat_12x = const()[name = tensor<string, []>("concat_12x"), val = tensor<int32, [3]>([1, -1, 384])];
            tensor<fp16, [1, ?, 6, 64]> attn_output_11_cast_fp16 = transpose(perm = attn_output_11_perm_0, x = attn_output_9_cast_fp16)[name = tensor<string, []>("transpose_24")];
            tensor<fp16, [1, ?, 384]> input_19_cast_fp16 = reshape(shape = concat_12x, x = attn_output_11_cast_fp16)[name = tensor<string, []>("input_19_cast_fp16")];
            tensor<fp16, [384, 384]> decoder_layers_0_encoder_attn_out_proj_weight_to_fp16 = const()[name = tensor<string, []>("decoder_layers_0_encoder_attn_out_proj_weight_to_fp16"), val = tensor<fp16, [384, 384]>(BLOBFILE(path = tensor<string, []>("@model_path/weights/weight.bin"), offset = tensor<uint64, []>(42249728)))];
            tensor<fp16, [384]> decoder_layers_0_encoder_attn_out_proj_bias_to_fp16 = const()[name = tensor<string, []>("decoder_layers_0_encoder_attn_out_proj_bias_to_fp16"), val = tensor<fp16, [384]>(BLOBFILE(path = tensor<string, []>("@model_path/weights/weight.bin"), offset = tensor<uint64, []>(42544704)))];
            tensor<fp16, [1, ?, 384]> linear_7_cast_fp16 = linear(bias = decoder_layers_0_encoder_attn_out_proj_bias_to_fp16, weight = decoder_layers_0_encoder_attn_out_proj_weight_to_fp16, x = input_19_cast_fp16)[name = tensor<string, []>("linear_7_cast_fp16")];
            tensor<fp16, [1, ?, 384]> input_23_cast_fp16 = add(x = input_15_cast_fp16, y = linear_7_cast_fp16)[name = tensor<string, []>("input_23_cast_fp16")];
            tensor<int32, [1]> input_25_axes_0 = const()[name = tensor<string, []>("input_25_axes_0"), val = tensor<int32, [1]>([-1])];
            tensor<fp16, [384]> decoder_layers_0_final_layer_norm_weight_to_fp16 = const()[name = tensor<string, []>("decoder_layers_0_final_layer_norm_weight_to_fp16"), val = tensor<fp16, [384]>(BLOBFILE(path = tensor<string, []>("@model_path/weights/weight.bin"), offset = tensor<uint64, []>(42545536)))];
            tensor<fp16, [384]> decoder_layers_0_final_layer_norm_bias_to_fp16 = const()[name = tensor<string, []>("decoder_layers_0_final_layer_norm_bias_to_fp16"), val = tensor<fp16, [384]>(BLOBFILE(path = tensor<string, []>("@model_path/weights/weight.bin"), offset = tensor<uint64, []>(42546368)))];
            tensor<fp16, [1, ?, 384]> input_25_cast_fp16 = layer_norm(axes = input_25_axes_0, beta = decoder_layers_0_final_layer_norm_bias_to_fp16, epsilon = var_8_to_fp16, gamma = decoder_layers_0_final_layer_norm_weight_to_fp16, x = input_23_cast_fp16)[name = tensor<string, []>("input_25_cast_fp16")];
            tensor<fp16, [1536, 384]> decoder_layers_0_fc1_weight_to_fp16 = const()[name = tensor<string, []>("decoder_layers_0_fc1_weight_to_fp16"), val = tensor<fp16, [1536, 384]>(BLOBFILE(path = tensor<string, []>("@model_path/weights/weight.bin"), offset = tensor<uint64, []>(42547200)))];
            tensor<fp16, [1536]> decoder_layers_0_fc1_bias_to_fp16 = const()[name = tensor<string, []>("decoder_layers_0_fc1_bias_to_fp16"), val = tensor<fp16, [1536]>(BLOBFILE(path = tensor<string, []>("@model_path/weights/weight.bin"), offset = tensor<uint64, []>(43726912)))];
            tensor<fp16, [1, ?, 1536]> linear_8_cast_fp16 = linear(bias = decoder_layers_0_fc1_bias_to_fp16, weight = decoder_layers_0_fc1_weight_to_fp16, x = input_25_cast_fp16)[name = tensor<string, []>("linear_8_cast_fp16")];
            tensor<string, []> input_29_mode_0 = const()[name = tensor<string, []>("input_29_mode_0"), val = tensor<string, []>("EXACT")];
            tensor<fp16, [1, ?, 1536]> input_29_cast_fp16 = gelu(mode = input_29_mode_0, x = linear_8_cast_fp16)[name = tensor<string, []>("input_29_cast_fp16")];
            tensor<fp16, [384, 1536]> decoder_layers_0_fc2_weight_to_fp16 = const()[name = tensor<string, []>("decoder_layers_0_fc2_weight_to_fp16"), val = tensor<fp16, [384, 1536]>(BLOBFILE(path = tensor<string, []>("@model_path/weights/weight.bin"), offset = tensor<uint64, []>(43730048)))];
            tensor<fp16, [384]> decoder_layers_0_fc2_bias_to_fp16 = const()[name = tensor<string, []>("decoder_layers_0_fc2_bias_to_fp16"), val = tensor<fp16, [384]>(BLOBFILE(path = tensor<string, []>("@model_path/weights/weight.bin"), offset = tensor<uint64, []>(44909760)))];
            tensor<fp16, [1, ?, 384]> linear_9_cast_fp16 = linear(bias = decoder_layers_0_fc2_bias_to_fp16, weight = decoder_layers_0_fc2_weight_to_fp16, x = input_29_cast_fp16)[name = tensor<string, []>("linear_9_cast_fp16")];
            tensor<fp16, [1, ?, 384]> input_35_cast_fp16 = add(x = input_23_cast_fp16, y = linear_9_cast_fp16)[name = tensor<string, []>("input_35_cast_fp16")];
            tensor<int32, [1]> hidden_states_11_axes_0 = const()[name = tensor<string, []>("hidden_states_11_axes_0"), val = tensor<int32, [1]>([-1])];
            tensor<fp16, [384]> decoder_layers_1_self_attn_layer_norm_weight_to_fp16 = const()[name = tensor<string, []>("decoder_layers_1_self_attn_layer_norm_weight_to_fp16"), val = tensor<fp16, [384]>(BLOBFILE(path = tensor<string, []>("@model_path/weights/weight.bin"), offset = tensor<uint64, []>(44910592)))];
            tensor<fp16, [384]> decoder_layers_1_self_attn_layer_norm_bias_to_fp16 = const()[name = tensor<string, []>("decoder_layers_1_self_attn_layer_norm_bias_to_fp16"), val = tensor<fp16, [384]>(BLOBFILE(path = tensor<string, []>("@model_path/weights/weight.bin"), offset = tensor<uint64, []>(44911424)))];
            tensor<fp16, [1, ?, 384]> hidden_states_11_cast_fp16 = layer_norm(axes = hidden_states_11_axes_0, beta = decoder_layers_1_self_attn_layer_norm_bias_to_fp16, epsilon = var_8_to_fp16, gamma = decoder_layers_1_self_attn_layer_norm_weight_to_fp16, x = input_35_cast_fp16)[name = tensor<string, []>("hidden_states_11_cast_fp16")];
            tensor<int32, [3]> var_238_shape_cast_fp16 = shape(x = hidden_states_11_cast_fp16)[name = tensor<string, []>("op_238_shape_cast_fp16")];
            tensor<int32, []> gather_10 = const()[name = tensor<string, []>("gather_10"), val = tensor<int32, []>(1)];
            tensor<int32, []> gather_11_axis_0 = const()[name = tensor<string, []>("gather_11_axis_0"), val = tensor<int32, []>(0)];
            tensor<int32, []> gather_11_batch_dims_0 = const()[name = tensor<string, []>("gather_11_batch_dims_0"), val = tensor<int32, []>(0)];
            tensor<bool, []> gather_11_validate_indices_0 = const()[name = tensor<string, []>("gather_11_validate_indices_0"), val = tensor<bool, []>(false)];
            tensor<string, []> var_238_shape_cast_fp16_to_uint16_dtype_0 = const()[name = tensor<string, []>("op_238_shape_cast_fp16_to_uint16_dtype_0"), val = tensor<string, []>("uint16")];
            tensor<uint16, []> gather_11_indices_0_to_uint16 = const()[name = tensor<string, []>("gather_11_indices_0_to_uint16"), val = tensor<uint16, []>(1)];
            tensor<uint16, [3]> var_238_shape_cast_fp16_to_uint16 = cast(dtype = var_238_shape_cast_fp16_to_uint16_dtype_0, x = var_238_shape_cast_fp16)[name = tensor<string, []>("cast_92")];
            tensor<uint16, []> gather_11_cast_uint16 = gather(axis = gather_11_axis_0, batch_dims = gather_11_batch_dims_0, indices = gather_11_indices_0_to_uint16, validate_indices = gather_11_validate_indices_0, x = var_238_shape_cast_fp16_to_uint16)[name = tensor<string, []>("gather_11_cast_uint16")];
            tensor<string, []> gather_11_cast_uint16_to_int32_dtype_0 = const()[name = tensor<string, []>("gather_11_cast_uint16_to_int32_dtype_0"), val = tensor<string, []>("int32")];
            tensor<fp16, [384, 384]> decoder_layers_1_self_attn_q_proj_weight_to_fp16 = const()[name = tensor<string, []>("decoder_layers_1_self_attn_q_proj_weight_to_fp16"), val = tensor<fp16, [384, 384]>(BLOBFILE(path = tensor<string, []>("@model_path/weights/weight.bin"), offset = tensor<uint64, []>(44912256)))];
            tensor<fp16, [384]> decoder_layers_1_self_attn_q_proj_bias_to_fp16 = const()[name = tensor<string, []>("decoder_layers_1_self_attn_q_proj_bias_to_fp16"), val = tensor<fp16, [384]>(BLOBFILE(path = tensor<string, []>("@model_path/weights/weight.bin"), offset = tensor<uint64, []>(45207232)))];
            tensor<fp16, [1, ?, 384]> linear_10_cast_fp16 = linear(bias = decoder_layers_1_self_attn_q_proj_bias_to_fp16, weight = decoder_layers_1_self_attn_q_proj_weight_to_fp16, x = hidden_states_11_cast_fp16)[name = tensor<string, []>("linear_10_cast_fp16")];
            tensor<fp16, []> var_244_to_fp16 = const()[name = tensor<string, []>("op_244_to_fp16"), val = tensor<fp16, []>(0x1p-3)];
            tensor<fp16, [1, ?, 384]> tensor_17_cast_fp16 = mul(x = linear_10_cast_fp16, y = var_244_to_fp16)[name = tensor<string, []>("tensor_17_cast_fp16")];
            tensor<fp16, [384, 384]> decoder_layers_1_self_attn_k_proj_weight_to_fp16 = const()[name = tensor<string, []>("decoder_layers_1_self_attn_k_proj_weight_to_fp16"), val = tensor<fp16, [384, 384]>(BLOBFILE(path = tensor<string, []>("@model_path/weights/weight.bin"), offset = tensor<uint64, []>(45208064)))];
            tensor<fp16, [1, ?, 384]> linear_11_cast_fp16 = linear(bias = linear_1_bias_0_to_fp16, weight = decoder_layers_1_self_attn_k_proj_weight_to_fp16, x = hidden_states_11_cast_fp16)[name = tensor<string, []>("linear_11_cast_fp16")];
            tensor<int32, [4]> var_248 = const()[name = tensor<string, []>("op_248"), val = tensor<int32, [4]>([1, -1, 6, 64])];
            tensor<fp16, [1, ?, 6, 64]> var_249_cast_fp16 = reshape(shape = var_248, x = linear_11_cast_fp16)[name = tensor<string, []>("op_249_cast_fp16")];
            tensor<int32, [4]> var_250_perm_0 = const()[name = tensor<string, []>("op_250_perm_0"), val = tensor<int32, [4]>([0, 2, 1, 3])];
            tensor<fp16, [384, 384]> decoder_layers_1_self_attn_v_proj_weight_to_fp16 = const()[name = tensor<string, []>("decoder_layers_1_self_attn_v_proj_weight_to_fp16"), val = tensor<fp16, [384, 384]>(BLOBFILE(path = tensor<string, []>("@model_path/weights/weight.bin"), offset = tensor<uint64, []>(45503040)))];
            tensor<fp16, [384]> decoder_layers_1_self_attn_v_proj_bias_to_fp16 = const()[name = tensor<string, []>("decoder_layers_1_self_attn_v_proj_bias_to_fp16"), val = tensor<fp16, [384]>(BLOBFILE(path = tensor<string, []>("@model_path/weights/weight.bin"), offset = tensor<uint64, []>(45798016)))];
            tensor<fp16, [1, ?, 384]> linear_12_cast_fp16 = linear(bias = decoder_layers_1_self_attn_v_proj_bias_to_fp16, weight = decoder_layers_1_self_attn_v_proj_weight_to_fp16, x = hidden_states_11_cast_fp16)[name = tensor<string, []>("linear_12_cast_fp16")];
            tensor<int32, [4]> var_255 = const()[name = tensor<string, []>("op_255"), val = tensor<int32, [4]>([1, -1, 6, 64])];
            tensor<fp16, [1, ?, 6, 64]> var_256_cast_fp16 = reshape(shape = var_255, x = linear_12_cast_fp16)[name = tensor<string, []>("op_256_cast_fp16")];
            tensor<int32, [4]> var_257_perm_0 = const()[name = tensor<string, []>("op_257_perm_0"), val = tensor<int32, [4]>([0, 2, 1, 3])];
            tensor<int32, [4]> concat_13x = const()[name = tensor<string, []>("concat_13x"), val = tensor<int32, [4]>([1, -1, 6, 64])];
            tensor<fp16, [1, ?, 6, 64]> var_265_cast_fp16 = reshape(shape = concat_13x, x = tensor_17_cast_fp16)[name = tensor<string, []>("op_265_cast_fp16")];
            tensor<int32, [4]> var_266_perm_0 = const()[name = tensor<string, []>("op_266_perm_0"), val = tensor<int32, [4]>([0, 2, 1, 3])];
            tensor<int32, [3]> var_268 = const()[name = tensor<string, []>("op_268"), val = tensor<int32, [3]>([6, -1, 64])];
            tensor<fp16, [1, 6, ?, 64]> var_266_cast_fp16 = transpose(perm = var_266_perm_0, x = var_265_cast_fp16)[name = tensor<string, []>("transpose_21")];
            tensor<fp16, [6, ?, 64]> query_states_5_cast_fp16 = reshape(shape = var_268, x = var_266_cast_fp16)[name = tensor<string, []>("query_states_5_cast_fp16")];
            tensor<int32, [3]> var_270 = const()[name = tensor<string, []>("op_270"), val = tensor<int32, [3]>([6, -1, 64])];
            tensor<fp16, [1, 6, ?, 64]> var_250_cast_fp16 = transpose(perm = var_250_perm_0, x = var_249_cast_fp16)[name = tensor<string, []>("transpose_23")];
            tensor<fp16, [6, ?, 64]> key_states_11_cast_fp16 = reshape(shape = var_270, x = var_250_cast_fp16)[name = tensor<string, []>("key_states_11_cast_fp16")];
            tensor<int32, [3]> var_272 = const()[name = tensor<string, []>("op_272"), val = tensor<int32, [3]>([6, -1, 64])];
            tensor<fp16, [1, 6, ?, 64]> var_257_cast_fp16 = transpose(perm = var_257_perm_0, x = var_256_cast_fp16)[name = tensor<string, []>("transpose_22")];
            tensor<fp16, [6, ?, 64]> value_states_11_cast_fp16 = reshape(shape = var_272, x = var_257_cast_fp16)[name = tensor<string, []>("value_states_11_cast_fp16")];
            tensor<int32, [3]> var_274_shape_cast_fp16 = shape(x = key_states_11_cast_fp16)[name = tensor<string, []>("op_274_shape_cast_fp16")];
            tensor<int32, []> gather_12_axis_0 = const()[name = tensor<string, []>("gather_12_axis_0"), val = tensor<int32, []>(0)];
            tensor<int32, []> gather_12_batch_dims_0 = const()[name = tensor<string, []>("gather_12_batch_dims_0"), val = tensor<int32, []>(0)];
            tensor<bool, []> gather_12_validate_indices_0 = const()[name = tensor<string, []>("gather_12_validate_indices_0"), val = tensor<bool, []>(false)];
            tensor<string, []> var_274_shape_cast_fp16_to_uint16_dtype_0 = const()[name = tensor<string, []>("op_274_shape_cast_fp16_to_uint16_dtype_0"), val = tensor<string, []>("uint16")];
            tensor<uint16, []> gather_12_indices_0_to_uint16 = const()[name = tensor<string, []>("gather_12_indices_0_to_uint16"), val = tensor<uint16, []>(1)];
            tensor<uint16, [3]> var_274_shape_cast_fp16_to_uint16 = cast(dtype = var_274_shape_cast_fp16_to_uint16_dtype_0, x = var_274_shape_cast_fp16)[name = tensor<string, []>("cast_90")];
            tensor<uint16, []> gather_12_cast_uint16 = gather(axis = gather_12_axis_0, batch_dims = gather_12_batch_dims_0, indices = gather_12_indices_0_to_uint16, validate_indices = gather_12_validate_indices_0, x = var_274_shape_cast_fp16_to_uint16)[name = tensor<string, []>("gather_12_cast_uint16")];
            tensor<string, []> gather_12_cast_uint16_to_int32_dtype_0 = const()[name = tensor<string, []>("gather_12_cast_uint16_to_int32_dtype_0"), val = tensor<string, []>("int32")];
            tensor<bool, []> attn_weights_11_transpose_x_1 = const()[name = tensor<string, []>("attn_weights_11_transpose_x_1"), val = tensor<bool, []>(false)];
            tensor<bool, []> attn_weights_11_transpose_y_1 = const()[name = tensor<string, []>("attn_weights_11_transpose_y_1"), val = tensor<bool, []>(true)];
            tensor<fp16, [6, ?, ?]> attn_weights_11_cast_fp16 = matmul(transpose_x = attn_weights_11_transpose_x_1, transpose_y = attn_weights_11_transpose_y_1, x = query_states_5_cast_fp16, y = key_states_11_cast_fp16)[name = tensor<string, []>("attn_weights_11_cast_fp16")];
            tensor<int32, []> concat_14_axis_0 = const()[name = tensor<string, []>("concat_14_axis_0"), val = tensor<int32, []>(0)];
            tensor<bool, []> concat_14_interleave_0 = const()[name = tensor<string, []>("concat_14_interleave_0"), val = tensor<bool, []>(false)];
            tensor<int32, []> gather_12_cast_uint16_to_int32 = cast(dtype = gather_12_cast_uint16_to_int32_dtype_0, x = gather_12_cast_uint16)[name = tensor<string, []>("cast_89")];
            tensor<int32, []> gather_11_cast_uint16_to_int32 = cast(dtype = gather_11_cast_uint16_to_int32_dtype_0, x = gather_11_cast_uint16)[name = tensor<string, []>("cast_91")];
            tensor<int32, [4]> concat_14 = concat(axis = concat_14_axis_0, interleave = concat_14_interleave_0, values = (gather_10, var_16, gather_11_cast_uint16_to_int32, gather_12_cast_uint16_to_int32))[name = tensor<string, []>("concat_14")];
            tensor<fp16, [1, 6, ?, ?]> var_278_cast_fp16 = reshape(shape = concat_14, x = attn_weights_11_cast_fp16)[name = tensor<string, []>("op_278_cast_fp16")];
            tensor<fp16, [?, 6, ?, ?]> attn_weights_13_cast_fp16 = add(x = var_278_cast_fp16, y = attention_mask_cast_fp16)[name = tensor<string, []>("attn_weights_13_cast_fp16")];
            tensor<int32, []> var_282 = const()[name = tensor<string, []>("op_282"), val = tensor<int32, []>(6)];
            tensor<int32, []> concat_15_axis_0 = const()[name = tensor<string, []>("concat_15_axis_0"), val = tensor<int32, []>(0)];
            tensor<bool, []> concat_15_interleave_0 = const()[name = tensor<string, []>("concat_15_interleave_0"), val = tensor<bool, []>(false)];
            tensor<int32, [3]> concat_15 = concat(axis = concat_15_axis_0, interleave = concat_15_interleave_0, values = (var_282, gather_11_cast_uint16_to_int32, gather_12_cast_uint16_to_int32))[name = tensor<string, []>("concat_15")];
            tensor<fp16, [6, ?, ?]> input_37_cast_fp16 = reshape(shape = concat_15, x = attn_weights_13_cast_fp16)[name = tensor<string, []>("input_37_cast_fp16")];
            tensor<fp16, [6, ?, ?]> input_39_cast_fp16 = softmax(axis = var_22, x = input_37_cast_fp16)[name = tensor<string, []>("input_39_cast_fp16")];
            tensor<bool, []> attn_output_13_transpose_x_0 = const()[name = tensor<string, []>("attn_output_13_transpose_x_0"), val = tensor<bool, []>(false)];
            tensor<bool, []> attn_output_13_transpose_y_0 = const()[name = tensor<string, []>("attn_output_13_transpose_y_0"), val = tensor<bool, []>(false)];
            tensor<fp16, [6, ?, 64]> attn_output_13_cast_fp16 = matmul(transpose_x = attn_output_13_transpose_x_0, transpose_y = attn_output_13_transpose_y_0, x = input_39_cast_fp16, y = value_states_11_cast_fp16)[name = tensor<string, []>("attn_output_13_cast_fp16")];
            tensor<int32, [4]> concat_16x = const()[name = tensor<string, []>("concat_16x"), val = tensor<int32, [4]>([1, 6, -1, 64])];
            tensor<fp16, [1, 6, ?, 64]> attn_output_15_cast_fp16 = reshape(shape = concat_16x, x = attn_output_13_cast_fp16)[name = tensor<string, []>("attn_output_15_cast_fp16")];
            tensor<int32, [4]> attn_output_17_perm_0 = const()[name = tensor<string, []>("attn_output_17_perm_0"), val = tensor<int32, [4]>([0, 2, 1, 3])];
            tensor<int32, [3]> concat_17x = const()[name = tensor<string, []>("concat_17x"), val = tensor<int32, [3]>([1, -1, 384])];
            tensor<fp16, [1, ?, 6, 64]> attn_output_17_cast_fp16 = transpose(perm = attn_output_17_perm_0, x = attn_output_15_cast_fp16)[name = tensor<string, []>("transpose_20")];
            tensor<fp16, [1, ?, 384]> input_41_cast_fp16 = reshape(shape = concat_17x, x = attn_output_17_cast_fp16)[name = tensor<string, []>("input_41_cast_fp16")];
            tensor<fp16, [384, 384]> decoder_layers_1_self_attn_out_proj_weight_to_fp16 = const()[name = tensor<string, []>("decoder_layers_1_self_attn_out_proj_weight_to_fp16"), val = tensor<fp16, [384, 384]>(BLOBFILE(path = tensor<string, []>("@model_path/weights/weight.bin"), offset = tensor<uint64, []>(45798848)))];
            tensor<fp16, [384]> decoder_layers_1_self_attn_out_proj_bias_to_fp16 = const()[name = tensor<string, []>("decoder_layers_1_self_attn_out_proj_bias_to_fp16"), val = tensor<fp16, [384]>(BLOBFILE(path = tensor<string, []>("@model_path/weights/weight.bin"), offset = tensor<uint64, []>(46093824)))];
            tensor<fp16, [1, ?, 384]> linear_13_cast_fp16 = linear(bias = decoder_layers_1_self_attn_out_proj_bias_to_fp16, weight = decoder_layers_1_self_attn_out_proj_weight_to_fp16, x = input_41_cast_fp16)[name = tensor<string, []>("linear_13_cast_fp16")];
            tensor<fp16, [1, ?, 384]> input_45_cast_fp16 = add(x = input_35_cast_fp16, y = linear_13_cast_fp16)[name = tensor<string, []>("input_45_cast_fp16")];
            tensor<int32, [1]> hidden_states_15_axes_0 = const()[name = tensor<string, []>("hidden_states_15_axes_0"), val = tensor<int32, [1]>([-1])];
            tensor<fp16, [384]> decoder_layers_1_encoder_attn_layer_norm_weight_to_fp16 = const()[name = tensor<string, []>("decoder_layers_1_encoder_attn_layer_norm_weight_to_fp16"), val = tensor<fp16, [384]>(BLOBFILE(path = tensor<string, []>("@model_path/weights/weight.bin"), offset = tensor<uint64, []>(46094656)))];
            tensor<fp16, [384]> decoder_layers_1_encoder_attn_layer_norm_bias_to_fp16 = const()[name = tensor<string, []>("decoder_layers_1_encoder_attn_layer_norm_bias_to_fp16"), val = tensor<fp16, [384]>(BLOBFILE(path = tensor<string, []>("@model_path/weights/weight.bin"), offset = tensor<uint64, []>(46095488)))];
            tensor<fp16, [1, ?, 384]> hidden_states_15_cast_fp16 = layer_norm(axes = hidden_states_15_axes_0, beta = decoder_layers_1_encoder_attn_layer_norm_bias_to_fp16, epsilon = var_8_to_fp16, gamma = decoder_layers_1_encoder_attn_layer_norm_weight_to_fp16, x = input_45_cast_fp16)[name = tensor<string, []>("hidden_states_15_cast_fp16")];
            tensor<fp16, [384, 384]> decoder_layers_1_encoder_attn_q_proj_weight_to_fp16 = const()[name = tensor<string, []>("decoder_layers_1_encoder_attn_q_proj_weight_to_fp16"), val = tensor<fp16, [384, 384]>(BLOBFILE(path = tensor<string, []>("@model_path/weights/weight.bin"), offset = tensor<uint64, []>(46096320)))];
            tensor<fp16, [384]> decoder_layers_1_encoder_attn_q_proj_bias_to_fp16 = const()[name = tensor<string, []>("decoder_layers_1_encoder_attn_q_proj_bias_to_fp16"), val = tensor<fp16, [384]>(BLOBFILE(path = tensor<string, []>("@model_path/weights/weight.bin"), offset = tensor<uint64, []>(46391296)))];
            tensor<fp16, [1, ?, 384]> linear_14_cast_fp16 = linear(bias = decoder_layers_1_encoder_attn_q_proj_bias_to_fp16, weight = decoder_layers_1_encoder_attn_q_proj_weight_to_fp16, x = hidden_states_15_cast_fp16)[name = tensor<string, []>("linear_14_cast_fp16")];
            tensor<fp16, []> var_312_to_fp16 = const()[name = tensor<string, []>("op_312_to_fp16"), val = tensor<fp16, []>(0x1p-3)];
            tensor<fp16, [1, ?, 384]> tensor_23_cast_fp16 = mul(x = linear_14_cast_fp16, y = var_312_to_fp16)[name = tensor<string, []>("tensor_23_cast_fp16")];
            tensor<fp16, [384, 384]> decoder_layers_1_encoder_attn_k_proj_weight_to_fp16 = const()[name = tensor<string, []>("decoder_layers_1_encoder_attn_k_proj_weight_to_fp16"), val = tensor<fp16, [384, 384]>(BLOBFILE(path = tensor<string, []>("@model_path/weights/weight.bin"), offset = tensor<uint64, []>(46392128)))];
            tensor<fp16, [1, 1500, 384]> linear_15_cast_fp16 = linear(bias = linear_1_bias_0_to_fp16, weight = decoder_layers_1_encoder_attn_k_proj_weight_to_fp16, x = encoder_output)[name = tensor<string, []>("linear_15_cast_fp16")];
            tensor<int32, [4]> var_316 = const()[name = tensor<string, []>("op_316"), val = tensor<int32, [4]>([1, -1, 6, 64])];
            tensor<fp16, [1, 1500, 6, 64]> var_317_cast_fp16 = reshape(shape = var_316, x = linear_15_cast_fp16)[name = tensor<string, []>("op_317_cast_fp16")];
            tensor<int32, [4]> var_318_perm_0 = const()[name = tensor<string, []>("op_318_perm_0"), val = tensor<int32, [4]>([0, 2, 1, 3])];
            tensor<fp16, [384, 384]> decoder_layers_1_encoder_attn_v_proj_weight_to_fp16 = const()[name = tensor<string, []>("decoder_layers_1_encoder_attn_v_proj_weight_to_fp16"), val = tensor<fp16, [384, 384]>(BLOBFILE(path = tensor<string, []>("@model_path/weights/weight.bin"), offset = tensor<uint64, []>(46687104)))];
            tensor<fp16, [384]> decoder_layers_1_encoder_attn_v_proj_bias_to_fp16 = const()[name = tensor<string, []>("decoder_layers_1_encoder_attn_v_proj_bias_to_fp16"), val = tensor<fp16, [384]>(BLOBFILE(path = tensor<string, []>("@model_path/weights/weight.bin"), offset = tensor<uint64, []>(46982080)))];
            tensor<fp16, [1, 1500, 384]> linear_16_cast_fp16 = linear(bias = decoder_layers_1_encoder_attn_v_proj_bias_to_fp16, weight = decoder_layers_1_encoder_attn_v_proj_weight_to_fp16, x = encoder_output)[name = tensor<string, []>("linear_16_cast_fp16")];
            tensor<int32, [4]> var_323 = const()[name = tensor<string, []>("op_323"), val = tensor<int32, [4]>([1, -1, 6, 64])];
            tensor<fp16, [1, 1500, 6, 64]> var_324_cast_fp16 = reshape(shape = var_323, x = linear_16_cast_fp16)[name = tensor<string, []>("op_324_cast_fp16")];
            tensor<int32, [4]> var_325_perm_0 = const()[name = tensor<string, []>("op_325_perm_0"), val = tensor<int32, [4]>([0, 2, 1, 3])];
            tensor<int32, [4]> concat_18x = const()[name = tensor<string, []>("concat_18x"), val = tensor<int32, [4]>([1, -1, 6, 64])];
            tensor<fp16, [1, ?, 6, 64]> var_333_cast_fp16 = reshape(shape = concat_18x, x = tensor_23_cast_fp16)[name = tensor<string, []>("op_333_cast_fp16")];
            tensor<int32, [4]> var_334_perm_0 = const()[name = tensor<string, []>("op_334_perm_0"), val = tensor<int32, [4]>([0, 2, 1, 3])];
            tensor<int32, [3]> var_336 = const()[name = tensor<string, []>("op_336"), val = tensor<int32, [3]>([6, -1, 64])];
            tensor<fp16, [1, 6, ?, 64]> var_334_cast_fp16 = transpose(perm = var_334_perm_0, x = var_333_cast_fp16)[name = tensor<string, []>("transpose_17")];
            tensor<fp16, [6, ?, 64]> query_states_7_cast_fp16 = reshape(shape = var_336, x = var_334_cast_fp16)[name = tensor<string, []>("query_states_7_cast_fp16")];
            tensor<int32, [3]> var_338 = const()[name = tensor<string, []>("op_338"), val = tensor<int32, [3]>([6, -1, 64])];
            tensor<fp16, [1, 6, 1500, 64]> var_318_cast_fp16 = transpose(perm = var_318_perm_0, x = var_317_cast_fp16)[name = tensor<string, []>("transpose_19")];
            tensor<fp16, [6, 1500, 64]> key_states_15_cast_fp16 = reshape(shape = var_338, x = var_318_cast_fp16)[name = tensor<string, []>("key_states_15_cast_fp16")];
            tensor<int32, [3]> var_340 = const()[name = tensor<string, []>("op_340"), val = tensor<int32, [3]>([6, -1, 64])];
            tensor<fp16, [1, 6, 1500, 64]> var_325_cast_fp16 = transpose(perm = var_325_perm_0, x = var_324_cast_fp16)[name = tensor<string, []>("transpose_18")];
            tensor<fp16, [6, 1500, 64]> value_states_15_cast_fp16 = reshape(shape = var_340, x = var_325_cast_fp16)[name = tensor<string, []>("value_states_15_cast_fp16")];
            tensor<bool, []> attn_weights_17_transpose_x_1 = const()[name = tensor<string, []>("attn_weights_17_transpose_x_1"), val = tensor<bool, []>(false)];
            tensor<bool, []> attn_weights_17_transpose_y_1 = const()[name = tensor<string, []>("attn_weights_17_transpose_y_1"), val = tensor<bool, []>(true)];
            tensor<fp16, [6, ?, 1500]> attn_weights_17_cast_fp16 = matmul(transpose_x = attn_weights_17_transpose_x_1, transpose_y = attn_weights_17_transpose_y_1, x = query_states_7_cast_fp16, y = key_states_15_cast_fp16)[name = tensor<string, []>("attn_weights_17_cast_fp16")];
            tensor<fp16, [6, ?, 1500]> input_47_cast_fp16 = softmax(axis = var_22, x = attn_weights_17_cast_fp16)[name = tensor<string, []>("input_47_cast_fp16")];
            tensor<bool, []> attn_output_19_transpose_x_0 = const()[name = tensor<string, []>("attn_output_19_transpose_x_0"), val = tensor<bool, []>(false)];
            tensor<bool, []> attn_output_19_transpose_y_0 = const()[name = tensor<string, []>("attn_output_19_transpose_y_0"), val = tensor<bool, []>(false)];
            tensor<fp16, [6, ?, 64]> attn_output_19_cast_fp16 = matmul(transpose_x = attn_output_19_transpose_x_0, transpose_y = attn_output_19_transpose_y_0, x = input_47_cast_fp16, y = value_states_15_cast_fp16)[name = tensor<string, []>("attn_output_19_cast_fp16")];
            tensor<int32, [4]> concat_19x = const()[name = tensor<string, []>("concat_19x"), val = tensor<int32, [4]>([1, 6, -1, 64])];
            tensor<fp16, [1, 6, ?, 64]> attn_output_21_cast_fp16 = reshape(shape = concat_19x, x = attn_output_19_cast_fp16)[name = tensor<string, []>("attn_output_21_cast_fp16")];
            tensor<int32, [4]> attn_output_23_perm_0 = const()[name = tensor<string, []>("attn_output_23_perm_0"), val = tensor<int32, [4]>([0, 2, 1, 3])];
            tensor<int32, [3]> concat_20x = const()[name = tensor<string, []>("concat_20x"), val = tensor<int32, [3]>([1, -1, 384])];
            tensor<fp16, [1, ?, 6, 64]> attn_output_23_cast_fp16 = transpose(perm = attn_output_23_perm_0, x = attn_output_21_cast_fp16)[name = tensor<string, []>("transpose_16")];
            tensor<fp16, [1, ?, 384]> input_49_cast_fp16 = reshape(shape = concat_20x, x = attn_output_23_cast_fp16)[name = tensor<string, []>("input_49_cast_fp16")];
            tensor<fp16, [384, 384]> decoder_layers_1_encoder_attn_out_proj_weight_to_fp16 = const()[name = tensor<string, []>("decoder_layers_1_encoder_attn_out_proj_weight_to_fp16"), val = tensor<fp16, [384, 384]>(BLOBFILE(path = tensor<string, []>("@model_path/weights/weight.bin"), offset = tensor<uint64, []>(46982912)))];
            tensor<fp16, [384]> decoder_layers_1_encoder_attn_out_proj_bias_to_fp16 = const()[name = tensor<string, []>("decoder_layers_1_encoder_attn_out_proj_bias_to_fp16"), val = tensor<fp16, [384]>(BLOBFILE(path = tensor<string, []>("@model_path/weights/weight.bin"), offset = tensor<uint64, []>(47277888)))];
            tensor<fp16, [1, ?, 384]> linear_17_cast_fp16 = linear(bias = decoder_layers_1_encoder_attn_out_proj_bias_to_fp16, weight = decoder_layers_1_encoder_attn_out_proj_weight_to_fp16, x = input_49_cast_fp16)[name = tensor<string, []>("linear_17_cast_fp16")];
            tensor<fp16, [1, ?, 384]> input_53_cast_fp16 = add(x = input_45_cast_fp16, y = linear_17_cast_fp16)[name = tensor<string, []>("input_53_cast_fp16")];
            tensor<int32, [1]> input_55_axes_0 = const()[name = tensor<string, []>("input_55_axes_0"), val = tensor<int32, [1]>([-1])];
            tensor<fp16, [384]> decoder_layers_1_final_layer_norm_weight_to_fp16 = const()[name = tensor<string, []>("decoder_layers_1_final_layer_norm_weight_to_fp16"), val = tensor<fp16, [384]>(BLOBFILE(path = tensor<string, []>("@model_path/weights/weight.bin"), offset = tensor<uint64, []>(47278720)))];
            tensor<fp16, [384]> decoder_layers_1_final_layer_norm_bias_to_fp16 = const()[name = tensor<string, []>("decoder_layers_1_final_layer_norm_bias_to_fp16"), val = tensor<fp16, [384]>(BLOBFILE(path = tensor<string, []>("@model_path/weights/weight.bin"), offset = tensor<uint64, []>(47279552)))];
            tensor<fp16, [1, ?, 384]> input_55_cast_fp16 = layer_norm(axes = input_55_axes_0, beta = decoder_layers_1_final_layer_norm_bias_to_fp16, epsilon = var_8_to_fp16, gamma = decoder_layers_1_final_layer_norm_weight_to_fp16, x = input_53_cast_fp16)[name = tensor<string, []>("input_55_cast_fp16")];
            tensor<fp16, [1536, 384]> decoder_layers_1_fc1_weight_to_fp16 = const()[name = tensor<string, []>("decoder_layers_1_fc1_weight_to_fp16"), val = tensor<fp16, [1536, 384]>(BLOBFILE(path = tensor<string, []>("@model_path/weights/weight.bin"), offset = tensor<uint64, []>(47280384)))];
            tensor<fp16, [1536]> decoder_layers_1_fc1_bias_to_fp16 = const()[name = tensor<string, []>("decoder_layers_1_fc1_bias_to_fp16"), val = tensor<fp16, [1536]>(BLOBFILE(path = tensor<string, []>("@model_path/weights/weight.bin"), offset = tensor<uint64, []>(48460096)))];
            tensor<fp16, [1, ?, 1536]> linear_18_cast_fp16 = linear(bias = decoder_layers_1_fc1_bias_to_fp16, weight = decoder_layers_1_fc1_weight_to_fp16, x = input_55_cast_fp16)[name = tensor<string, []>("linear_18_cast_fp16")];
            tensor<string, []> input_59_mode_0 = const()[name = tensor<string, []>("input_59_mode_0"), val = tensor<string, []>("EXACT")];
            tensor<fp16, [1, ?, 1536]> input_59_cast_fp16 = gelu(mode = input_59_mode_0, x = linear_18_cast_fp16)[name = tensor<string, []>("input_59_cast_fp16")];
            tensor<fp16, [384, 1536]> decoder_layers_1_fc2_weight_to_fp16 = const()[name = tensor<string, []>("decoder_layers_1_fc2_weight_to_fp16"), val = tensor<fp16, [384, 1536]>(BLOBFILE(path = tensor<string, []>("@model_path/weights/weight.bin"), offset = tensor<uint64, []>(48463232)))];
            tensor<fp16, [384]> decoder_layers_1_fc2_bias_to_fp16 = const()[name = tensor<string, []>("decoder_layers_1_fc2_bias_to_fp16"), val = tensor<fp16, [384]>(BLOBFILE(path = tensor<string, []>("@model_path/weights/weight.bin"), offset = tensor<uint64, []>(49642944)))];
            tensor<fp16, [1, ?, 384]> linear_19_cast_fp16 = linear(bias = decoder_layers_1_fc2_bias_to_fp16, weight = decoder_layers_1_fc2_weight_to_fp16, x = input_59_cast_fp16)[name = tensor<string, []>("linear_19_cast_fp16")];
            tensor<fp16, [1, ?, 384]> input_65_cast_fp16 = add(x = input_53_cast_fp16, y = linear_19_cast_fp16)[name = tensor<string, []>("input_65_cast_fp16")];
            tensor<int32, [1]> hidden_states_21_axes_0 = const()[name = tensor<string, []>("hidden_states_21_axes_0"), val = tensor<int32, [1]>([-1])];
            tensor<fp16, [384]> decoder_layers_2_self_attn_layer_norm_weight_to_fp16 = const()[name = tensor<string, []>("decoder_layers_2_self_attn_layer_norm_weight_to_fp16"), val = tensor<fp16, [384]>(BLOBFILE(path = tensor<string, []>("@model_path/weights/weight.bin"), offset = tensor<uint64, []>(49643776)))];
            tensor<fp16, [384]> decoder_layers_2_self_attn_layer_norm_bias_to_fp16 = const()[name = tensor<string, []>("decoder_layers_2_self_attn_layer_norm_bias_to_fp16"), val = tensor<fp16, [384]>(BLOBFILE(path = tensor<string, []>("@model_path/weights/weight.bin"), offset = tensor<uint64, []>(49644608)))];
            tensor<fp16, [1, ?, 384]> hidden_states_21_cast_fp16 = layer_norm(axes = hidden_states_21_axes_0, beta = decoder_layers_2_self_attn_layer_norm_bias_to_fp16, epsilon = var_8_to_fp16, gamma = decoder_layers_2_self_attn_layer_norm_weight_to_fp16, x = input_65_cast_fp16)[name = tensor<string, []>("hidden_states_21_cast_fp16")];
            tensor<int32, [3]> var_386_shape_cast_fp16 = shape(x = hidden_states_21_cast_fp16)[name = tensor<string, []>("op_386_shape_cast_fp16")];
            tensor<int32, []> gather_15 = const()[name = tensor<string, []>("gather_15"), val = tensor<int32, []>(1)];
            tensor<int32, []> gather_16_axis_0 = const()[name = tensor<string, []>("gather_16_axis_0"), val = tensor<int32, []>(0)];
            tensor<int32, []> gather_16_batch_dims_0 = const()[name = tensor<string, []>("gather_16_batch_dims_0"), val = tensor<int32, []>(0)];
            tensor<bool, []> gather_16_validate_indices_0 = const()[name = tensor<string, []>("gather_16_validate_indices_0"), val = tensor<bool, []>(false)];
            tensor<string, []> var_386_shape_cast_fp16_to_uint16_dtype_0 = const()[name = tensor<string, []>("op_386_shape_cast_fp16_to_uint16_dtype_0"), val = tensor<string, []>("uint16")];
            tensor<uint16, []> gather_16_indices_0_to_uint16 = const()[name = tensor<string, []>("gather_16_indices_0_to_uint16"), val = tensor<uint16, []>(1)];
            tensor<uint16, [3]> var_386_shape_cast_fp16_to_uint16 = cast(dtype = var_386_shape_cast_fp16_to_uint16_dtype_0, x = var_386_shape_cast_fp16)[name = tensor<string, []>("cast_88")];
            tensor<uint16, []> gather_16_cast_uint16 = gather(axis = gather_16_axis_0, batch_dims = gather_16_batch_dims_0, indices = gather_16_indices_0_to_uint16, validate_indices = gather_16_validate_indices_0, x = var_386_shape_cast_fp16_to_uint16)[name = tensor<string, []>("gather_16_cast_uint16")];
            tensor<string, []> gather_16_cast_uint16_to_int32_dtype_0 = const()[name = tensor<string, []>("gather_16_cast_uint16_to_int32_dtype_0"), val = tensor<string, []>("int32")];
            tensor<fp16, [384, 384]> decoder_layers_2_self_attn_q_proj_weight_to_fp16 = const()[name = tensor<string, []>("decoder_layers_2_self_attn_q_proj_weight_to_fp16"), val = tensor<fp16, [384, 384]>(BLOBFILE(path = tensor<string, []>("@model_path/weights/weight.bin"), offset = tensor<uint64, []>(49645440)))];
            tensor<fp16, [384]> decoder_layers_2_self_attn_q_proj_bias_to_fp16 = const()[name = tensor<string, []>("decoder_layers_2_self_attn_q_proj_bias_to_fp16"), val = tensor<fp16, [384]>(BLOBFILE(path = tensor<string, []>("@model_path/weights/weight.bin"), offset = tensor<uint64, []>(49940416)))];
            tensor<fp16, [1, ?, 384]> linear_20_cast_fp16 = linear(bias = decoder_layers_2_self_attn_q_proj_bias_to_fp16, weight = decoder_layers_2_self_attn_q_proj_weight_to_fp16, x = hidden_states_21_cast_fp16)[name = tensor<string, []>("linear_20_cast_fp16")];
            tensor<fp16, []> var_392_to_fp16 = const()[name = tensor<string, []>("op_392_to_fp16"), val = tensor<fp16, []>(0x1p-3)];
            tensor<fp16, [1, ?, 384]> tensor_29_cast_fp16 = mul(x = linear_20_cast_fp16, y = var_392_to_fp16)[name = tensor<string, []>("tensor_29_cast_fp16")];
            tensor<fp16, [384, 384]> decoder_layers_2_self_attn_k_proj_weight_to_fp16 = const()[name = tensor<string, []>("decoder_layers_2_self_attn_k_proj_weight_to_fp16"), val = tensor<fp16, [384, 384]>(BLOBFILE(path = tensor<string, []>("@model_path/weights/weight.bin"), offset = tensor<uint64, []>(49941248)))];
            tensor<fp16, [1, ?, 384]> linear_21_cast_fp16 = linear(bias = linear_1_bias_0_to_fp16, weight = decoder_layers_2_self_attn_k_proj_weight_to_fp16, x = hidden_states_21_cast_fp16)[name = tensor<string, []>("linear_21_cast_fp16")];
            tensor<int32, [4]> var_396 = const()[name = tensor<string, []>("op_396"), val = tensor<int32, [4]>([1, -1, 6, 64])];
            tensor<fp16, [1, ?, 6, 64]> var_397_cast_fp16 = reshape(shape = var_396, x = linear_21_cast_fp16)[name = tensor<string, []>("op_397_cast_fp16")];
            tensor<int32, [4]> var_398_perm_0 = const()[name = tensor<string, []>("op_398_perm_0"), val = tensor<int32, [4]>([0, 2, 1, 3])];
            tensor<fp16, [384, 384]> decoder_layers_2_self_attn_v_proj_weight_to_fp16 = const()[name = tensor<string, []>("decoder_layers_2_self_attn_v_proj_weight_to_fp16"), val = tensor<fp16, [384, 384]>(BLOBFILE(path = tensor<string, []>("@model_path/weights/weight.bin"), offset = tensor<uint64, []>(50236224)))];
            tensor<fp16, [384]> decoder_layers_2_self_attn_v_proj_bias_to_fp16 = const()[name = tensor<string, []>("decoder_layers_2_self_attn_v_proj_bias_to_fp16"), val = tensor<fp16, [384]>(BLOBFILE(path = tensor<string, []>("@model_path/weights/weight.bin"), offset = tensor<uint64, []>(50531200)))];
            tensor<fp16, [1, ?, 384]> linear_22_cast_fp16 = linear(bias = decoder_layers_2_self_attn_v_proj_bias_to_fp16, weight = decoder_layers_2_self_attn_v_proj_weight_to_fp16, x = hidden_states_21_cast_fp16)[name = tensor<string, []>("linear_22_cast_fp16")];
            tensor<int32, [4]> var_403 = const()[name = tensor<string, []>("op_403"), val = tensor<int32, [4]>([1, -1, 6, 64])];
            tensor<fp16, [1, ?, 6, 64]> var_404_cast_fp16 = reshape(shape = var_403, x = linear_22_cast_fp16)[name = tensor<string, []>("op_404_cast_fp16")];
            tensor<int32, [4]> var_405_perm_0 = const()[name = tensor<string, []>("op_405_perm_0"), val = tensor<int32, [4]>([0, 2, 1, 3])];
            tensor<int32, [4]> concat_21x = const()[name = tensor<string, []>("concat_21x"), val = tensor<int32, [4]>([1, -1, 6, 64])];
            tensor<fp16, [1, ?, 6, 64]> var_413_cast_fp16 = reshape(shape = concat_21x, x = tensor_29_cast_fp16)[name = tensor<string, []>("op_413_cast_fp16")];
            tensor<int32, [4]> var_414_perm_0 = const()[name = tensor<string, []>("op_414_perm_0"), val = tensor<int32, [4]>([0, 2, 1, 3])];
            tensor<int32, [3]> var_416 = const()[name = tensor<string, []>("op_416"), val = tensor<int32, [3]>([6, -1, 64])];
            tensor<fp16, [1, 6, ?, 64]> var_414_cast_fp16 = transpose(perm = var_414_perm_0, x = var_413_cast_fp16)[name = tensor<string, []>("transpose_13")];
            tensor<fp16, [6, ?, 64]> query_states_9_cast_fp16 = reshape(shape = var_416, x = var_414_cast_fp16)[name = tensor<string, []>("query_states_9_cast_fp16")];
            tensor<int32, [3]> var_418 = const()[name = tensor<string, []>("op_418"), val = tensor<int32, [3]>([6, -1, 64])];
            tensor<fp16, [1, 6, ?, 64]> var_398_cast_fp16 = transpose(perm = var_398_perm_0, x = var_397_cast_fp16)[name = tensor<string, []>("transpose_15")];
            tensor<fp16, [6, ?, 64]> key_states_19_cast_fp16 = reshape(shape = var_418, x = var_398_cast_fp16)[name = tensor<string, []>("key_states_19_cast_fp16")];
            tensor<int32, [3]> var_420 = const()[name = tensor<string, []>("op_420"), val = tensor<int32, [3]>([6, -1, 64])];
            tensor<fp16, [1, 6, ?, 64]> var_405_cast_fp16 = transpose(perm = var_405_perm_0, x = var_404_cast_fp16)[name = tensor<string, []>("transpose_14")];
            tensor<fp16, [6, ?, 64]> value_states_19_cast_fp16 = reshape(shape = var_420, x = var_405_cast_fp16)[name = tensor<string, []>("value_states_19_cast_fp16")];
            tensor<int32, [3]> var_422_shape_cast_fp16 = shape(x = key_states_19_cast_fp16)[name = tensor<string, []>("op_422_shape_cast_fp16")];
            tensor<int32, []> gather_17_axis_0 = const()[name = tensor<string, []>("gather_17_axis_0"), val = tensor<int32, []>(0)];
            tensor<int32, []> gather_17_batch_dims_0 = const()[name = tensor<string, []>("gather_17_batch_dims_0"), val = tensor<int32, []>(0)];
            tensor<bool, []> gather_17_validate_indices_0 = const()[name = tensor<string, []>("gather_17_validate_indices_0"), val = tensor<bool, []>(false)];
            tensor<string, []> var_422_shape_cast_fp16_to_uint16_dtype_0 = const()[name = tensor<string, []>("op_422_shape_cast_fp16_to_uint16_dtype_0"), val = tensor<string, []>("uint16")];
            tensor<uint16, []> gather_17_indices_0_to_uint16 = const()[name = tensor<string, []>("gather_17_indices_0_to_uint16"), val = tensor<uint16, []>(1)];
            tensor<uint16, [3]> var_422_shape_cast_fp16_to_uint16 = cast(dtype = var_422_shape_cast_fp16_to_uint16_dtype_0, x = var_422_shape_cast_fp16)[name = tensor<string, []>("cast_86")];
            tensor<uint16, []> gather_17_cast_uint16 = gather(axis = gather_17_axis_0, batch_dims = gather_17_batch_dims_0, indices = gather_17_indices_0_to_uint16, validate_indices = gather_17_validate_indices_0, x = var_422_shape_cast_fp16_to_uint16)[name = tensor<string, []>("gather_17_cast_uint16")];
            tensor<string, []> gather_17_cast_uint16_to_int32_dtype_0 = const()[name = tensor<string, []>("gather_17_cast_uint16_to_int32_dtype_0"), val = tensor<string, []>("int32")];
            tensor<bool, []> attn_weights_21_transpose_x_1 = const()[name = tensor<string, []>("attn_weights_21_transpose_x_1"), val = tensor<bool, []>(false)];
            tensor<bool, []> attn_weights_21_transpose_y_1 = const()[name = tensor<string, []>("attn_weights_21_transpose_y_1"), val = tensor<bool, []>(true)];
            tensor<fp16, [6, ?, ?]> attn_weights_21_cast_fp16 = matmul(transpose_x = attn_weights_21_transpose_x_1, transpose_y = attn_weights_21_transpose_y_1, x = query_states_9_cast_fp16, y = key_states_19_cast_fp16)[name = tensor<string, []>("attn_weights_21_cast_fp16")];
            tensor<int32, []> concat_22_axis_0 = const()[name = tensor<string, []>("concat_22_axis_0"), val = tensor<int32, []>(0)];
            tensor<bool, []> concat_22_interleave_0 = const()[name = tensor<string, []>("concat_22_interleave_0"), val = tensor<bool, []>(false)];
            tensor<int32, []> gather_17_cast_uint16_to_int32 = cast(dtype = gather_17_cast_uint16_to_int32_dtype_0, x = gather_17_cast_uint16)[name = tensor<string, []>("cast_85")];
            tensor<int32, []> gather_16_cast_uint16_to_int32 = cast(dtype = gather_16_cast_uint16_to_int32_dtype_0, x = gather_16_cast_uint16)[name = tensor<string, []>("cast_87")];
            tensor<int32, [4]> concat_22 = concat(axis = concat_22_axis_0, interleave = concat_22_interleave_0, values = (gather_15, var_16, gather_16_cast_uint16_to_int32, gather_17_cast_uint16_to_int32))[name = tensor<string, []>("concat_22")];
            tensor<fp16, [1, 6, ?, ?]> var_426_cast_fp16 = reshape(shape = concat_22, x = attn_weights_21_cast_fp16)[name = tensor<string, []>("op_426_cast_fp16")];
            tensor<fp16, [?, 6, ?, ?]> attn_weights_23_cast_fp16 = add(x = var_426_cast_fp16, y = attention_mask_cast_fp16)[name = tensor<string, []>("attn_weights_23_cast_fp16")];
            tensor<int32, []> var_430 = const()[name = tensor<string, []>("op_430"), val = tensor<int32, []>(6)];
            tensor<int32, []> concat_23_axis_0 = const()[name = tensor<string, []>("concat_23_axis_0"), val = tensor<int32, []>(0)];
            tensor<bool, []> concat_23_interleave_0 = const()[name = tensor<string, []>("concat_23_interleave_0"), val = tensor<bool, []>(false)];
            tensor<int32, [3]> concat_23 = concat(axis = concat_23_axis_0, interleave = concat_23_interleave_0, values = (var_430, gather_16_cast_uint16_to_int32, gather_17_cast_uint16_to_int32))[name = tensor<string, []>("concat_23")];
            tensor<fp16, [6, ?, ?]> input_67_cast_fp16 = reshape(shape = concat_23, x = attn_weights_23_cast_fp16)[name = tensor<string, []>("input_67_cast_fp16")];
            tensor<fp16, [6, ?, ?]> input_69_cast_fp16 = softmax(axis = var_22, x = input_67_cast_fp16)[name = tensor<string, []>("input_69_cast_fp16")];
            tensor<bool, []> attn_output_25_transpose_x_0 = const()[name = tensor<string, []>("attn_output_25_transpose_x_0"), val = tensor<bool, []>(false)];
            tensor<bool, []> attn_output_25_transpose_y_0 = const()[name = tensor<string, []>("attn_output_25_transpose_y_0"), val = tensor<bool, []>(false)];
            tensor<fp16, [6, ?, 64]> attn_output_25_cast_fp16 = matmul(transpose_x = attn_output_25_transpose_x_0, transpose_y = attn_output_25_transpose_y_0, x = input_69_cast_fp16, y = value_states_19_cast_fp16)[name = tensor<string, []>("attn_output_25_cast_fp16")];
            tensor<int32, [4]> concat_24x = const()[name = tensor<string, []>("concat_24x"), val = tensor<int32, [4]>([1, 6, -1, 64])];
            tensor<fp16, [1, 6, ?, 64]> attn_output_27_cast_fp16 = reshape(shape = concat_24x, x = attn_output_25_cast_fp16)[name = tensor<string, []>("attn_output_27_cast_fp16")];
            tensor<int32, [4]> attn_output_29_perm_0 = const()[name = tensor<string, []>("attn_output_29_perm_0"), val = tensor<int32, [4]>([0, 2, 1, 3])];
            tensor<int32, [3]> concat_25x = const()[name = tensor<string, []>("concat_25x"), val = tensor<int32, [3]>([1, -1, 384])];
            tensor<fp16, [1, ?, 6, 64]> attn_output_29_cast_fp16 = transpose(perm = attn_output_29_perm_0, x = attn_output_27_cast_fp16)[name = tensor<string, []>("transpose_12")];
            tensor<fp16, [1, ?, 384]> input_71_cast_fp16 = reshape(shape = concat_25x, x = attn_output_29_cast_fp16)[name = tensor<string, []>("input_71_cast_fp16")];
            tensor<fp16, [384, 384]> decoder_layers_2_self_attn_out_proj_weight_to_fp16 = const()[name = tensor<string, []>("decoder_layers_2_self_attn_out_proj_weight_to_fp16"), val = tensor<fp16, [384, 384]>(BLOBFILE(path = tensor<string, []>("@model_path/weights/weight.bin"), offset = tensor<uint64, []>(50532032)))];
            tensor<fp16, [384]> decoder_layers_2_self_attn_out_proj_bias_to_fp16 = const()[name = tensor<string, []>("decoder_layers_2_self_attn_out_proj_bias_to_fp16"), val = tensor<fp16, [384]>(BLOBFILE(path = tensor<string, []>("@model_path/weights/weight.bin"), offset = tensor<uint64, []>(50827008)))];
            tensor<fp16, [1, ?, 384]> linear_23_cast_fp16 = linear(bias = decoder_layers_2_self_attn_out_proj_bias_to_fp16, weight = decoder_layers_2_self_attn_out_proj_weight_to_fp16, x = input_71_cast_fp16)[name = tensor<string, []>("linear_23_cast_fp16")];
            tensor<fp16, [1, ?, 384]> input_75_cast_fp16 = add(x = input_65_cast_fp16, y = linear_23_cast_fp16)[name = tensor<string, []>("input_75_cast_fp16")];
            tensor<int32, [1]> hidden_states_25_axes_0 = const()[name = tensor<string, []>("hidden_states_25_axes_0"), val = tensor<int32, [1]>([-1])];
            tensor<fp16, [384]> decoder_layers_2_encoder_attn_layer_norm_weight_to_fp16 = const()[name = tensor<string, []>("decoder_layers_2_encoder_attn_layer_norm_weight_to_fp16"), val = tensor<fp16, [384]>(BLOBFILE(path = tensor<string, []>("@model_path/weights/weight.bin"), offset = tensor<uint64, []>(50827840)))];
            tensor<fp16, [384]> decoder_layers_2_encoder_attn_layer_norm_bias_to_fp16 = const()[name = tensor<string, []>("decoder_layers_2_encoder_attn_layer_norm_bias_to_fp16"), val = tensor<fp16, [384]>(BLOBFILE(path = tensor<string, []>("@model_path/weights/weight.bin"), offset = tensor<uint64, []>(50828672)))];
            tensor<fp16, [1, ?, 384]> hidden_states_25_cast_fp16 = layer_norm(axes = hidden_states_25_axes_0, beta = decoder_layers_2_encoder_attn_layer_norm_bias_to_fp16, epsilon = var_8_to_fp16, gamma = decoder_layers_2_encoder_attn_layer_norm_weight_to_fp16, x = input_75_cast_fp16)[name = tensor<string, []>("hidden_states_25_cast_fp16")];
            tensor<fp16, [384, 384]> decoder_layers_2_encoder_attn_q_proj_weight_to_fp16 = const()[name = tensor<string, []>("decoder_layers_2_encoder_attn_q_proj_weight_to_fp16"), val = tensor<fp16, [384, 384]>(BLOBFILE(path = tensor<string, []>("@model_path/weights/weight.bin"), offset = tensor<uint64, []>(50829504)))];
            tensor<fp16, [384]> decoder_layers_2_encoder_attn_q_proj_bias_to_fp16 = const()[name = tensor<string, []>("decoder_layers_2_encoder_attn_q_proj_bias_to_fp16"), val = tensor<fp16, [384]>(BLOBFILE(path = tensor<string, []>("@model_path/weights/weight.bin"), offset = tensor<uint64, []>(51124480)))];
            tensor<fp16, [1, ?, 384]> linear_24_cast_fp16 = linear(bias = decoder_layers_2_encoder_attn_q_proj_bias_to_fp16, weight = decoder_layers_2_encoder_attn_q_proj_weight_to_fp16, x = hidden_states_25_cast_fp16)[name = tensor<string, []>("linear_24_cast_fp16")];
            tensor<fp16, []> var_460_to_fp16 = const()[name = tensor<string, []>("op_460_to_fp16"), val = tensor<fp16, []>(0x1p-3)];
            tensor<fp16, [1, ?, 384]> tensor_35_cast_fp16 = mul(x = linear_24_cast_fp16, y = var_460_to_fp16)[name = tensor<string, []>("tensor_35_cast_fp16")];
            tensor<fp16, [384, 384]> decoder_layers_2_encoder_attn_k_proj_weight_to_fp16 = const()[name = tensor<string, []>("decoder_layers_2_encoder_attn_k_proj_weight_to_fp16"), val = tensor<fp16, [384, 384]>(BLOBFILE(path = tensor<string, []>("@model_path/weights/weight.bin"), offset = tensor<uint64, []>(51125312)))];
            tensor<fp16, [1, 1500, 384]> linear_25_cast_fp16 = linear(bias = linear_1_bias_0_to_fp16, weight = decoder_layers_2_encoder_attn_k_proj_weight_to_fp16, x = encoder_output)[name = tensor<string, []>("linear_25_cast_fp16")];
            tensor<int32, [4]> var_464 = const()[name = tensor<string, []>("op_464"), val = tensor<int32, [4]>([1, -1, 6, 64])];
            tensor<fp16, [1, 1500, 6, 64]> var_465_cast_fp16 = reshape(shape = var_464, x = linear_25_cast_fp16)[name = tensor<string, []>("op_465_cast_fp16")];
            tensor<int32, [4]> var_466_perm_0 = const()[name = tensor<string, []>("op_466_perm_0"), val = tensor<int32, [4]>([0, 2, 1, 3])];
            tensor<fp16, [384, 384]> decoder_layers_2_encoder_attn_v_proj_weight_to_fp16 = const()[name = tensor<string, []>("decoder_layers_2_encoder_attn_v_proj_weight_to_fp16"), val = tensor<fp16, [384, 384]>(BLOBFILE(path = tensor<string, []>("@model_path/weights/weight.bin"), offset = tensor<uint64, []>(51420288)))];
            tensor<fp16, [384]> decoder_layers_2_encoder_attn_v_proj_bias_to_fp16 = const()[name = tensor<string, []>("decoder_layers_2_encoder_attn_v_proj_bias_to_fp16"), val = tensor<fp16, [384]>(BLOBFILE(path = tensor<string, []>("@model_path/weights/weight.bin"), offset = tensor<uint64, []>(51715264)))];
            tensor<fp16, [1, 1500, 384]> linear_26_cast_fp16 = linear(bias = decoder_layers_2_encoder_attn_v_proj_bias_to_fp16, weight = decoder_layers_2_encoder_attn_v_proj_weight_to_fp16, x = encoder_output)[name = tensor<string, []>("linear_26_cast_fp16")];
            tensor<int32, [4]> var_471 = const()[name = tensor<string, []>("op_471"), val = tensor<int32, [4]>([1, -1, 6, 64])];
            tensor<fp16, [1, 1500, 6, 64]> var_472_cast_fp16 = reshape(shape = var_471, x = linear_26_cast_fp16)[name = tensor<string, []>("op_472_cast_fp16")];
            tensor<int32, [4]> var_473_perm_0 = const()[name = tensor<string, []>("op_473_perm_0"), val = tensor<int32, [4]>([0, 2, 1, 3])];
            tensor<int32, [4]> concat_26x = const()[name = tensor<string, []>("concat_26x"), val = tensor<int32, [4]>([1, -1, 6, 64])];
            tensor<fp16, [1, ?, 6, 64]> var_481_cast_fp16 = reshape(shape = concat_26x, x = tensor_35_cast_fp16)[name = tensor<string, []>("op_481_cast_fp16")];
            tensor<int32, [4]> var_482_perm_0 = const()[name = tensor<string, []>("op_482_perm_0"), val = tensor<int32, [4]>([0, 2, 1, 3])];
            tensor<int32, [3]> var_484 = const()[name = tensor<string, []>("op_484"), val = tensor<int32, [3]>([6, -1, 64])];
            tensor<fp16, [1, 6, ?, 64]> var_482_cast_fp16 = transpose(perm = var_482_perm_0, x = var_481_cast_fp16)[name = tensor<string, []>("transpose_9")];
            tensor<fp16, [6, ?, 64]> query_states_11_cast_fp16 = reshape(shape = var_484, x = var_482_cast_fp16)[name = tensor<string, []>("query_states_11_cast_fp16")];
            tensor<int32, [3]> var_486 = const()[name = tensor<string, []>("op_486"), val = tensor<int32, [3]>([6, -1, 64])];
            tensor<fp16, [1, 6, 1500, 64]> var_466_cast_fp16 = transpose(perm = var_466_perm_0, x = var_465_cast_fp16)[name = tensor<string, []>("transpose_11")];
            tensor<fp16, [6, 1500, 64]> key_states_23_cast_fp16 = reshape(shape = var_486, x = var_466_cast_fp16)[name = tensor<string, []>("key_states_23_cast_fp16")];
            tensor<int32, [3]> var_488 = const()[name = tensor<string, []>("op_488"), val = tensor<int32, [3]>([6, -1, 64])];
            tensor<fp16, [1, 6, 1500, 64]> var_473_cast_fp16 = transpose(perm = var_473_perm_0, x = var_472_cast_fp16)[name = tensor<string, []>("transpose_10")];
            tensor<fp16, [6, 1500, 64]> value_states_23_cast_fp16 = reshape(shape = var_488, x = var_473_cast_fp16)[name = tensor<string, []>("value_states_23_cast_fp16")];
            tensor<bool, []> attn_weights_27_transpose_x_1 = const()[name = tensor<string, []>("attn_weights_27_transpose_x_1"), val = tensor<bool, []>(false)];
            tensor<bool, []> attn_weights_27_transpose_y_1 = const()[name = tensor<string, []>("attn_weights_27_transpose_y_1"), val = tensor<bool, []>(true)];
            tensor<fp16, [6, ?, 1500]> attn_weights_27_cast_fp16 = matmul(transpose_x = attn_weights_27_transpose_x_1, transpose_y = attn_weights_27_transpose_y_1, x = query_states_11_cast_fp16, y = key_states_23_cast_fp16)[name = tensor<string, []>("attn_weights_27_cast_fp16")];
            tensor<fp16, [6, ?, 1500]> input_77_cast_fp16 = softmax(axis = var_22, x = attn_weights_27_cast_fp16)[name = tensor<string, []>("input_77_cast_fp16")];
            tensor<bool, []> attn_output_31_transpose_x_0 = const()[name = tensor<string, []>("attn_output_31_transpose_x_0"), val = tensor<bool, []>(false)];
            tensor<bool, []> attn_output_31_transpose_y_0 = const()[name = tensor<string, []>("attn_output_31_transpose_y_0"), val = tensor<bool, []>(false)];
            tensor<fp16, [6, ?, 64]> attn_output_31_cast_fp16 = matmul(transpose_x = attn_output_31_transpose_x_0, transpose_y = attn_output_31_transpose_y_0, x = input_77_cast_fp16, y = value_states_23_cast_fp16)[name = tensor<string, []>("attn_output_31_cast_fp16")];
            tensor<int32, [4]> concat_27x = const()[name = tensor<string, []>("concat_27x"), val = tensor<int32, [4]>([1, 6, -1, 64])];
            tensor<fp16, [1, 6, ?, 64]> attn_output_33_cast_fp16 = reshape(shape = concat_27x, x = attn_output_31_cast_fp16)[name = tensor<string, []>("attn_output_33_cast_fp16")];
            tensor<int32, [4]> attn_output_35_perm_0 = const()[name = tensor<string, []>("attn_output_35_perm_0"), val = tensor<int32, [4]>([0, 2, 1, 3])];
            tensor<int32, [3]> concat_28x = const()[name = tensor<string, []>("concat_28x"), val = tensor<int32, [3]>([1, -1, 384])];
            tensor<fp16, [1, ?, 6, 64]> attn_output_35_cast_fp16 = transpose(perm = attn_output_35_perm_0, x = attn_output_33_cast_fp16)[name = tensor<string, []>("transpose_8")];
            tensor<fp16, [1, ?, 384]> input_79_cast_fp16 = reshape(shape = concat_28x, x = attn_output_35_cast_fp16)[name = tensor<string, []>("input_79_cast_fp16")];
            tensor<fp16, [384, 384]> decoder_layers_2_encoder_attn_out_proj_weight_to_fp16 = const()[name = tensor<string, []>("decoder_layers_2_encoder_attn_out_proj_weight_to_fp16"), val = tensor<fp16, [384, 384]>(BLOBFILE(path = tensor<string, []>("@model_path/weights/weight.bin"), offset = tensor<uint64, []>(51716096)))];
            tensor<fp16, [384]> decoder_layers_2_encoder_attn_out_proj_bias_to_fp16 = const()[name = tensor<string, []>("decoder_layers_2_encoder_attn_out_proj_bias_to_fp16"), val = tensor<fp16, [384]>(BLOBFILE(path = tensor<string, []>("@model_path/weights/weight.bin"), offset = tensor<uint64, []>(52011072)))];
            tensor<fp16, [1, ?, 384]> linear_27_cast_fp16 = linear(bias = decoder_layers_2_encoder_attn_out_proj_bias_to_fp16, weight = decoder_layers_2_encoder_attn_out_proj_weight_to_fp16, x = input_79_cast_fp16)[name = tensor<string, []>("linear_27_cast_fp16")];
            tensor<fp16, [1, ?, 384]> input_83_cast_fp16 = add(x = input_75_cast_fp16, y = linear_27_cast_fp16)[name = tensor<string, []>("input_83_cast_fp16")];
            tensor<int32, [1]> input_85_axes_0 = const()[name = tensor<string, []>("input_85_axes_0"), val = tensor<int32, [1]>([-1])];
            tensor<fp16, [384]> decoder_layers_2_final_layer_norm_weight_to_fp16 = const()[name = tensor<string, []>("decoder_layers_2_final_layer_norm_weight_to_fp16"), val = tensor<fp16, [384]>(BLOBFILE(path = tensor<string, []>("@model_path/weights/weight.bin"), offset = tensor<uint64, []>(52011904)))];
            tensor<fp16, [384]> decoder_layers_2_final_layer_norm_bias_to_fp16 = const()[name = tensor<string, []>("decoder_layers_2_final_layer_norm_bias_to_fp16"), val = tensor<fp16, [384]>(BLOBFILE(path = tensor<string, []>("@model_path/weights/weight.bin"), offset = tensor<uint64, []>(52012736)))];
            tensor<fp16, [1, ?, 384]> input_85_cast_fp16 = layer_norm(axes = input_85_axes_0, beta = decoder_layers_2_final_layer_norm_bias_to_fp16, epsilon = var_8_to_fp16, gamma = decoder_layers_2_final_layer_norm_weight_to_fp16, x = input_83_cast_fp16)[name = tensor<string, []>("input_85_cast_fp16")];
            tensor<fp16, [1536, 384]> decoder_layers_2_fc1_weight_to_fp16 = const()[name = tensor<string, []>("decoder_layers_2_fc1_weight_to_fp16"), val = tensor<fp16, [1536, 384]>(BLOBFILE(path = tensor<string, []>("@model_path/weights/weight.bin"), offset = tensor<uint64, []>(52013568)))];
            tensor<fp16, [1536]> decoder_layers_2_fc1_bias_to_fp16 = const()[name = tensor<string, []>("decoder_layers_2_fc1_bias_to_fp16"), val = tensor<fp16, [1536]>(BLOBFILE(path = tensor<string, []>("@model_path/weights/weight.bin"), offset = tensor<uint64, []>(53193280)))];
            tensor<fp16, [1, ?, 1536]> linear_28_cast_fp16 = linear(bias = decoder_layers_2_fc1_bias_to_fp16, weight = decoder_layers_2_fc1_weight_to_fp16, x = input_85_cast_fp16)[name = tensor<string, []>("linear_28_cast_fp16")];
            tensor<string, []> input_89_mode_0 = const()[name = tensor<string, []>("input_89_mode_0"), val = tensor<string, []>("EXACT")];
            tensor<fp16, [1, ?, 1536]> input_89_cast_fp16 = gelu(mode = input_89_mode_0, x = linear_28_cast_fp16)[name = tensor<string, []>("input_89_cast_fp16")];
            tensor<fp16, [384, 1536]> decoder_layers_2_fc2_weight_to_fp16 = const()[name = tensor<string, []>("decoder_layers_2_fc2_weight_to_fp16"), val = tensor<fp16, [384, 1536]>(BLOBFILE(path = tensor<string, []>("@model_path/weights/weight.bin"), offset = tensor<uint64, []>(53196416)))];
            tensor<fp16, [384]> decoder_layers_2_fc2_bias_to_fp16 = const()[name = tensor<string, []>("decoder_layers_2_fc2_bias_to_fp16"), val = tensor<fp16, [384]>(BLOBFILE(path = tensor<string, []>("@model_path/weights/weight.bin"), offset = tensor<uint64, []>(54376128)))];
            tensor<fp16, [1, ?, 384]> linear_29_cast_fp16 = linear(bias = decoder_layers_2_fc2_bias_to_fp16, weight = decoder_layers_2_fc2_weight_to_fp16, x = input_89_cast_fp16)[name = tensor<string, []>("linear_29_cast_fp16")];
            tensor<fp16, [1, ?, 384]> input_95_cast_fp16 = add(x = input_83_cast_fp16, y = linear_29_cast_fp16)[name = tensor<string, []>("input_95_cast_fp16")];
            tensor<int32, [1]> hidden_states_31_axes_0 = const()[name = tensor<string, []>("hidden_states_31_axes_0"), val = tensor<int32, [1]>([-1])];
            tensor<fp16, [384]> decoder_layers_3_self_attn_layer_norm_weight_to_fp16 = const()[name = tensor<string, []>("decoder_layers_3_self_attn_layer_norm_weight_to_fp16"), val = tensor<fp16, [384]>(BLOBFILE(path = tensor<string, []>("@model_path/weights/weight.bin"), offset = tensor<uint64, []>(54376960)))];
            tensor<fp16, [384]> decoder_layers_3_self_attn_layer_norm_bias_to_fp16 = const()[name = tensor<string, []>("decoder_layers_3_self_attn_layer_norm_bias_to_fp16"), val = tensor<fp16, [384]>(BLOBFILE(path = tensor<string, []>("@model_path/weights/weight.bin"), offset = tensor<uint64, []>(54377792)))];
            tensor<fp16, [1, ?, 384]> hidden_states_31_cast_fp16 = layer_norm(axes = hidden_states_31_axes_0, beta = decoder_layers_3_self_attn_layer_norm_bias_to_fp16, epsilon = var_8_to_fp16, gamma = decoder_layers_3_self_attn_layer_norm_weight_to_fp16, x = input_95_cast_fp16)[name = tensor<string, []>("hidden_states_31_cast_fp16")];
            tensor<int32, [3]> var_534_shape_cast_fp16 = shape(x = hidden_states_31_cast_fp16)[name = tensor<string, []>("op_534_shape_cast_fp16")];
            tensor<int32, []> gather_20 = const()[name = tensor<string, []>("gather_20"), val = tensor<int32, []>(1)];
            tensor<int32, []> gather_21_axis_0 = const()[name = tensor<string, []>("gather_21_axis_0"), val = tensor<int32, []>(0)];
            tensor<int32, []> gather_21_batch_dims_0 = const()[name = tensor<string, []>("gather_21_batch_dims_0"), val = tensor<int32, []>(0)];
            tensor<bool, []> gather_21_validate_indices_0 = const()[name = tensor<string, []>("gather_21_validate_indices_0"), val = tensor<bool, []>(false)];
            tensor<string, []> var_534_shape_cast_fp16_to_uint16_dtype_0 = const()[name = tensor<string, []>("op_534_shape_cast_fp16_to_uint16_dtype_0"), val = tensor<string, []>("uint16")];
            tensor<uint16, []> gather_21_indices_0_to_uint16 = const()[name = tensor<string, []>("gather_21_indices_0_to_uint16"), val = tensor<uint16, []>(1)];
            tensor<uint16, [3]> var_534_shape_cast_fp16_to_uint16 = cast(dtype = var_534_shape_cast_fp16_to_uint16_dtype_0, x = var_534_shape_cast_fp16)[name = tensor<string, []>("cast_84")];
            tensor<uint16, []> gather_21_cast_uint16 = gather(axis = gather_21_axis_0, batch_dims = gather_21_batch_dims_0, indices = gather_21_indices_0_to_uint16, validate_indices = gather_21_validate_indices_0, x = var_534_shape_cast_fp16_to_uint16)[name = tensor<string, []>("gather_21_cast_uint16")];
            tensor<string, []> gather_21_cast_uint16_to_int32_dtype_0 = const()[name = tensor<string, []>("gather_21_cast_uint16_to_int32_dtype_0"), val = tensor<string, []>("int32")];
            tensor<fp16, [384, 384]> decoder_layers_3_self_attn_q_proj_weight_to_fp16 = const()[name = tensor<string, []>("decoder_layers_3_self_attn_q_proj_weight_to_fp16"), val = tensor<fp16, [384, 384]>(BLOBFILE(path = tensor<string, []>("@model_path/weights/weight.bin"), offset = tensor<uint64, []>(54378624)))];
            tensor<fp16, [384]> decoder_layers_3_self_attn_q_proj_bias_to_fp16 = const()[name = tensor<string, []>("decoder_layers_3_self_attn_q_proj_bias_to_fp16"), val = tensor<fp16, [384]>(BLOBFILE(path = tensor<string, []>("@model_path/weights/weight.bin"), offset = tensor<uint64, []>(54673600)))];
            tensor<fp16, [1, ?, 384]> linear_30_cast_fp16 = linear(bias = decoder_layers_3_self_attn_q_proj_bias_to_fp16, weight = decoder_layers_3_self_attn_q_proj_weight_to_fp16, x = hidden_states_31_cast_fp16)[name = tensor<string, []>("linear_30_cast_fp16")];
            tensor<fp16, []> var_540_to_fp16 = const()[name = tensor<string, []>("op_540_to_fp16"), val = tensor<fp16, []>(0x1p-3)];
            tensor<fp16, [1, ?, 384]> tensor_41_cast_fp16 = mul(x = linear_30_cast_fp16, y = var_540_to_fp16)[name = tensor<string, []>("tensor_41_cast_fp16")];
            tensor<fp16, [384, 384]> decoder_layers_3_self_attn_k_proj_weight_to_fp16 = const()[name = tensor<string, []>("decoder_layers_3_self_attn_k_proj_weight_to_fp16"), val = tensor<fp16, [384, 384]>(BLOBFILE(path = tensor<string, []>("@model_path/weights/weight.bin"), offset = tensor<uint64, []>(54674432)))];
            tensor<fp16, [1, ?, 384]> linear_31_cast_fp16 = linear(bias = linear_1_bias_0_to_fp16, weight = decoder_layers_3_self_attn_k_proj_weight_to_fp16, x = hidden_states_31_cast_fp16)[name = tensor<string, []>("linear_31_cast_fp16")];
            tensor<int32, [4]> var_544 = const()[name = tensor<string, []>("op_544"), val = tensor<int32, [4]>([1, -1, 6, 64])];
            tensor<fp16, [1, ?, 6, 64]> var_545_cast_fp16 = reshape(shape = var_544, x = linear_31_cast_fp16)[name = tensor<string, []>("op_545_cast_fp16")];
            tensor<int32, [4]> var_546_perm_0 = const()[name = tensor<string, []>("op_546_perm_0"), val = tensor<int32, [4]>([0, 2, 1, 3])];
            tensor<fp16, [384, 384]> decoder_layers_3_self_attn_v_proj_weight_to_fp16 = const()[name = tensor<string, []>("decoder_layers_3_self_attn_v_proj_weight_to_fp16"), val = tensor<fp16, [384, 384]>(BLOBFILE(path = tensor<string, []>("@model_path/weights/weight.bin"), offset = tensor<uint64, []>(54969408)))];
            tensor<fp16, [384]> decoder_layers_3_self_attn_v_proj_bias_to_fp16 = const()[name = tensor<string, []>("decoder_layers_3_self_attn_v_proj_bias_to_fp16"), val = tensor<fp16, [384]>(BLOBFILE(path = tensor<string, []>("@model_path/weights/weight.bin"), offset = tensor<uint64, []>(55264384)))];
            tensor<fp16, [1, ?, 384]> linear_32_cast_fp16 = linear(bias = decoder_layers_3_self_attn_v_proj_bias_to_fp16, weight = decoder_layers_3_self_attn_v_proj_weight_to_fp16, x = hidden_states_31_cast_fp16)[name = tensor<string, []>("linear_32_cast_fp16")];
            tensor<int32, [4]> var_551 = const()[name = tensor<string, []>("op_551"), val = tensor<int32, [4]>([1, -1, 6, 64])];
            tensor<fp16, [1, ?, 6, 64]> var_552_cast_fp16 = reshape(shape = var_551, x = linear_32_cast_fp16)[name = tensor<string, []>("op_552_cast_fp16")];
            tensor<int32, [4]> var_553_perm_0 = const()[name = tensor<string, []>("op_553_perm_0"), val = tensor<int32, [4]>([0, 2, 1, 3])];
            tensor<int32, [4]> concat_29x = const()[name = tensor<string, []>("concat_29x"), val = tensor<int32, [4]>([1, -1, 6, 64])];
            tensor<fp16, [1, ?, 6, 64]> var_561_cast_fp16 = reshape(shape = concat_29x, x = tensor_41_cast_fp16)[name = tensor<string, []>("op_561_cast_fp16")];
            tensor<int32, [4]> var_562_perm_0 = const()[name = tensor<string, []>("op_562_perm_0"), val = tensor<int32, [4]>([0, 2, 1, 3])];
            tensor<int32, [3]> var_564 = const()[name = tensor<string, []>("op_564"), val = tensor<int32, [3]>([6, -1, 64])];
            tensor<fp16, [1, 6, ?, 64]> var_562_cast_fp16 = transpose(perm = var_562_perm_0, x = var_561_cast_fp16)[name = tensor<string, []>("transpose_5")];
            tensor<fp16, [6, ?, 64]> query_states_13_cast_fp16 = reshape(shape = var_564, x = var_562_cast_fp16)[name = tensor<string, []>("query_states_13_cast_fp16")];
            tensor<int32, [3]> var_566 = const()[name = tensor<string, []>("op_566"), val = tensor<int32, [3]>([6, -1, 64])];
            tensor<fp16, [1, 6, ?, 64]> var_546_cast_fp16 = transpose(perm = var_546_perm_0, x = var_545_cast_fp16)[name = tensor<string, []>("transpose_7")];
            tensor<fp16, [6, ?, 64]> key_states_27_cast_fp16 = reshape(shape = var_566, x = var_546_cast_fp16)[name = tensor<string, []>("key_states_27_cast_fp16")];
            tensor<int32, [3]> var_568 = const()[name = tensor<string, []>("op_568"), val = tensor<int32, [3]>([6, -1, 64])];
            tensor<fp16, [1, 6, ?, 64]> var_553_cast_fp16 = transpose(perm = var_553_perm_0, x = var_552_cast_fp16)[name = tensor<string, []>("transpose_6")];
            tensor<fp16, [6, ?, 64]> value_states_27_cast_fp16 = reshape(shape = var_568, x = var_553_cast_fp16)[name = tensor<string, []>("value_states_27_cast_fp16")];
            tensor<int32, [3]> var_570_shape_cast_fp16 = shape(x = key_states_27_cast_fp16)[name = tensor<string, []>("op_570_shape_cast_fp16")];
            tensor<int32, []> gather_22_axis_0 = const()[name = tensor<string, []>("gather_22_axis_0"), val = tensor<int32, []>(0)];
            tensor<int32, []> gather_22_batch_dims_0 = const()[name = tensor<string, []>("gather_22_batch_dims_0"), val = tensor<int32, []>(0)];
            tensor<bool, []> gather_22_validate_indices_0 = const()[name = tensor<string, []>("gather_22_validate_indices_0"), val = tensor<bool, []>(false)];
            tensor<string, []> var_570_shape_cast_fp16_to_uint16_dtype_0 = const()[name = tensor<string, []>("op_570_shape_cast_fp16_to_uint16_dtype_0"), val = tensor<string, []>("uint16")];
            tensor<uint16, []> gather_22_indices_0_to_uint16 = const()[name = tensor<string, []>("gather_22_indices_0_to_uint16"), val = tensor<uint16, []>(1)];
            tensor<uint16, [3]> var_570_shape_cast_fp16_to_uint16 = cast(dtype = var_570_shape_cast_fp16_to_uint16_dtype_0, x = var_570_shape_cast_fp16)[name = tensor<string, []>("cast_82")];
            tensor<uint16, []> gather_22_cast_uint16 = gather(axis = gather_22_axis_0, batch_dims = gather_22_batch_dims_0, indices = gather_22_indices_0_to_uint16, validate_indices = gather_22_validate_indices_0, x = var_570_shape_cast_fp16_to_uint16)[name = tensor<string, []>("gather_22_cast_uint16")];
            tensor<string, []> gather_22_cast_uint16_to_int32_dtype_0 = const()[name = tensor<string, []>("gather_22_cast_uint16_to_int32_dtype_0"), val = tensor<string, []>("int32")];
            tensor<bool, []> attn_weights_31_transpose_x_1 = const()[name = tensor<string, []>("attn_weights_31_transpose_x_1"), val = tensor<bool, []>(false)];
            tensor<bool, []> attn_weights_31_transpose_y_1 = const()[name = tensor<string, []>("attn_weights_31_transpose_y_1"), val = tensor<bool, []>(true)];
            tensor<fp16, [6, ?, ?]> attn_weights_31_cast_fp16 = matmul(transpose_x = attn_weights_31_transpose_x_1, transpose_y = attn_weights_31_transpose_y_1, x = query_states_13_cast_fp16, y = key_states_27_cast_fp16)[name = tensor<string, []>("attn_weights_31_cast_fp16")];
            tensor<int32, []> concat_30_axis_0 = const()[name = tensor<string, []>("concat_30_axis_0"), val = tensor<int32, []>(0)];
            tensor<bool, []> concat_30_interleave_0 = const()[name = tensor<string, []>("concat_30_interleave_0"), val = tensor<bool, []>(false)];
            tensor<int32, []> gather_22_cast_uint16_to_int32 = cast(dtype = gather_22_cast_uint16_to_int32_dtype_0, x = gather_22_cast_uint16)[name = tensor<string, []>("cast_81")];
            tensor<int32, []> gather_21_cast_uint16_to_int32 = cast(dtype = gather_21_cast_uint16_to_int32_dtype_0, x = gather_21_cast_uint16)[name = tensor<string, []>("cast_83")];
            tensor<int32, [4]> concat_30 = concat(axis = concat_30_axis_0, interleave = concat_30_interleave_0, values = (gather_20, var_16, gather_21_cast_uint16_to_int32, gather_22_cast_uint16_to_int32))[name = tensor<string, []>("concat_30")];
            tensor<fp16, [1, 6, ?, ?]> var_574_cast_fp16 = reshape(shape = concat_30, x = attn_weights_31_cast_fp16)[name = tensor<string, []>("op_574_cast_fp16")];
            tensor<fp16, [?, 6, ?, ?]> attn_weights_33_cast_fp16 = add(x = var_574_cast_fp16, y = attention_mask_cast_fp16)[name = tensor<string, []>("attn_weights_33_cast_fp16")];
            tensor<int32, []> var_578 = const()[name = tensor<string, []>("op_578"), val = tensor<int32, []>(6)];
            tensor<int32, []> concat_31_axis_0 = const()[name = tensor<string, []>("concat_31_axis_0"), val = tensor<int32, []>(0)];
            tensor<bool, []> concat_31_interleave_0 = const()[name = tensor<string, []>("concat_31_interleave_0"), val = tensor<bool, []>(false)];
            tensor<int32, [3]> concat_31 = concat(axis = concat_31_axis_0, interleave = concat_31_interleave_0, values = (var_578, gather_21_cast_uint16_to_int32, gather_22_cast_uint16_to_int32))[name = tensor<string, []>("concat_31")];
            tensor<fp16, [6, ?, ?]> input_97_cast_fp16 = reshape(shape = concat_31, x = attn_weights_33_cast_fp16)[name = tensor<string, []>("input_97_cast_fp16")];
            tensor<fp16, [6, ?, ?]> input_99_cast_fp16 = softmax(axis = var_22, x = input_97_cast_fp16)[name = tensor<string, []>("input_99_cast_fp16")];
            tensor<bool, []> attn_output_37_transpose_x_0 = const()[name = tensor<string, []>("attn_output_37_transpose_x_0"), val = tensor<bool, []>(false)];
            tensor<bool, []> attn_output_37_transpose_y_0 = const()[name = tensor<string, []>("attn_output_37_transpose_y_0"), val = tensor<bool, []>(false)];
            tensor<fp16, [6, ?, 64]> attn_output_37_cast_fp16 = matmul(transpose_x = attn_output_37_transpose_x_0, transpose_y = attn_output_37_transpose_y_0, x = input_99_cast_fp16, y = value_states_27_cast_fp16)[name = tensor<string, []>("attn_output_37_cast_fp16")];
            tensor<int32, [4]> concat_32x = const()[name = tensor<string, []>("concat_32x"), val = tensor<int32, [4]>([1, 6, -1, 64])];
            tensor<fp16, [1, 6, ?, 64]> attn_output_39_cast_fp16 = reshape(shape = concat_32x, x = attn_output_37_cast_fp16)[name = tensor<string, []>("attn_output_39_cast_fp16")];
            tensor<int32, [4]> attn_output_41_perm_0 = const()[name = tensor<string, []>("attn_output_41_perm_0"), val = tensor<int32, [4]>([0, 2, 1, 3])];
            tensor<int32, [3]> concat_33x = const()[name = tensor<string, []>("concat_33x"), val = tensor<int32, [3]>([1, -1, 384])];
            tensor<fp16, [1, ?, 6, 64]> attn_output_41_cast_fp16 = transpose(perm = attn_output_41_perm_0, x = attn_output_39_cast_fp16)[name = tensor<string, []>("transpose_4")];
            tensor<fp16, [1, ?, 384]> input_101_cast_fp16 = reshape(shape = concat_33x, x = attn_output_41_cast_fp16)[name = tensor<string, []>("input_101_cast_fp16")];
            tensor<fp16, [384, 384]> decoder_layers_3_self_attn_out_proj_weight_to_fp16 = const()[name = tensor<string, []>("decoder_layers_3_self_attn_out_proj_weight_to_fp16"), val = tensor<fp16, [384, 384]>(BLOBFILE(path = tensor<string, []>("@model_path/weights/weight.bin"), offset = tensor<uint64, []>(55265216)))];
            tensor<fp16, [384]> decoder_layers_3_self_attn_out_proj_bias_to_fp16 = const()[name = tensor<string, []>("decoder_layers_3_self_attn_out_proj_bias_to_fp16"), val = tensor<fp16, [384]>(BLOBFILE(path = tensor<string, []>("@model_path/weights/weight.bin"), offset = tensor<uint64, []>(55560192)))];
            tensor<fp16, [1, ?, 384]> linear_33_cast_fp16 = linear(bias = decoder_layers_3_self_attn_out_proj_bias_to_fp16, weight = decoder_layers_3_self_attn_out_proj_weight_to_fp16, x = input_101_cast_fp16)[name = tensor<string, []>("linear_33_cast_fp16")];
            tensor<fp16, [1, ?, 384]> input_105_cast_fp16 = add(x = input_95_cast_fp16, y = linear_33_cast_fp16)[name = tensor<string, []>("input_105_cast_fp16")];
            tensor<int32, [1]> hidden_states_35_axes_0 = const()[name = tensor<string, []>("hidden_states_35_axes_0"), val = tensor<int32, [1]>([-1])];
            tensor<fp16, [384]> decoder_layers_3_encoder_attn_layer_norm_weight_to_fp16 = const()[name = tensor<string, []>("decoder_layers_3_encoder_attn_layer_norm_weight_to_fp16"), val = tensor<fp16, [384]>(BLOBFILE(path = tensor<string, []>("@model_path/weights/weight.bin"), offset = tensor<uint64, []>(55561024)))];
            tensor<fp16, [384]> decoder_layers_3_encoder_attn_layer_norm_bias_to_fp16 = const()[name = tensor<string, []>("decoder_layers_3_encoder_attn_layer_norm_bias_to_fp16"), val = tensor<fp16, [384]>(BLOBFILE(path = tensor<string, []>("@model_path/weights/weight.bin"), offset = tensor<uint64, []>(55561856)))];
            tensor<fp16, [1, ?, 384]> hidden_states_35_cast_fp16 = layer_norm(axes = hidden_states_35_axes_0, beta = decoder_layers_3_encoder_attn_layer_norm_bias_to_fp16, epsilon = var_8_to_fp16, gamma = decoder_layers_3_encoder_attn_layer_norm_weight_to_fp16, x = input_105_cast_fp16)[name = tensor<string, []>("hidden_states_35_cast_fp16")];
            tensor<fp16, [384, 384]> decoder_layers_3_encoder_attn_q_proj_weight_to_fp16 = const()[name = tensor<string, []>("decoder_layers_3_encoder_attn_q_proj_weight_to_fp16"), val = tensor<fp16, [384, 384]>(BLOBFILE(path = tensor<string, []>("@model_path/weights/weight.bin"), offset = tensor<uint64, []>(55562688)))];
            tensor<fp16, [384]> decoder_layers_3_encoder_attn_q_proj_bias_to_fp16 = const()[name = tensor<string, []>("decoder_layers_3_encoder_attn_q_proj_bias_to_fp16"), val = tensor<fp16, [384]>(BLOBFILE(path = tensor<string, []>("@model_path/weights/weight.bin"), offset = tensor<uint64, []>(55857664)))];
            tensor<fp16, [1, ?, 384]> linear_34_cast_fp16 = linear(bias = decoder_layers_3_encoder_attn_q_proj_bias_to_fp16, weight = decoder_layers_3_encoder_attn_q_proj_weight_to_fp16, x = hidden_states_35_cast_fp16)[name = tensor<string, []>("linear_34_cast_fp16")];
            tensor<fp16, []> var_608_to_fp16 = const()[name = tensor<string, []>("op_608_to_fp16"), val = tensor<fp16, []>(0x1p-3)];
            tensor<fp16, [1, ?, 384]> tensor_cast_fp16 = mul(x = linear_34_cast_fp16, y = var_608_to_fp16)[name = tensor<string, []>("tensor_cast_fp16")];
            tensor<fp16, [384, 384]> decoder_layers_3_encoder_attn_k_proj_weight_to_fp16 = const()[name = tensor<string, []>("decoder_layers_3_encoder_attn_k_proj_weight_to_fp16"), val = tensor<fp16, [384, 384]>(BLOBFILE(path = tensor<string, []>("@model_path/weights/weight.bin"), offset = tensor<uint64, []>(55858496)))];
            tensor<fp16, [1, 1500, 384]> linear_35_cast_fp16 = linear(bias = linear_1_bias_0_to_fp16, weight = decoder_layers_3_encoder_attn_k_proj_weight_to_fp16, x = encoder_output)[name = tensor<string, []>("linear_35_cast_fp16")];
            tensor<int32, [4]> var_612 = const()[name = tensor<string, []>("op_612"), val = tensor<int32, [4]>([1, -1, 6, 64])];
            tensor<fp16, [1, 1500, 6, 64]> var_613_cast_fp16 = reshape(shape = var_612, x = linear_35_cast_fp16)[name = tensor<string, []>("op_613_cast_fp16")];
            tensor<int32, [4]> var_614_perm_0 = const()[name = tensor<string, []>("op_614_perm_0"), val = tensor<int32, [4]>([0, 2, 1, 3])];
            tensor<fp16, [384, 384]> decoder_layers_3_encoder_attn_v_proj_weight_to_fp16 = const()[name = tensor<string, []>("decoder_layers_3_encoder_attn_v_proj_weight_to_fp16"), val = tensor<fp16, [384, 384]>(BLOBFILE(path = tensor<string, []>("@model_path/weights/weight.bin"), offset = tensor<uint64, []>(56153472)))];
            tensor<fp16, [384]> decoder_layers_3_encoder_attn_v_proj_bias_to_fp16 = const()[name = tensor<string, []>("decoder_layers_3_encoder_attn_v_proj_bias_to_fp16"), val = tensor<fp16, [384]>(BLOBFILE(path = tensor<string, []>("@model_path/weights/weight.bin"), offset = tensor<uint64, []>(56448448)))];
            tensor<fp16, [1, 1500, 384]> linear_36_cast_fp16 = linear(bias = decoder_layers_3_encoder_attn_v_proj_bias_to_fp16, weight = decoder_layers_3_encoder_attn_v_proj_weight_to_fp16, x = encoder_output)[name = tensor<string, []>("linear_36_cast_fp16")];
            tensor<int32, [4]> var_619 = const()[name = tensor<string, []>("op_619"), val = tensor<int32, [4]>([1, -1, 6, 64])];
            tensor<fp16, [1, 1500, 6, 64]> var_620_cast_fp16 = reshape(shape = var_619, x = linear_36_cast_fp16)[name = tensor<string, []>("op_620_cast_fp16")];
            tensor<int32, [4]> var_621_perm_0 = const()[name = tensor<string, []>("op_621_perm_0"), val = tensor<int32, [4]>([0, 2, 1, 3])];
            tensor<int32, [4]> concat_34x = const()[name = tensor<string, []>("concat_34x"), val = tensor<int32, [4]>([1, -1, 6, 64])];
            tensor<fp16, [1, ?, 6, 64]> var_629_cast_fp16 = reshape(shape = concat_34x, x = tensor_cast_fp16)[name = tensor<string, []>("op_629_cast_fp16")];
            tensor<int32, [4]> var_630_perm_0 = const()[name = tensor<string, []>("op_630_perm_0"), val = tensor<int32, [4]>([0, 2, 1, 3])];
            tensor<int32, [3]> var_632 = const()[name = tensor<string, []>("op_632"), val = tensor<int32, [3]>([6, -1, 64])];
            tensor<fp16, [1, 6, ?, 64]> var_630_cast_fp16 = transpose(perm = var_630_perm_0, x = var_629_cast_fp16)[name = tensor<string, []>("transpose_1")];
            tensor<fp16, [6, ?, 64]> query_states_cast_fp16 = reshape(shape = var_632, x = var_630_cast_fp16)[name = tensor<string, []>("query_states_cast_fp16")];
            tensor<int32, [3]> var_634 = const()[name = tensor<string, []>("op_634"), val = tensor<int32, [3]>([6, -1, 64])];
            tensor<fp16, [1, 6, 1500, 64]> var_614_cast_fp16 = transpose(perm = var_614_perm_0, x = var_613_cast_fp16)[name = tensor<string, []>("transpose_3")];
            tensor<fp16, [6, 1500, 64]> key_states_cast_fp16 = reshape(shape = var_634, x = var_614_cast_fp16)[name = tensor<string, []>("key_states_cast_fp16")];
            tensor<int32, [3]> var_636 = const()[name = tensor<string, []>("op_636"), val = tensor<int32, [3]>([6, -1, 64])];
            tensor<fp16, [1, 6, 1500, 64]> var_621_cast_fp16 = transpose(perm = var_621_perm_0, x = var_620_cast_fp16)[name = tensor<string, []>("transpose_2")];
            tensor<fp16, [6, 1500, 64]> value_states_cast_fp16 = reshape(shape = var_636, x = var_621_cast_fp16)[name = tensor<string, []>("value_states_cast_fp16")];
            tensor<bool, []> attn_weights_37_transpose_x_1 = const()[name = tensor<string, []>("attn_weights_37_transpose_x_1"), val = tensor<bool, []>(false)];
            tensor<bool, []> attn_weights_37_transpose_y_1 = const()[name = tensor<string, []>("attn_weights_37_transpose_y_1"), val = tensor<bool, []>(true)];
            tensor<fp16, [6, ?, 1500]> attn_weights_37_cast_fp16 = matmul(transpose_x = attn_weights_37_transpose_x_1, transpose_y = attn_weights_37_transpose_y_1, x = query_states_cast_fp16, y = key_states_cast_fp16)[name = tensor<string, []>("attn_weights_37_cast_fp16")];
            tensor<fp16, [6, ?, 1500]> input_107_cast_fp16 = softmax(axis = var_22, x = attn_weights_37_cast_fp16)[name = tensor<string, []>("input_107_cast_fp16")];
            tensor<bool, []> attn_output_43_transpose_x_0 = const()[name = tensor<string, []>("attn_output_43_transpose_x_0"), val = tensor<bool, []>(false)];
            tensor<bool, []> attn_output_43_transpose_y_0 = const()[name = tensor<string, []>("attn_output_43_transpose_y_0"), val = tensor<bool, []>(false)];
            tensor<fp16, [6, ?, 64]> attn_output_43_cast_fp16 = matmul(transpose_x = attn_output_43_transpose_x_0, transpose_y = attn_output_43_transpose_y_0, x = input_107_cast_fp16, y = value_states_cast_fp16)[name = tensor<string, []>("attn_output_43_cast_fp16")];
            tensor<int32, [4]> concat_35x = const()[name = tensor<string, []>("concat_35x"), val = tensor<int32, [4]>([1, 6, -1, 64])];
            tensor<fp16, [1, 6, ?, 64]> attn_output_45_cast_fp16 = reshape(shape = concat_35x, x = attn_output_43_cast_fp16)[name = tensor<string, []>("attn_output_45_cast_fp16")];
            tensor<int32, [4]> attn_output_perm_0 = const()[name = tensor<string, []>("attn_output_perm_0"), val = tensor<int32, [4]>([0, 2, 1, 3])];
            tensor<int32, [3]> concat_36x = const()[name = tensor<string, []>("concat_36x"), val = tensor<int32, [3]>([1, -1, 384])];
            tensor<fp16, [1, ?, 6, 64]> attn_output_cast_fp16 = transpose(perm = attn_output_perm_0, x = attn_output_45_cast_fp16)[name = tensor<string, []>("transpose_0")];
            tensor<fp16, [1, ?, 384]> input_109_cast_fp16 = reshape(shape = concat_36x, x = attn_output_cast_fp16)[name = tensor<string, []>("input_109_cast_fp16")];
            tensor<fp16, [384, 384]> decoder_layers_3_encoder_attn_out_proj_weight_to_fp16 = const()[name = tensor<string, []>("decoder_layers_3_encoder_attn_out_proj_weight_to_fp16"), val = tensor<fp16, [384, 384]>(BLOBFILE(path = tensor<string, []>("@model_path/weights/weight.bin"), offset = tensor<uint64, []>(56449280)))];
            tensor<fp16, [384]> decoder_layers_3_encoder_attn_out_proj_bias_to_fp16 = const()[name = tensor<string, []>("decoder_layers_3_encoder_attn_out_proj_bias_to_fp16"), val = tensor<fp16, [384]>(BLOBFILE(path = tensor<string, []>("@model_path/weights/weight.bin"), offset = tensor<uint64, []>(56744256)))];
            tensor<fp16, [1, ?, 384]> linear_37_cast_fp16 = linear(bias = decoder_layers_3_encoder_attn_out_proj_bias_to_fp16, weight = decoder_layers_3_encoder_attn_out_proj_weight_to_fp16, x = input_109_cast_fp16)[name = tensor<string, []>("linear_37_cast_fp16")];
            tensor<fp16, [1, ?, 384]> input_113_cast_fp16 = add(x = input_105_cast_fp16, y = linear_37_cast_fp16)[name = tensor<string, []>("input_113_cast_fp16")];
            tensor<int32, [1]> input_115_axes_0 = const()[name = tensor<string, []>("input_115_axes_0"), val = tensor<int32, [1]>([-1])];
            tensor<fp16, [384]> decoder_layers_3_final_layer_norm_weight_to_fp16 = const()[name = tensor<string, []>("decoder_layers_3_final_layer_norm_weight_to_fp16"), val = tensor<fp16, [384]>(BLOBFILE(path = tensor<string, []>("@model_path/weights/weight.bin"), offset = tensor<uint64, []>(56745088)))];
            tensor<fp16, [384]> decoder_layers_3_final_layer_norm_bias_to_fp16 = const()[name = tensor<string, []>("decoder_layers_3_final_layer_norm_bias_to_fp16"), val = tensor<fp16, [384]>(BLOBFILE(path = tensor<string, []>("@model_path/weights/weight.bin"), offset = tensor<uint64, []>(56745920)))];
            tensor<fp16, [1, ?, 384]> input_115_cast_fp16 = layer_norm(axes = input_115_axes_0, beta = decoder_layers_3_final_layer_norm_bias_to_fp16, epsilon = var_8_to_fp16, gamma = decoder_layers_3_final_layer_norm_weight_to_fp16, x = input_113_cast_fp16)[name = tensor<string, []>("input_115_cast_fp16")];
            tensor<fp16, [1536, 384]> decoder_layers_3_fc1_weight_to_fp16 = const()[name = tensor<string, []>("decoder_layers_3_fc1_weight_to_fp16"), val = tensor<fp16, [1536, 384]>(BLOBFILE(path = tensor<string, []>("@model_path/weights/weight.bin"), offset = tensor<uint64, []>(56746752)))];
            tensor<fp16, [1536]> decoder_layers_3_fc1_bias_to_fp16 = const()[name = tensor<string, []>("decoder_layers_3_fc1_bias_to_fp16"), val = tensor<fp16, [1536]>(BLOBFILE(path = tensor<string, []>("@model_path/weights/weight.bin"), offset = tensor<uint64, []>(57926464)))];
            tensor<fp16, [1, ?, 1536]> linear_38_cast_fp16 = linear(bias = decoder_layers_3_fc1_bias_to_fp16, weight = decoder_layers_3_fc1_weight_to_fp16, x = input_115_cast_fp16)[name = tensor<string, []>("linear_38_cast_fp16")];
            tensor<string, []> input_119_mode_0 = const()[name = tensor<string, []>("input_119_mode_0"), val = tensor<string, []>("EXACT")];
            tensor<fp16, [1, ?, 1536]> input_119_cast_fp16 = gelu(mode = input_119_mode_0, x = linear_38_cast_fp16)[name = tensor<string, []>("input_119_cast_fp16")];
            tensor<fp16, [384, 1536]> decoder_layers_3_fc2_weight_to_fp16 = const()[name = tensor<string, []>("decoder_layers_3_fc2_weight_to_fp16"), val = tensor<fp16, [384, 1536]>(BLOBFILE(path = tensor<string, []>("@model_path/weights/weight.bin"), offset = tensor<uint64, []>(57929600)))];
            tensor<fp16, [384]> decoder_layers_3_fc2_bias_to_fp16 = const()[name = tensor<string, []>("decoder_layers_3_fc2_bias_to_fp16"), val = tensor<fp16, [384]>(BLOBFILE(path = tensor<string, []>("@model_path/weights/weight.bin"), offset = tensor<uint64, []>(59109312)))];
            tensor<fp16, [1, ?, 384]> linear_39_cast_fp16 = linear(bias = decoder_layers_3_fc2_bias_to_fp16, weight = decoder_layers_3_fc2_weight_to_fp16, x = input_119_cast_fp16)[name = tensor<string, []>("linear_39_cast_fp16")];
            tensor<fp16, [1, ?, 384]> input_125_cast_fp16 = add(x = input_113_cast_fp16, y = linear_39_cast_fp16)[name = tensor<string, []>("input_125_cast_fp16")];
            tensor<int32, [1]> input_axes_0 = const()[name = tensor<string, []>("input_axes_0"), val = tensor<int32, [1]>([-1])];
            tensor<fp16, [384]> decoder_layer_norm_weight_to_fp16 = const()[name = tensor<string, []>("decoder_layer_norm_weight_to_fp16"), val = tensor<fp16, [384]>(BLOBFILE(path = tensor<string, []>("@model_path/weights/weight.bin"), offset = tensor<uint64, []>(59110144)))];
            tensor<fp16, [384]> decoder_layer_norm_bias_to_fp16 = const()[name = tensor<string, []>("decoder_layer_norm_bias_to_fp16"), val = tensor<fp16, [384]>(BLOBFILE(path = tensor<string, []>("@model_path/weights/weight.bin"), offset = tensor<uint64, []>(59110976)))];
            tensor<fp16, [1, ?, 384]> input_cast_fp16 = layer_norm(axes = input_axes_0, beta = decoder_layer_norm_bias_to_fp16, epsilon = var_8_to_fp16, gamma = decoder_layer_norm_weight_to_fp16, x = input_125_cast_fp16)[name = tensor<string, []>("input_cast_fp16")];
            tensor<fp16, [51865]> linear_40_bias_0_to_fp16 = const()[name = tensor<string, []>("linear_40_bias_0_to_fp16"), val = tensor<fp16, [51865]>(BLOBFILE(path = tensor<string, []>("@model_path/weights/weight.bin"), offset = tensor<uint64, []>(59111808)))];
            tensor<fp16, [1, ?, 51865]> logits = linear(bias = linear_40_bias_0_to_fp16, weight = decoder_embed_tokens_weight_to_fp16, x = input_cast_fp16)[name = tensor<string, []>("linear_40_cast_fp16")];
        } -> (logits);
}