program(1.0)
[buildInfo = dict<tensor<string, []>, tensor<string, []>>({{"coremlc-component-MIL", "3520.4.1"}, {"coremlc-version", "3520.5.1"}, {"coremltools-component-torch", "2.11.0"}, {"coremltools-source-dialect", "TorchScript"}, {"coremltools-version", "9.0b1"}})]
{
    func main<ios17>(tensor<fp16, [1, 1500, 384]> encoder_output, tensor<int32, [1, 3]> input_ids) {
            tensor<int32, []> var_22 = const()[name = tensor<string, []>("op_22"), val = tensor<int32, []>(-1)];
            tensor<int32, []> inputs_embeds_batch_dims_0 = const()[name = tensor<string, []>("inputs_embeds_batch_dims_0"), val = tensor<int32, []>(0)];
            tensor<bool, []> inputs_embeds_validate_indices_0 = const()[name = tensor<string, []>("inputs_embeds_validate_indices_0"), val = tensor<bool, []>(false)];
            tensor<fp16, [51865, 384]> decoder_embed_tokens_weight_to_fp16 = const()[name = tensor<string, []>("decoder_embed_tokens_weight_to_fp16"), val = tensor<fp16, [51865, 384]>(BLOBFILE(path = tensor<string, []>("@model_path/weights/weight.bin"), offset = tensor<uint64, []>(64)))];
            tensor<int32, []> greater_equal_0_y_0 = const()[name = tensor<string, []>("greater_equal_0_y_0"), val = tensor<int32, []>(0)];
            tensor<bool, [1, 3]> greater_equal_0 = greater_equal(x = input_ids, y = greater_equal_0_y_0)[name = tensor<string, []>("greater_equal_0")];
            tensor<int32, []> slice_by_index_0 = const()[name = tensor<string, []>("slice_by_index_0"), val = tensor<int32, []>(51865)];
            tensor<int32, [1, 3]> add_0 = add(x = input_ids, y = slice_by_index_0)[name = tensor<string, []>("add_0")];
            tensor<int32, [1, 3]> select_0 = select(a = input_ids, b = add_0, cond = greater_equal_0)[name = tensor<string, []>("select_0")];
            tensor<int32, []> inputs_embeds_cast_fp16_axis_0 = const()[name = tensor<string, []>("inputs_embeds_cast_fp16_axis_0"), val = tensor<int32, []>(0)];
            tensor<fp16, [1, 3, 384]> inputs_embeds_cast_fp16 = gather(axis = inputs_embeds_cast_fp16_axis_0, batch_dims = inputs_embeds_batch_dims_0, indices = select_0, validate_indices = inputs_embeds_validate_indices_0, x = decoder_embed_tokens_weight_to_fp16)[name = tensor<string, []>("inputs_embeds_cast_fp16")];
            tensor<fp16, [3, 384]> positions_to_fp16 = const()[name = tensor<string, []>("positions_to_fp16"), val = tensor<fp16, [3, 384]>(BLOBFILE(path = tensor<string, []>("@model_path/weights/weight.bin"), offset = tensor<uint64, []>(39832448)))];
            tensor<fp16, [1, 3, 384]> input_3_cast_fp16 = add(x = inputs_embeds_cast_fp16, y = positions_to_fp16)[name = tensor<string, []>("input_3_cast_fp16")];
            tensor<int32, [1]> hidden_states_1_axes_0 = const()[name = tensor<string, []>("hidden_states_1_axes_0"), val = tensor<int32, [1]>([-1])];
            tensor<fp16, [384]> decoder_layers_0_self_attn_layer_norm_weight_to_fp16 = const()[name = tensor<string, []>("decoder_layers_0_self_attn_layer_norm_weight_to_fp16"), val = tensor<fp16, [384]>(BLOBFILE(path = tensor<string, []>("@model_path/weights/weight.bin"), offset = tensor<uint64, []>(39834816)))];
            tensor<fp16, [384]> decoder_layers_0_self_attn_layer_norm_bias_to_fp16 = const()[name = tensor<string, []>("decoder_layers_0_self_attn_layer_norm_bias_to_fp16"), val = tensor<fp16, [384]>(BLOBFILE(path = tensor<string, []>("@model_path/weights/weight.bin"), offset = tensor<uint64, []>(39835648)))];
            tensor<fp16, []> var_8_to_fp16 = const()[name = tensor<string, []>("op_8_to_fp16"), val = tensor<fp16, []>(0x1.5p-17)];
            tensor<fp16, [1, 3, 384]> hidden_states_1_cast_fp16 = layer_norm(axes = hidden_states_1_axes_0, beta = decoder_layers_0_self_attn_layer_norm_bias_to_fp16, epsilon = var_8_to_fp16, gamma = decoder_layers_0_self_attn_layer_norm_weight_to_fp16, x = input_3_cast_fp16)[name = tensor<string, []>("hidden_states_1_cast_fp16")];
            tensor<fp16, [384, 384]> decoder_layers_0_self_attn_q_proj_weight_to_fp16 = const()[name = tensor<string, []>("decoder_layers_0_self_attn_q_proj_weight_to_fp16"), val = tensor<fp16, [384, 384]>(BLOBFILE(path = tensor<string, []>("@model_path/weights/weight.bin"), offset = tensor<uint64, []>(39836480)))];
            tensor<fp16, [384]> decoder_layers_0_self_attn_q_proj_bias_to_fp16 = const()[name = tensor<string, []>("decoder_layers_0_self_attn_q_proj_bias_to_fp16"), val = tensor<fp16, [384]>(BLOBFILE(path = tensor<string, []>("@model_path/weights/weight.bin"), offset = tensor<uint64, []>(40131456)))];
            tensor<fp16, [1, 3, 384]> linear_0_cast_fp16 = linear(bias = decoder_layers_0_self_attn_q_proj_bias_to_fp16, weight = decoder_layers_0_self_attn_q_proj_weight_to_fp16, x = hidden_states_1_cast_fp16)[name = tensor<string, []>("linear_0_cast_fp16")];
            tensor<fp16, []> var_96_to_fp16 = const()[name = tensor<string, []>("op_96_to_fp16"), val = tensor<fp16, []>(0x1p-3)];
            tensor<fp16, [1, 3, 384]> tensor_5_cast_fp16 = mul(x = linear_0_cast_fp16, y = var_96_to_fp16)[name = tensor<string, []>("tensor_5_cast_fp16")];
            tensor<fp16, [384, 384]> decoder_layers_0_self_attn_k_proj_weight_to_fp16 = const()[name = tensor<string, []>("decoder_layers_0_self_attn_k_proj_weight_to_fp16"), val = tensor<fp16, [384, 384]>(BLOBFILE(path = tensor<string, []>("@model_path/weights/weight.bin"), offset = tensor<uint64, []>(40132288)))];
            tensor<fp16, [384]> linear_1_bias_0_to_fp16 = const()[name = tensor<string, []>("linear_1_bias_0_to_fp16"), val = tensor<fp16, [384]>(BLOBFILE(path = tensor<string, []>("@model_path/weights/weight.bin"), offset = tensor<uint64, []>(40427264)))];
            tensor<fp16, [1, 3, 384]> linear_1_cast_fp16 = linear(bias = linear_1_bias_0_to_fp16, weight = decoder_layers_0_self_attn_k_proj_weight_to_fp16, x = hidden_states_1_cast_fp16)[name = tensor<string, []>("linear_1_cast_fp16")];
            tensor<int32, [4]> var_100 = const()[name = tensor<string, []>("op_100"), val = tensor<int32, [4]>([1, -1, 6, 64])];
            tensor<fp16, [1, 3, 6, 64]> var_101_cast_fp16 = reshape(shape = var_100, x = linear_1_cast_fp16)[name = tensor<string, []>("op_101_cast_fp16")];
            tensor<int32, [4]> var_102_perm_0 = const()[name = tensor<string, []>("op_102_perm_0"), val = tensor<int32, [4]>([0, 2, 1, 3])];
            tensor<fp16, [384, 384]> decoder_layers_0_self_attn_v_proj_weight_to_fp16 = const()[name = tensor<string, []>("decoder_layers_0_self_attn_v_proj_weight_to_fp16"), val = tensor<fp16, [384, 384]>(BLOBFILE(path = tensor<string, []>("@model_path/weights/weight.bin"), offset = tensor<uint64, []>(40428096)))];
            tensor<fp16, [384]> decoder_layers_0_self_attn_v_proj_bias_to_fp16 = const()[name = tensor<string, []>("decoder_layers_0_self_attn_v_proj_bias_to_fp16"), val = tensor<fp16, [384]>(BLOBFILE(path = tensor<string, []>("@model_path/weights/weight.bin"), offset = tensor<uint64, []>(40723072)))];
            tensor<fp16, [1, 3, 384]> linear_2_cast_fp16 = linear(bias = decoder_layers_0_self_attn_v_proj_bias_to_fp16, weight = decoder_layers_0_self_attn_v_proj_weight_to_fp16, x = hidden_states_1_cast_fp16)[name = tensor<string, []>("linear_2_cast_fp16")];
            tensor<int32, [4]> var_107 = const()[name = tensor<string, []>("op_107"), val = tensor<int32, [4]>([1, -1, 6, 64])];
            tensor<fp16, [1, 3, 6, 64]> var_108_cast_fp16 = reshape(shape = var_107, x = linear_2_cast_fp16)[name = tensor<string, []>("op_108_cast_fp16")];
            tensor<int32, [4]> var_109_perm_0 = const()[name = tensor<string, []>("op_109_perm_0"), val = tensor<int32, [4]>([0, 2, 1, 3])];
            tensor<int32, [4]> var_116 = const()[name = tensor<string, []>("op_116"), val = tensor<int32, [4]>([1, 3, 6, 64])];
            tensor<fp16, [1, 3, 6, 64]> var_117_cast_fp16 = reshape(shape = var_116, x = tensor_5_cast_fp16)[name = tensor<string, []>("op_117_cast_fp16")];
            tensor<int32, [4]> var_118_perm_0 = const()[name = tensor<string, []>("op_118_perm_0"), val = tensor<int32, [4]>([0, 2, 1, 3])];
            tensor<int32, [3]> var_120 = const()[name = tensor<string, []>("op_120"), val = tensor<int32, [3]>([6, -1, 64])];
            tensor<fp16, [1, 6, 3, 64]> var_118_cast_fp16 = transpose(perm = var_118_perm_0, x = var_117_cast_fp16)[name = tensor<string, []>("transpose_29")];
            tensor<fp16, [6, 3, 64]> query_states_1_cast_fp16 = reshape(shape = var_120, x = var_118_cast_fp16)[name = tensor<string, []>("query_states_1_cast_fp16")];
            tensor<int32, [3]> var_122 = const()[name = tensor<string, []>("op_122"), val = tensor<int32, [3]>([6, -1, 64])];
            tensor<fp16, [1, 6, 3, 64]> var_102_cast_fp16 = transpose(perm = var_102_perm_0, x = var_101_cast_fp16)[name = tensor<string, []>("transpose_31")];
            tensor<fp16, [6, 3, 64]> key_states_3_cast_fp16 = reshape(shape = var_122, x = var_102_cast_fp16)[name = tensor<string, []>("key_states_3_cast_fp16")];
            tensor<int32, [3]> var_124 = const()[name = tensor<string, []>("op_124"), val = tensor<int32, [3]>([6, -1, 64])];
            tensor<fp16, [1, 6, 3, 64]> var_109_cast_fp16 = transpose(perm = var_109_perm_0, x = var_108_cast_fp16)[name = tensor<string, []>("transpose_30")];
            tensor<fp16, [6, 3, 64]> value_states_3_cast_fp16 = reshape(shape = var_124, x = var_109_cast_fp16)[name = tensor<string, []>("value_states_3_cast_fp16")];
            tensor<bool, []> attn_weights_1_transpose_x_1 = const()[name = tensor<string, []>("attn_weights_1_transpose_x_1"), val = tensor<bool, []>(false)];
            tensor<bool, []> attn_weights_1_transpose_y_1 = const()[name = tensor<string, []>("attn_weights_1_transpose_y_1"), val = tensor<bool, []>(true)];
            tensor<fp16, [6, 3, 3]> attn_weights_1_cast_fp16 = matmul(transpose_x = attn_weights_1_transpose_x_1, transpose_y = attn_weights_1_transpose_y_1, x = query_states_1_cast_fp16, y = key_states_3_cast_fp16)[name = tensor<string, []>("attn_weights_1_cast_fp16")];
            tensor<int32, [4]> var_129 = const()[name = tensor<string, []>("op_129"), val = tensor<int32, [4]>([1, 6, 3, 3])];
            tensor<fp16, [1, 6, 3, 3]> var_130_cast_fp16 = reshape(shape = var_129, x = attn_weights_1_cast_fp16)[name = tensor<string, []>("op_130_cast_fp16")];
            tensor<fp16, [1, 1, 3, 3]> var_59_to_fp16 = const()[name = tensor<string, []>("op_59_to_fp16"), val = tensor<fp16, [1, 1, 3, 3]>([[[[0x0p+0, -inf, -inf], [0x0p+0, 0x0p+0, -inf], [0x0p+0, 0x0p+0, 0x0p+0]]]])];
            tensor<fp16, [1, 6, 3, 3]> attn_weights_3_cast_fp16 = add(x = var_130_cast_fp16, y = var_59_to_fp16)[name = tensor<string, []>("attn_weights_3_cast_fp16")];
            tensor<int32, [3]> var_135 = const()[name = tensor<string, []>("op_135"), val = tensor<int32, [3]>([6, 3, 3])];
            tensor<fp16, [6, 3, 3]> input_7_cast_fp16 = reshape(shape = var_135, x = attn_weights_3_cast_fp16)[name = tensor<string, []>("input_7_cast_fp16")];
            tensor<fp16, [6, 3, 3]> input_9_cast_fp16 = softmax(axis = var_22, x = input_7_cast_fp16)[name = tensor<string, []>("input_9_cast_fp16")];
            tensor<bool, []> attn_output_1_transpose_x_0 = const()[name = tensor<string, []>("attn_output_1_transpose_x_0"), val = tensor<bool, []>(false)];
            tensor<bool, []> attn_output_1_transpose_y_0 = const()[name = tensor<string, []>("attn_output_1_transpose_y_0"), val = tensor<bool, []>(false)];
            tensor<fp16, [6, 3, 64]> attn_output_1_cast_fp16 = matmul(transpose_x = attn_output_1_transpose_x_0, transpose_y = attn_output_1_transpose_y_0, x = input_9_cast_fp16, y = value_states_3_cast_fp16)[name = tensor<string, []>("attn_output_1_cast_fp16")];
            tensor<int32, [4]> var_140 = const()[name = tensor<string, []>("op_140"), val = tensor<int32, [4]>([1, 6, 3, 64])];
            tensor<fp16, [1, 6, 3, 64]> attn_output_3_cast_fp16 = reshape(shape = var_140, x = attn_output_1_cast_fp16)[name = tensor<string, []>("attn_output_3_cast_fp16")];
            tensor<int32, [4]> attn_output_5_perm_0 = const()[name = tensor<string, []>("attn_output_5_perm_0"), val = tensor<int32, [4]>([0, 2, 1, 3])];
            tensor<int32, [3]> var_143 = const()[name = tensor<string, []>("op_143"), val = tensor<int32, [3]>([1, 3, 384])];
            tensor<fp16, [1, 3, 6, 64]> attn_output_5_cast_fp16 = transpose(perm = attn_output_5_perm_0, x = attn_output_3_cast_fp16)[name = tensor<string, []>("transpose_28")];
            tensor<fp16, [1, 3, 384]> input_11_cast_fp16 = reshape(shape = var_143, x = attn_output_5_cast_fp16)[name = tensor<string, []>("input_11_cast_fp16")];
            tensor<fp16, [384, 384]> decoder_layers_0_self_attn_out_proj_weight_to_fp16 = const()[name = tensor<string, []>("decoder_layers_0_self_attn_out_proj_weight_to_fp16"), val = tensor<fp16, [384, 384]>(BLOBFILE(path = tensor<string, []>("@model_path/weights/weight.bin"), offset = tensor<uint64, []>(40723904)))];
            tensor<fp16, [384]> decoder_layers_0_self_attn_out_proj_bias_to_fp16 = const()[name = tensor<string, []>("decoder_layers_0_self_attn_out_proj_bias_to_fp16"), val = tensor<fp16, [384]>(BLOBFILE(path = tensor<string, []>("@model_path/weights/weight.bin"), offset = tensor<uint64, []>(41018880)))];
            tensor<fp16, [1, 3, 384]> linear_3_cast_fp16 = linear(bias = decoder_layers_0_self_attn_out_proj_bias_to_fp16, weight = decoder_layers_0_self_attn_out_proj_weight_to_fp16, x = input_11_cast_fp16)[name = tensor<string, []>("linear_3_cast_fp16")];
            tensor<fp16, [1, 3, 384]> input_15_cast_fp16 = add(x = input_3_cast_fp16, y = linear_3_cast_fp16)[name = tensor<string, []>("input_15_cast_fp16")];
            tensor<int32, [1]> hidden_states_5_axes_0 = const()[name = tensor<string, []>("hidden_states_5_axes_0"), val = tensor<int32, [1]>([-1])];
            tensor<fp16, [384]> decoder_layers_0_encoder_attn_layer_norm_weight_to_fp16 = const()[name = tensor<string, []>("decoder_layers_0_encoder_attn_layer_norm_weight_to_fp16"), val = tensor<fp16, [384]>(BLOBFILE(path = tensor<string, []>("@model_path/weights/weight.bin"), offset = tensor<uint64, []>(41019712)))];
            tensor<fp16, [384]> decoder_layers_0_encoder_attn_layer_norm_bias_to_fp16 = const()[name = tensor<string, []>("decoder_layers_0_encoder_attn_layer_norm_bias_to_fp16"), val = tensor<fp16, [384]>(BLOBFILE(path = tensor<string, []>("@model_path/weights/weight.bin"), offset = tensor<uint64, []>(41020544)))];
            tensor<fp16, [1, 3, 384]> hidden_states_5_cast_fp16 = layer_norm(axes = hidden_states_5_axes_0, beta = decoder_layers_0_encoder_attn_layer_norm_bias_to_fp16, epsilon = var_8_to_fp16, gamma = decoder_layers_0_encoder_attn_layer_norm_weight_to_fp16, x = input_15_cast_fp16)[name = tensor<string, []>("hidden_states_5_cast_fp16")];
            tensor<fp16, [384, 384]> decoder_layers_0_encoder_attn_q_proj_weight_to_fp16 = const()[name = tensor<string, []>("decoder_layers_0_encoder_attn_q_proj_weight_to_fp16"), val = tensor<fp16, [384, 384]>(BLOBFILE(path = tensor<string, []>("@model_path/weights/weight.bin"), offset = tensor<uint64, []>(41021376)))];
            tensor<fp16, [384]> decoder_layers_0_encoder_attn_q_proj_bias_to_fp16 = const()[name = tensor<string, []>("decoder_layers_0_encoder_attn_q_proj_bias_to_fp16"), val = tensor<fp16, [384]>(BLOBFILE(path = tensor<string, []>("@model_path/weights/weight.bin"), offset = tensor<uint64, []>(41316352)))];
            tensor<fp16, [1, 3, 384]> linear_4_cast_fp16 = linear(bias = decoder_layers_0_encoder_attn_q_proj_bias_to_fp16, weight = decoder_layers_0_encoder_attn_q_proj_weight_to_fp16, x = hidden_states_5_cast_fp16)[name = tensor<string, []>("linear_4_cast_fp16")];
            tensor<fp16, []> var_168_to_fp16 = const()[name = tensor<string, []>("op_168_to_fp16"), val = tensor<fp16, []>(0x1p-3)];
            tensor<fp16, [1, 3, 384]> tensor_11_cast_fp16 = mul(x = linear_4_cast_fp16, y = var_168_to_fp16)[name = tensor<string, []>("tensor_11_cast_fp16")];
            tensor<fp16, [384, 384]> decoder_layers_0_encoder_attn_k_proj_weight_to_fp16 = const()[name = tensor<string, []>("decoder_layers_0_encoder_attn_k_proj_weight_to_fp16"), val = tensor<fp16, [384, 384]>(BLOBFILE(path = tensor<string, []>("@model_path/weights/weight.bin"), offset = tensor<uint64, []>(41317184)))];
            tensor<fp16, [1, 1500, 384]> linear_5_cast_fp16 = linear(bias = linear_1_bias_0_to_fp16, weight = decoder_layers_0_encoder_attn_k_proj_weight_to_fp16, x = encoder_output)[name = tensor<string, []>("linear_5_cast_fp16")];
            tensor<int32, [4]> var_172 = const()[name = tensor<string, []>("op_172"), val = tensor<int32, [4]>([1, -1, 6, 64])];
            tensor<fp16, [1, 1500, 6, 64]> var_173_cast_fp16 = reshape(shape = var_172, x = linear_5_cast_fp16)[name = tensor<string, []>("op_173_cast_fp16")];
            tensor<int32, [4]> var_174_perm_0 = const()[name = tensor<string, []>("op_174_perm_0"), val = tensor<int32, [4]>([0, 2, 1, 3])];
            tensor<fp16, [384, 384]> decoder_layers_0_encoder_attn_v_proj_weight_to_fp16 = const()[name = tensor<string, []>("decoder_layers_0_encoder_attn_v_proj_weight_to_fp16"), val = tensor<fp16, [384, 384]>(BLOBFILE(path = tensor<string, []>("@model_path/weights/weight.bin"), offset = tensor<uint64, []>(41612160)))];
            tensor<fp16, [384]> decoder_layers_0_encoder_attn_v_proj_bias_to_fp16 = const()[name = tensor<string, []>("decoder_layers_0_encoder_attn_v_proj_bias_to_fp16"), val = tensor<fp16, [384]>(BLOBFILE(path = tensor<string, []>("@model_path/weights/weight.bin"), offset = tensor<uint64, []>(41907136)))];
            tensor<fp16, [1, 1500, 384]> linear_6_cast_fp16 = linear(bias = decoder_layers_0_encoder_attn_v_proj_bias_to_fp16, weight = decoder_layers_0_encoder_attn_v_proj_weight_to_fp16, x = encoder_output)[name = tensor<string, []>("linear_6_cast_fp16")];
            tensor<int32, [4]> var_179 = const()[name = tensor<string, []>("op_179"), val = tensor<int32, [4]>([1, -1, 6, 64])];
            tensor<fp16, [1, 1500, 6, 64]> var_180_cast_fp16 = reshape(shape = var_179, x = linear_6_cast_fp16)[name = tensor<string, []>("op_180_cast_fp16")];
            tensor<int32, [4]> var_181_perm_0 = const()[name = tensor<string, []>("op_181_perm_0"), val = tensor<int32, [4]>([0, 2, 1, 3])];
            tensor<int32, [4]> var_188 = const()[name = tensor<string, []>("op_188"), val = tensor<int32, [4]>([1, 3, 6, 64])];
            tensor<fp16, [1, 3, 6, 64]> var_189_cast_fp16 = reshape(shape = var_188, x = tensor_11_cast_fp16)[name = tensor<string, []>("op_189_cast_fp16")];
            tensor<int32, [4]> var_190_perm_0 = const()[name = tensor<string, []>("op_190_perm_0"), val = tensor<int32, [4]>([0, 2, 1, 3])];
            tensor<int32, [3]> var_192 = const()[name = tensor<string, []>("op_192"), val = tensor<int32, [3]>([6, -1, 64])];
            tensor<fp16, [1, 6, 3, 64]> var_190_cast_fp16 = transpose(perm = var_190_perm_0, x = var_189_cast_fp16)[name = tensor<string, []>("transpose_25")];
            tensor<fp16, [6, 3, 64]> query_states_3_cast_fp16 = reshape(shape = var_192, x = var_190_cast_fp16)[name = tensor<string, []>("query_states_3_cast_fp16")];
            tensor<int32, [3]> var_194 = const()[name = tensor<string, []>("op_194"), val = tensor<int32, [3]>([6, -1, 64])];
            tensor<fp16, [1, 6, 1500, 64]> var_174_cast_fp16 = transpose(perm = var_174_perm_0, x = var_173_cast_fp16)[name = tensor<string, []>("transpose_27")];
            tensor<fp16, [6, 1500, 64]> key_states_7_cast_fp16 = reshape(shape = var_194, x = var_174_cast_fp16)[name = tensor<string, []>("key_states_7_cast_fp16")];
            tensor<int32, [3]> var_196 = const()[name = tensor<string, []>("op_196"), val = tensor<int32, [3]>([6, -1, 64])];
            tensor<fp16, [1, 6, 1500, 64]> var_181_cast_fp16 = transpose(perm = var_181_perm_0, x = var_180_cast_fp16)[name = tensor<string, []>("transpose_26")];
            tensor<fp16, [6, 1500, 64]> value_states_7_cast_fp16 = reshape(shape = var_196, x = var_181_cast_fp16)[name = tensor<string, []>("value_states_7_cast_fp16")];
            tensor<bool, []> attn_weights_7_transpose_x_1 = const()[name = tensor<string, []>("attn_weights_7_transpose_x_1"), val = tensor<bool, []>(false)];
            tensor<bool, []> attn_weights_7_transpose_y_1 = const()[name = tensor<string, []>("attn_weights_7_transpose_y_1"), val = tensor<bool, []>(true)];
            tensor<fp16, [6, 3, 1500]> attn_weights_7_cast_fp16 = matmul(transpose_x = attn_weights_7_transpose_x_1, transpose_y = attn_weights_7_transpose_y_1, x = query_states_3_cast_fp16, y = key_states_7_cast_fp16)[name = tensor<string, []>("attn_weights_7_cast_fp16")];
            tensor<fp16, [6, 3, 1500]> input_17_cast_fp16 = softmax(axis = var_22, x = attn_weights_7_cast_fp16)[name = tensor<string, []>("input_17_cast_fp16")];
            tensor<bool, []> attn_output_7_transpose_x_0 = const()[name = tensor<string, []>("attn_output_7_transpose_x_0"), val = tensor<bool, []>(false)];
            tensor<bool, []> attn_output_7_transpose_y_0 = const()[name = tensor<string, []>("attn_output_7_transpose_y_0"), val = tensor<bool, []>(false)];
            tensor<fp16, [6, 3, 64]> attn_output_7_cast_fp16 = matmul(transpose_x = attn_output_7_transpose_x_0, transpose_y = attn_output_7_transpose_y_0, x = input_17_cast_fp16, y = value_states_7_cast_fp16)[name = tensor<string, []>("attn_output_7_cast_fp16")];
            tensor<int32, [4]> var_203 = const()[name = tensor<string, []>("op_203"), val = tensor<int32, [4]>([1, 6, 3, 64])];
            tensor<fp16, [1, 6, 3, 64]> attn_output_9_cast_fp16 = reshape(shape = var_203, x = attn_output_7_cast_fp16)[name = tensor<string, []>("attn_output_9_cast_fp16")];
            tensor<int32, [4]> attn_output_11_perm_0 = const()[name = tensor<string, []>("attn_output_11_perm_0"), val = tensor<int32, [4]>([0, 2, 1, 3])];
            tensor<int32, [3]> var_206 = const()[name = tensor<string, []>("op_206"), val = tensor<int32, [3]>([1, 3, 384])];
            tensor<fp16, [1, 3, 6, 64]> attn_output_11_cast_fp16 = transpose(perm = attn_output_11_perm_0, x = attn_output_9_cast_fp16)[name = tensor<string, []>("transpose_24")];
            tensor<fp16, [1, 3, 384]> input_19_cast_fp16 = reshape(shape = var_206, x = attn_output_11_cast_fp16)[name = tensor<string, []>("input_19_cast_fp16")];
            tensor<fp16, [384, 384]> decoder_layers_0_encoder_attn_out_proj_weight_to_fp16 = const()[name = tensor<string, []>("decoder_layers_0_encoder_attn_out_proj_weight_to_fp16"), val = tensor<fp16, [384, 384]>(BLOBFILE(path = tensor<string, []>("@model_path/weights/weight.bin"), offset = tensor<uint64, []>(41907968)))];
            tensor<fp16, [384]> decoder_layers_0_encoder_attn_out_proj_bias_to_fp16 = const()[name = tensor<string, []>("decoder_layers_0_encoder_attn_out_proj_bias_to_fp16"), val = tensor<fp16, [384]>(BLOBFILE(path = tensor<string, []>("@model_path/weights/weight.bin"), offset = tensor<uint64, []>(42202944)))];
            tensor<fp16, [1, 3, 384]> linear_7_cast_fp16 = linear(bias = decoder_layers_0_encoder_attn_out_proj_bias_to_fp16, weight = decoder_layers_0_encoder_attn_out_proj_weight_to_fp16, x = input_19_cast_fp16)[name = tensor<string, []>("linear_7_cast_fp16")];
            tensor<fp16, [1, 3, 384]> input_23_cast_fp16 = add(x = input_15_cast_fp16, y = linear_7_cast_fp16)[name = tensor<string, []>("input_23_cast_fp16")];
            tensor<int32, [1]> input_25_axes_0 = const()[name = tensor<string, []>("input_25_axes_0"), val = tensor<int32, [1]>([-1])];
            tensor<fp16, [384]> decoder_layers_0_final_layer_norm_weight_to_fp16 = const()[name = tensor<string, []>("decoder_layers_0_final_layer_norm_weight_to_fp16"), val = tensor<fp16, [384]>(BLOBFILE(path = tensor<string, []>("@model_path/weights/weight.bin"), offset = tensor<uint64, []>(42203776)))];
            tensor<fp16, [384]> decoder_layers_0_final_layer_norm_bias_to_fp16 = const()[name = tensor<string, []>("decoder_layers_0_final_layer_norm_bias_to_fp16"), val = tensor<fp16, [384]>(BLOBFILE(path = tensor<string, []>("@model_path/weights/weight.bin"), offset = tensor<uint64, []>(42204608)))];
            tensor<fp16, [1, 3, 384]> input_25_cast_fp16 = layer_norm(axes = input_25_axes_0, beta = decoder_layers_0_final_layer_norm_bias_to_fp16, epsilon = var_8_to_fp16, gamma = decoder_layers_0_final_layer_norm_weight_to_fp16, x = input_23_cast_fp16)[name = tensor<string, []>("input_25_cast_fp16")];
            tensor<fp16, [1536, 384]> decoder_layers_0_fc1_weight_to_fp16 = const()[name = tensor<string, []>("decoder_layers_0_fc1_weight_to_fp16"), val = tensor<fp16, [1536, 384]>(BLOBFILE(path = tensor<string, []>("@model_path/weights/weight.bin"), offset = tensor<uint64, []>(42205440)))];
            tensor<fp16, [1536]> decoder_layers_0_fc1_bias_to_fp16 = const()[name = tensor<string, []>("decoder_layers_0_fc1_bias_to_fp16"), val = tensor<fp16, [1536]>(BLOBFILE(path = tensor<string, []>("@model_path/weights/weight.bin"), offset = tensor<uint64, []>(43385152)))];
            tensor<fp16, [1, 3, 1536]> linear_8_cast_fp16 = linear(bias = decoder_layers_0_fc1_bias_to_fp16, weight = decoder_layers_0_fc1_weight_to_fp16, x = input_25_cast_fp16)[name = tensor<string, []>("linear_8_cast_fp16")];
            tensor<string, []> input_29_mode_0 = const()[name = tensor<string, []>("input_29_mode_0"), val = tensor<string, []>("EXACT")];
            tensor<fp16, [1, 3, 1536]> input_29_cast_fp16 = gelu(mode = input_29_mode_0, x = linear_8_cast_fp16)[name = tensor<string, []>("input_29_cast_fp16")];
            tensor<fp16, [384, 1536]> decoder_layers_0_fc2_weight_to_fp16 = const()[name = tensor<string, []>("decoder_layers_0_fc2_weight_to_fp16"), val = tensor<fp16, [384, 1536]>(BLOBFILE(path = tensor<string, []>("@model_path/weights/weight.bin"), offset = tensor<uint64, []>(43388288)))];
            tensor<fp16, [384]> decoder_layers_0_fc2_bias_to_fp16 = const()[name = tensor<string, []>("decoder_layers_0_fc2_bias_to_fp16"), val = tensor<fp16, [384]>(BLOBFILE(path = tensor<string, []>("@model_path/weights/weight.bin"), offset = tensor<uint64, []>(44568000)))];
            tensor<fp16, [1, 3, 384]> linear_9_cast_fp16 = linear(bias = decoder_layers_0_fc2_bias_to_fp16, weight = decoder_layers_0_fc2_weight_to_fp16, x = input_29_cast_fp16)[name = tensor<string, []>("linear_9_cast_fp16")];
            tensor<fp16, [1, 3, 384]> input_35_cast_fp16 = add(x = input_23_cast_fp16, y = linear_9_cast_fp16)[name = tensor<string, []>("input_35_cast_fp16")];
            tensor<int32, [1]> hidden_states_11_axes_0 = const()[name = tensor<string, []>("hidden_states_11_axes_0"), val = tensor<int32, [1]>([-1])];
            tensor<fp16, [384]> decoder_layers_1_self_attn_layer_norm_weight_to_fp16 = const()[name = tensor<string, []>("decoder_layers_1_self_attn_layer_norm_weight_to_fp16"), val = tensor<fp16, [384]>(BLOBFILE(path = tensor<string, []>("@model_path/weights/weight.bin"), offset = tensor<uint64, []>(44568832)))];
            tensor<fp16, [384]> decoder_layers_1_self_attn_layer_norm_bias_to_fp16 = const()[name = tensor<string, []>("decoder_layers_1_self_attn_layer_norm_bias_to_fp16"), val = tensor<fp16, [384]>(BLOBFILE(path = tensor<string, []>("@model_path/weights/weight.bin"), offset = tensor<uint64, []>(44569664)))];
            tensor<fp16, [1, 3, 384]> hidden_states_11_cast_fp16 = layer_norm(axes = hidden_states_11_axes_0, beta = decoder_layers_1_self_attn_layer_norm_bias_to_fp16, epsilon = var_8_to_fp16, gamma = decoder_layers_1_self_attn_layer_norm_weight_to_fp16, x = input_35_cast_fp16)[name = tensor<string, []>("hidden_states_11_cast_fp16")];
            tensor<fp16, [384, 384]> decoder_layers_1_self_attn_q_proj_weight_to_fp16 = const()[name = tensor<string, []>("decoder_layers_1_self_attn_q_proj_weight_to_fp16"), val = tensor<fp16, [384, 384]>(BLOBFILE(path = tensor<string, []>("@model_path/weights/weight.bin"), offset = tensor<uint64, []>(44570496)))];
            tensor<fp16, [384]> decoder_layers_1_self_attn_q_proj_bias_to_fp16 = const()[name = tensor<string, []>("decoder_layers_1_self_attn_q_proj_bias_to_fp16"), val = tensor<fp16, [384]>(BLOBFILE(path = tensor<string, []>("@model_path/weights/weight.bin"), offset = tensor<uint64, []>(44865472)))];
            tensor<fp16, [1, 3, 384]> linear_10_cast_fp16 = linear(bias = decoder_layers_1_self_attn_q_proj_bias_to_fp16, weight = decoder_layers_1_self_attn_q_proj_weight_to_fp16, x = hidden_states_11_cast_fp16)[name = tensor<string, []>("linear_10_cast_fp16")];
            tensor<fp16, []> var_252_to_fp16 = const()[name = tensor<string, []>("op_252_to_fp16"), val = tensor<fp16, []>(0x1p-3)];
            tensor<fp16, [1, 3, 384]> tensor_17_cast_fp16 = mul(x = linear_10_cast_fp16, y = var_252_to_fp16)[name = tensor<string, []>("tensor_17_cast_fp16")];
            tensor<fp16, [384, 384]> decoder_layers_1_self_attn_k_proj_weight_to_fp16 = const()[name = tensor<string, []>("decoder_layers_1_self_attn_k_proj_weight_to_fp16"), val = tensor<fp16, [384, 384]>(BLOBFILE(path = tensor<string, []>("@model_path/weights/weight.bin"), offset = tensor<uint64, []>(44866304)))];
            tensor<fp16, [1, 3, 384]> linear_11_cast_fp16 = linear(bias = linear_1_bias_0_to_fp16, weight = decoder_layers_1_self_attn_k_proj_weight_to_fp16, x = hidden_states_11_cast_fp16)[name = tensor<string, []>("linear_11_cast_fp16")];
            tensor<int32, [4]> var_256 = const()[name = tensor<string, []>("op_256"), val = tensor<int32, [4]>([1, -1, 6, 64])];
            tensor<fp16, [1, 3, 6, 64]> var_257_cast_fp16 = reshape(shape = var_256, x = linear_11_cast_fp16)[name = tensor<string, []>("op_257_cast_fp16")];
            tensor<int32, [4]> var_258_perm_0 = const()[name = tensor<string, []>("op_258_perm_0"), val = tensor<int32, [4]>([0, 2, 1, 3])];
            tensor<fp16, [384, 384]> decoder_layers_1_self_attn_v_proj_weight_to_fp16 = const()[name = tensor<string, []>("decoder_layers_1_self_attn_v_proj_weight_to_fp16"), val = tensor<fp16, [384, 384]>(BLOBFILE(path = tensor<string, []>("@model_path/weights/weight.bin"), offset = tensor<uint64, []>(45161280)))];
            tensor<fp16, [384]> decoder_layers_1_self_attn_v_proj_bias_to_fp16 = const()[name = tensor<string, []>("decoder_layers_1_self_attn_v_proj_bias_to_fp16"), val = tensor<fp16, [384]>(BLOBFILE(path = tensor<string, []>("@model_path/weights/weight.bin"), offset = tensor<uint64, []>(45456256)))];
            tensor<fp16, [1, 3, 384]> linear_12_cast_fp16 = linear(bias = decoder_layers_1_self_attn_v_proj_bias_to_fp16, weight = decoder_layers_1_self_attn_v_proj_weight_to_fp16, x = hidden_states_11_cast_fp16)[name = tensor<string, []>("linear_12_cast_fp16")];
            tensor<int32, [4]> var_263 = const()[name = tensor<string, []>("op_263"), val = tensor<int32, [4]>([1, -1, 6, 64])];
            tensor<fp16, [1, 3, 6, 64]> var_264_cast_fp16 = reshape(shape = var_263, x = linear_12_cast_fp16)[name = tensor<string, []>("op_264_cast_fp16")];
            tensor<int32, [4]> var_265_perm_0 = const()[name = tensor<string, []>("op_265_perm_0"), val = tensor<int32, [4]>([0, 2, 1, 3])];
            tensor<int32, [4]> var_272 = const()[name = tensor<string, []>("op_272"), val = tensor<int32, [4]>([1, 3, 6, 64])];
            tensor<fp16, [1, 3, 6, 64]> var_273_cast_fp16 = reshape(shape = var_272, x = tensor_17_cast_fp16)[name = tensor<string, []>("op_273_cast_fp16")];
            tensor<int32, [4]> var_274_perm_0 = const()[name = tensor<string, []>("op_274_perm_0"), val = tensor<int32, [4]>([0, 2, 1, 3])];
            tensor<int32, [3]> var_276 = const()[name = tensor<string, []>("op_276"), val = tensor<int32, [3]>([6, -1, 64])];
            tensor<fp16, [1, 6, 3, 64]> var_274_cast_fp16 = transpose(perm = var_274_perm_0, x = var_273_cast_fp16)[name = tensor<string, []>("transpose_21")];
            tensor<fp16, [6, 3, 64]> query_states_5_cast_fp16 = reshape(shape = var_276, x = var_274_cast_fp16)[name = tensor<string, []>("query_states_5_cast_fp16")];
            tensor<int32, [3]> var_278 = const()[name = tensor<string, []>("op_278"), val = tensor<int32, [3]>([6, -1, 64])];
            tensor<fp16, [1, 6, 3, 64]> var_258_cast_fp16 = transpose(perm = var_258_perm_0, x = var_257_cast_fp16)[name = tensor<string, []>("transpose_23")];
            tensor<fp16, [6, 3, 64]> key_states_11_cast_fp16 = reshape(shape = var_278, x = var_258_cast_fp16)[name = tensor<string, []>("key_states_11_cast_fp16")];
            tensor<int32, [3]> var_280 = const()[name = tensor<string, []>("op_280"), val = tensor<int32, [3]>([6, -1, 64])];
            tensor<fp16, [1, 6, 3, 64]> var_265_cast_fp16 = transpose(perm = var_265_perm_0, x = var_264_cast_fp16)[name = tensor<string, []>("transpose_22")];
            tensor<fp16, [6, 3, 64]> value_states_11_cast_fp16 = reshape(shape = var_280, x = var_265_cast_fp16)[name = tensor<string, []>("value_states_11_cast_fp16")];
            tensor<bool, []> attn_weights_11_transpose_x_1 = const()[name = tensor<string, []>("attn_weights_11_transpose_x_1"), val = tensor<bool, []>(false)];
            tensor<bool, []> attn_weights_11_transpose_y_1 = const()[name = tensor<string, []>("attn_weights_11_transpose_y_1"), val = tensor<bool, []>(true)];
            tensor<fp16, [6, 3, 3]> attn_weights_11_cast_fp16 = matmul(transpose_x = attn_weights_11_transpose_x_1, transpose_y = attn_weights_11_transpose_y_1, x = query_states_5_cast_fp16, y = key_states_11_cast_fp16)[name = tensor<string, []>("attn_weights_11_cast_fp16")];
            tensor<int32, [4]> var_285 = const()[name = tensor<string, []>("op_285"), val = tensor<int32, [4]>([1, 6, 3, 3])];
            tensor<fp16, [1, 6, 3, 3]> var_286_cast_fp16 = reshape(shape = var_285, x = attn_weights_11_cast_fp16)[name = tensor<string, []>("op_286_cast_fp16")];
            tensor<fp16, [1, 6, 3, 3]> attn_weights_13_cast_fp16 = add(x = var_286_cast_fp16, y = var_59_to_fp16)[name = tensor<string, []>("attn_weights_13_cast_fp16")];
            tensor<int32, [3]> var_291 = const()[name = tensor<string, []>("op_291"), val = tensor<int32, [3]>([6, 3, 3])];
            tensor<fp16, [6, 3, 3]> input_37_cast_fp16 = reshape(shape = var_291, x = attn_weights_13_cast_fp16)[name = tensor<string, []>("input_37_cast_fp16")];
            tensor<fp16, [6, 3, 3]> input_39_cast_fp16 = softmax(axis = var_22, x = input_37_cast_fp16)[name = tensor<string, []>("input_39_cast_fp16")];
            tensor<bool, []> attn_output_13_transpose_x_0 = const()[name = tensor<string, []>("attn_output_13_transpose_x_0"), val = tensor<bool, []>(false)];
            tensor<bool, []> attn_output_13_transpose_y_0 = const()[name = tensor<string, []>("attn_output_13_transpose_y_0"), val = tensor<bool, []>(false)];
            tensor<fp16, [6, 3, 64]> attn_output_13_cast_fp16 = matmul(transpose_x = attn_output_13_transpose_x_0, transpose_y = attn_output_13_transpose_y_0, x = input_39_cast_fp16, y = value_states_11_cast_fp16)[name = tensor<string, []>("attn_output_13_cast_fp16")];
            tensor<int32, [4]> var_296 = const()[name = tensor<string, []>("op_296"), val = tensor<int32, [4]>([1, 6, 3, 64])];
            tensor<fp16, [1, 6, 3, 64]> attn_output_15_cast_fp16 = reshape(shape = var_296, x = attn_output_13_cast_fp16)[name = tensor<string, []>("attn_output_15_cast_fp16")];
            tensor<int32, [4]> attn_output_17_perm_0 = const()[name = tensor<string, []>("attn_output_17_perm_0"), val = tensor<int32, [4]>([0, 2, 1, 3])];
            tensor<int32, [3]> var_299 = const()[name = tensor<string, []>("op_299"), val = tensor<int32, [3]>([1, 3, 384])];
            tensor<fp16, [1, 3, 6, 64]> attn_output_17_cast_fp16 = transpose(perm = attn_output_17_perm_0, x = attn_output_15_cast_fp16)[name = tensor<string, []>("transpose_20")];
            tensor<fp16, [1, 3, 384]> input_41_cast_fp16 = reshape(shape = var_299, x = attn_output_17_cast_fp16)[name = tensor<string, []>("input_41_cast_fp16")];
            tensor<fp16, [384, 384]> decoder_layers_1_self_attn_out_proj_weight_to_fp16 = const()[name = tensor<string, []>("decoder_layers_1_self_attn_out_proj_weight_to_fp16"), val = tensor<fp16, [384, 384]>(BLOBFILE(path = tensor<string, []>("@model_path/weights/weight.bin"), offset = tensor<uint64, []>(45457088)))];
            tensor<fp16, [384]> decoder_layers_1_self_attn_out_proj_bias_to_fp16 = const()[name = tensor<string, []>("decoder_layers_1_self_attn_out_proj_bias_to_fp16"), val = tensor<fp16, [384]>(BLOBFILE(path = tensor<string, []>("@model_path/weights/weight.bin"), offset = tensor<uint64, []>(45752064)))];
            tensor<fp16, [1, 3, 384]> linear_13_cast_fp16 = linear(bias = decoder_layers_1_self_attn_out_proj_bias_to_fp16, weight = decoder_layers_1_self_attn_out_proj_weight_to_fp16, x = input_41_cast_fp16)[name = tensor<string, []>("linear_13_cast_fp16")];
            tensor<fp16, [1, 3, 384]> input_45_cast_fp16 = add(x = input_35_cast_fp16, y = linear_13_cast_fp16)[name = tensor<string, []>("input_45_cast_fp16")];
            tensor<int32, [1]> hidden_states_15_axes_0 = const()[name = tensor<string, []>("hidden_states_15_axes_0"), val = tensor<int32, [1]>([-1])];
            tensor<fp16, [384]> decoder_layers_1_encoder_attn_layer_norm_weight_to_fp16 = const()[name = tensor<string, []>("decoder_layers_1_encoder_attn_layer_norm_weight_to_fp16"), val = tensor<fp16, [384]>(BLOBFILE(path = tensor<string, []>("@model_path/weights/weight.bin"), offset = tensor<uint64, []>(45752896)))];
            tensor<fp16, [384]> decoder_layers_1_encoder_attn_layer_norm_bias_to_fp16 = const()[name = tensor<string, []>("decoder_layers_1_encoder_attn_layer_norm_bias_to_fp16"), val = tensor<fp16, [384]>(BLOBFILE(path = tensor<string, []>("@model_path/weights/weight.bin"), offset = tensor<uint64, []>(45753728)))];
            tensor<fp16, [1, 3, 384]> hidden_states_15_cast_fp16 = layer_norm(axes = hidden_states_15_axes_0, beta = decoder_layers_1_encoder_attn_layer_norm_bias_to_fp16, epsilon = var_8_to_fp16, gamma = decoder_layers_1_encoder_attn_layer_norm_weight_to_fp16, x = input_45_cast_fp16)[name = tensor<string, []>("hidden_states_15_cast_fp16")];
            tensor<fp16, [384, 384]> decoder_layers_1_encoder_attn_q_proj_weight_to_fp16 = const()[name = tensor<string, []>("decoder_layers_1_encoder_attn_q_proj_weight_to_fp16"), val = tensor<fp16, [384, 384]>(BLOBFILE(path = tensor<string, []>("@model_path/weights/weight.bin"), offset = tensor<uint64, []>(45754560)))];
            tensor<fp16, [384]> decoder_layers_1_encoder_attn_q_proj_bias_to_fp16 = const()[name = tensor<string, []>("decoder_layers_1_encoder_attn_q_proj_bias_to_fp16"), val = tensor<fp16, [384]>(BLOBFILE(path = tensor<string, []>("@model_path/weights/weight.bin"), offset = tensor<uint64, []>(46049536)))];
            tensor<fp16, [1, 3, 384]> linear_14_cast_fp16 = linear(bias = decoder_layers_1_encoder_attn_q_proj_bias_to_fp16, weight = decoder_layers_1_encoder_attn_q_proj_weight_to_fp16, x = hidden_states_15_cast_fp16)[name = tensor<string, []>("linear_14_cast_fp16")];
            tensor<fp16, []> var_324_to_fp16 = const()[name = tensor<string, []>("op_324_to_fp16"), val = tensor<fp16, []>(0x1p-3)];
            tensor<fp16, [1, 3, 384]> tensor_23_cast_fp16 = mul(x = linear_14_cast_fp16, y = var_324_to_fp16)[name = tensor<string, []>("tensor_23_cast_fp16")];
            tensor<fp16, [384, 384]> decoder_layers_1_encoder_attn_k_proj_weight_to_fp16 = const()[name = tensor<string, []>("decoder_layers_1_encoder_attn_k_proj_weight_to_fp16"), val = tensor<fp16, [384, 384]>(BLOBFILE(path = tensor<string, []>("@model_path/weights/weight.bin"), offset = tensor<uint64, []>(46050368)))];
            tensor<fp16, [1, 1500, 384]> linear_15_cast_fp16 = linear(bias = linear_1_bias_0_to_fp16, weight = decoder_layers_1_encoder_attn_k_proj_weight_to_fp16, x = encoder_output)[name = tensor<string, []>("linear_15_cast_fp16")];
            tensor<int32, [4]> var_328 = const()[name = tensor<string, []>("op_328"), val = tensor<int32, [4]>([1, -1, 6, 64])];
            tensor<fp16, [1, 1500, 6, 64]> var_329_cast_fp16 = reshape(shape = var_328, x = linear_15_cast_fp16)[name = tensor<string, []>("op_329_cast_fp16")];
            tensor<int32, [4]> var_330_perm_0 = const()[name = tensor<string, []>("op_330_perm_0"), val = tensor<int32, [4]>([0, 2, 1, 3])];
            tensor<fp16, [384, 384]> decoder_layers_1_encoder_attn_v_proj_weight_to_fp16 = const()[name = tensor<string, []>("decoder_layers_1_encoder_attn_v_proj_weight_to_fp16"), val = tensor<fp16, [384, 384]>(BLOBFILE(path = tensor<string, []>("@model_path/weights/weight.bin"), offset = tensor<uint64, []>(46345344)))];
            tensor<fp16, [384]> decoder_layers_1_encoder_attn_v_proj_bias_to_fp16 = const()[name = tensor<string, []>("decoder_layers_1_encoder_attn_v_proj_bias_to_fp16"), val = tensor<fp16, [384]>(BLOBFILE(path = tensor<string, []>("@model_path/weights/weight.bin"), offset = tensor<uint64, []>(46640320)))];
            tensor<fp16, [1, 1500, 384]> linear_16_cast_fp16 = linear(bias = decoder_layers_1_encoder_attn_v_proj_bias_to_fp16, weight = decoder_layers_1_encoder_attn_v_proj_weight_to_fp16, x = encoder_output)[name = tensor<string, []>("linear_16_cast_fp16")];
            tensor<int32, [4]> var_335 = const()[name = tensor<string, []>("op_335"), val = tensor<int32, [4]>([1, -1, 6, 64])];
            tensor<fp16, [1, 1500, 6, 64]> var_336_cast_fp16 = reshape(shape = var_335, x = linear_16_cast_fp16)[name = tensor<string, []>("op_336_cast_fp16")];
            tensor<int32, [4]> var_337_perm_0 = const()[name = tensor<string, []>("op_337_perm_0"), val = tensor<int32, [4]>([0, 2, 1, 3])];
            tensor<int32, [4]> var_344 = const()[name = tensor<string, []>("op_344"), val = tensor<int32, [4]>([1, 3, 6, 64])];
            tensor<fp16, [1, 3, 6, 64]> var_345_cast_fp16 = reshape(shape = var_344, x = tensor_23_cast_fp16)[name = tensor<string, []>("op_345_cast_fp16")];
            tensor<int32, [4]> var_346_perm_0 = const()[name = tensor<string, []>("op_346_perm_0"), val = tensor<int32, [4]>([0, 2, 1, 3])];
            tensor<int32, [3]> var_348 = const()[name = tensor<string, []>("op_348"), val = tensor<int32, [3]>([6, -1, 64])];
            tensor<fp16, [1, 6, 3, 64]> var_346_cast_fp16 = transpose(perm = var_346_perm_0, x = var_345_cast_fp16)[name = tensor<string, []>("transpose_17")];
            tensor<fp16, [6, 3, 64]> query_states_7_cast_fp16 = reshape(shape = var_348, x = var_346_cast_fp16)[name = tensor<string, []>("query_states_7_cast_fp16")];
            tensor<int32, [3]> var_350 = const()[name = tensor<string, []>("op_350"), val = tensor<int32, [3]>([6, -1, 64])];
            tensor<fp16, [1, 6, 1500, 64]> var_330_cast_fp16 = transpose(perm = var_330_perm_0, x = var_329_cast_fp16)[name = tensor<string, []>("transpose_19")];
            tensor<fp16, [6, 1500, 64]> key_states_15_cast_fp16 = reshape(shape = var_350, x = var_330_cast_fp16)[name = tensor<string, []>("key_states_15_cast_fp16")];
            tensor<int32, [3]> var_352 = const()[name = tensor<string, []>("op_352"), val = tensor<int32, [3]>([6, -1, 64])];
            tensor<fp16, [1, 6, 1500, 64]> var_337_cast_fp16 = transpose(perm = var_337_perm_0, x = var_336_cast_fp16)[name = tensor<string, []>("transpose_18")];
            tensor<fp16, [6, 1500, 64]> value_states_15_cast_fp16 = reshape(shape = var_352, x = var_337_cast_fp16)[name = tensor<string, []>("value_states_15_cast_fp16")];
            tensor<bool, []> attn_weights_17_transpose_x_1 = const()[name = tensor<string, []>("attn_weights_17_transpose_x_1"), val = tensor<bool, []>(false)];
            tensor<bool, []> attn_weights_17_transpose_y_1 = const()[name = tensor<string, []>("attn_weights_17_transpose_y_1"), val = tensor<bool, []>(true)];
            tensor<fp16, [6, 3, 1500]> attn_weights_17_cast_fp16 = matmul(transpose_x = attn_weights_17_transpose_x_1, transpose_y = attn_weights_17_transpose_y_1, x = query_states_7_cast_fp16, y = key_states_15_cast_fp16)[name = tensor<string, []>("attn_weights_17_cast_fp16")];
            tensor<fp16, [6, 3, 1500]> input_47_cast_fp16 = softmax(axis = var_22, x = attn_weights_17_cast_fp16)[name = tensor<string, []>("input_47_cast_fp16")];
            tensor<bool, []> attn_output_19_transpose_x_0 = const()[name = tensor<string, []>("attn_output_19_transpose_x_0"), val = tensor<bool, []>(false)];
            tensor<bool, []> attn_output_19_transpose_y_0 = const()[name = tensor<string, []>("attn_output_19_transpose_y_0"), val = tensor<bool, []>(false)];
            tensor<fp16, [6, 3, 64]> attn_output_19_cast_fp16 = matmul(transpose_x = attn_output_19_transpose_x_0, transpose_y = attn_output_19_transpose_y_0, x = input_47_cast_fp16, y = value_states_15_cast_fp16)[name = tensor<string, []>("attn_output_19_cast_fp16")];
            tensor<int32, [4]> var_359 = const()[name = tensor<string, []>("op_359"), val = tensor<int32, [4]>([1, 6, 3, 64])];
            tensor<fp16, [1, 6, 3, 64]> attn_output_21_cast_fp16 = reshape(shape = var_359, x = attn_output_19_cast_fp16)[name = tensor<string, []>("attn_output_21_cast_fp16")];
            tensor<int32, [4]> attn_output_23_perm_0 = const()[name = tensor<string, []>("attn_output_23_perm_0"), val = tensor<int32, [4]>([0, 2, 1, 3])];
            tensor<int32, [3]> var_362 = const()[name = tensor<string, []>("op_362"), val = tensor<int32, [3]>([1, 3, 384])];
            tensor<fp16, [1, 3, 6, 64]> attn_output_23_cast_fp16 = transpose(perm = attn_output_23_perm_0, x = attn_output_21_cast_fp16)[name = tensor<string, []>("transpose_16")];
            tensor<fp16, [1, 3, 384]> input_49_cast_fp16 = reshape(shape = var_362, x = attn_output_23_cast_fp16)[name = tensor<string, []>("input_49_cast_fp16")];
            tensor<fp16, [384, 384]> decoder_layers_1_encoder_attn_out_proj_weight_to_fp16 = const()[name = tensor<string, []>("decoder_layers_1_encoder_attn_out_proj_weight_to_fp16"), val = tensor<fp16, [384, 384]>(BLOBFILE(path = tensor<string, []>("@model_path/weights/weight.bin"), offset = tensor<uint64, []>(46641152)))];
            tensor<fp16, [384]> decoder_layers_1_encoder_attn_out_proj_bias_to_fp16 = const()[name = tensor<string, []>("decoder_layers_1_encoder_attn_out_proj_bias_to_fp16"), val = tensor<fp16, [384]>(BLOBFILE(path = tensor<string, []>("@model_path/weights/weight.bin"), offset = tensor<uint64, []>(46936128)))];
            tensor<fp16, [1, 3, 384]> linear_17_cast_fp16 = linear(bias = decoder_layers_1_encoder_attn_out_proj_bias_to_fp16, weight = decoder_layers_1_encoder_attn_out_proj_weight_to_fp16, x = input_49_cast_fp16)[name = tensor<string, []>("linear_17_cast_fp16")];
            tensor<fp16, [1, 3, 384]> input_53_cast_fp16 = add(x = input_45_cast_fp16, y = linear_17_cast_fp16)[name = tensor<string, []>("input_53_cast_fp16")];
            tensor<int32, [1]> input_55_axes_0 = const()[name = tensor<string, []>("input_55_axes_0"), val = tensor<int32, [1]>([-1])];
            tensor<fp16, [384]> decoder_layers_1_final_layer_norm_weight_to_fp16 = const()[name = tensor<string, []>("decoder_layers_1_final_layer_norm_weight_to_fp16"), val = tensor<fp16, [384]>(BLOBFILE(path = tensor<string, []>("@model_path/weights/weight.bin"), offset = tensor<uint64, []>(46936960)))];
            tensor<fp16, [384]> decoder_layers_1_final_layer_norm_bias_to_fp16 = const()[name = tensor<string, []>("decoder_layers_1_final_layer_norm_bias_to_fp16"), val = tensor<fp16, [384]>(BLOBFILE(path = tensor<string, []>("@model_path/weights/weight.bin"), offset = tensor<uint64, []>(46937792)))];
            tensor<fp16, [1, 3, 384]> input_55_cast_fp16 = layer_norm(axes = input_55_axes_0, beta = decoder_layers_1_final_layer_norm_bias_to_fp16, epsilon = var_8_to_fp16, gamma = decoder_layers_1_final_layer_norm_weight_to_fp16, x = input_53_cast_fp16)[name = tensor<string, []>("input_55_cast_fp16")];
            tensor<fp16, [1536, 384]> decoder_layers_1_fc1_weight_to_fp16 = const()[name = tensor<string, []>("decoder_layers_1_fc1_weight_to_fp16"), val = tensor<fp16, [1536, 384]>(BLOBFILE(path = tensor<string, []>("@model_path/weights/weight.bin"), offset = tensor<uint64, []>(46938624)))];
            tensor<fp16, [1536]> decoder_layers_1_fc1_bias_to_fp16 = const()[name = tensor<string, []>("decoder_layers_1_fc1_bias_to_fp16"), val = tensor<fp16, [1536]>(BLOBFILE(path = tensor<string, []>("@model_path/weights/weight.bin"), offset = tensor<uint64, []>(48118336)))];
            tensor<fp16, [1, 3, 1536]> linear_18_cast_fp16 = linear(bias = decoder_layers_1_fc1_bias_to_fp16, weight = decoder_layers_1_fc1_weight_to_fp16, x = input_55_cast_fp16)[name = tensor<string, []>("linear_18_cast_fp16")];
            tensor<string, []> input_59_mode_0 = const()[name = tensor<string, []>("input_59_mode_0"), val = tensor<string, []>("EXACT")];
            tensor<fp16, [1, 3, 1536]> input_59_cast_fp16 = gelu(mode = input_59_mode_0, x = linear_18_cast_fp16)[name = tensor<string, []>("input_59_cast_fp16")];
            tensor<fp16, [384, 1536]> decoder_layers_1_fc2_weight_to_fp16 = const()[name = tensor<string, []>("decoder_layers_1_fc2_weight_to_fp16"), val = tensor<fp16, [384, 1536]>(BLOBFILE(path = tensor<string, []>("@model_path/weights/weight.bin"), offset = tensor<uint64, []>(48121472)))];
            tensor<fp16, [384]> decoder_layers_1_fc2_bias_to_fp16 = const()[name = tensor<string, []>("decoder_layers_1_fc2_bias_to_fp16"), val = tensor<fp16, [384]>(BLOBFILE(path = tensor<string, []>("@model_path/weights/weight.bin"), offset = tensor<uint64, []>(49301184)))];
            tensor<fp16, [1, 3, 384]> linear_19_cast_fp16 = linear(bias = decoder_layers_1_fc2_bias_to_fp16, weight = decoder_layers_1_fc2_weight_to_fp16, x = input_59_cast_fp16)[name = tensor<string, []>("linear_19_cast_fp16")];
            tensor<fp16, [1, 3, 384]> input_65_cast_fp16 = add(x = input_53_cast_fp16, y = linear_19_cast_fp16)[name = tensor<string, []>("input_65_cast_fp16")];
            tensor<int32, [1]> hidden_states_21_axes_0 = const()[name = tensor<string, []>("hidden_states_21_axes_0"), val = tensor<int32, [1]>([-1])];
            tensor<fp16, [384]> decoder_layers_2_self_attn_layer_norm_weight_to_fp16 = const()[name = tensor<string, []>("decoder_layers_2_self_attn_layer_norm_weight_to_fp16"), val = tensor<fp16, [384]>(BLOBFILE(path = tensor<string, []>("@model_path/weights/weight.bin"), offset = tensor<uint64, []>(49302016)))];
            tensor<fp16, [384]> decoder_layers_2_self_attn_layer_norm_bias_to_fp16 = const()[name = tensor<string, []>("decoder_layers_2_self_attn_layer_norm_bias_to_fp16"), val = tensor<fp16, [384]>(BLOBFILE(path = tensor<string, []>("@model_path/weights/weight.bin"), offset = tensor<uint64, []>(49302848)))];
            tensor<fp16, [1, 3, 384]> hidden_states_21_cast_fp16 = layer_norm(axes = hidden_states_21_axes_0, beta = decoder_layers_2_self_attn_layer_norm_bias_to_fp16, epsilon = var_8_to_fp16, gamma = decoder_layers_2_self_attn_layer_norm_weight_to_fp16, x = input_65_cast_fp16)[name = tensor<string, []>("hidden_states_21_cast_fp16")];
            tensor<fp16, [384, 384]> decoder_layers_2_self_attn_q_proj_weight_to_fp16 = const()[name = tensor<string, []>("decoder_layers_2_self_attn_q_proj_weight_to_fp16"), val = tensor<fp16, [384, 384]>(BLOBFILE(path = tensor<string, []>("@model_path/weights/weight.bin"), offset = tensor<uint64, []>(49303680)))];
            tensor<fp16, [384]> decoder_layers_2_self_attn_q_proj_bias_to_fp16 = const()[name = tensor<string, []>("decoder_layers_2_self_attn_q_proj_bias_to_fp16"), val = tensor<fp16, [384]>(BLOBFILE(path = tensor<string, []>("@model_path/weights/weight.bin"), offset = tensor<uint64, []>(49598656)))];
            tensor<fp16, [1, 3, 384]> linear_20_cast_fp16 = linear(bias = decoder_layers_2_self_attn_q_proj_bias_to_fp16, weight = decoder_layers_2_self_attn_q_proj_weight_to_fp16, x = hidden_states_21_cast_fp16)[name = tensor<string, []>("linear_20_cast_fp16")];
            tensor<fp16, []> var_408_to_fp16 = const()[name = tensor<string, []>("op_408_to_fp16"), val = tensor<fp16, []>(0x1p-3)];
            tensor<fp16, [1, 3, 384]> tensor_29_cast_fp16 = mul(x = linear_20_cast_fp16, y = var_408_to_fp16)[name = tensor<string, []>("tensor_29_cast_fp16")];
            tensor<fp16, [384, 384]> decoder_layers_2_self_attn_k_proj_weight_to_fp16 = const()[name = tensor<string, []>("decoder_layers_2_self_attn_k_proj_weight_to_fp16"), val = tensor<fp16, [384, 384]>(BLOBFILE(path = tensor<string, []>("@model_path/weights/weight.bin"), offset = tensor<uint64, []>(49599488)))];
            tensor<fp16, [1, 3, 384]> linear_21_cast_fp16 = linear(bias = linear_1_bias_0_to_fp16, weight = decoder_layers_2_self_attn_k_proj_weight_to_fp16, x = hidden_states_21_cast_fp16)[name = tensor<string, []>("linear_21_cast_fp16")];
            tensor<int32, [4]> var_412 = const()[name = tensor<string, []>("op_412"), val = tensor<int32, [4]>([1, -1, 6, 64])];
            tensor<fp16, [1, 3, 6, 64]> var_413_cast_fp16 = reshape(shape = var_412, x = linear_21_cast_fp16)[name = tensor<string, []>("op_413_cast_fp16")];
            tensor<int32, [4]> var_414_perm_0 = const()[name = tensor<string, []>("op_414_perm_0"), val = tensor<int32, [4]>([0, 2, 1, 3])];
            tensor<fp16, [384, 384]> decoder_layers_2_self_attn_v_proj_weight_to_fp16 = const()[name = tensor<string, []>("decoder_layers_2_self_attn_v_proj_weight_to_fp16"), val = tensor<fp16, [384, 384]>(BLOBFILE(path = tensor<string, []>("@model_path/weights/weight.bin"), offset = tensor<uint64, []>(49894464)))];
            tensor<fp16, [384]> decoder_layers_2_self_attn_v_proj_bias_to_fp16 = const()[name = tensor<string, []>("decoder_layers_2_self_attn_v_proj_bias_to_fp16"), val = tensor<fp16, [384]>(BLOBFILE(path = tensor<string, []>("@model_path/weights/weight.bin"), offset = tensor<uint64, []>(50189440)))];
            tensor<fp16, [1, 3, 384]> linear_22_cast_fp16 = linear(bias = decoder_layers_2_self_attn_v_proj_bias_to_fp16, weight = decoder_layers_2_self_attn_v_proj_weight_to_fp16, x = hidden_states_21_cast_fp16)[name = tensor<string, []>("linear_22_cast_fp16")];
            tensor<int32, [4]> var_419 = const()[name = tensor<string, []>("op_419"), val = tensor<int32, [4]>([1, -1, 6, 64])];
            tensor<fp16, [1, 3, 6, 64]> var_420_cast_fp16 = reshape(shape = var_419, x = linear_22_cast_fp16)[name = tensor<string, []>("op_420_cast_fp16")];
            tensor<int32, [4]> var_421_perm_0 = const()[name = tensor<string, []>("op_421_perm_0"), val = tensor<int32, [4]>([0, 2, 1, 3])];
            tensor<int32, [4]> var_428 = const()[name = tensor<string, []>("op_428"), val = tensor<int32, [4]>([1, 3, 6, 64])];
            tensor<fp16, [1, 3, 6, 64]> var_429_cast_fp16 = reshape(shape = var_428, x = tensor_29_cast_fp16)[name = tensor<string, []>("op_429_cast_fp16")];
            tensor<int32, [4]> var_430_perm_0 = const()[name = tensor<string, []>("op_430_perm_0"), val = tensor<int32, [4]>([0, 2, 1, 3])];
            tensor<int32, [3]> var_432 = const()[name = tensor<string, []>("op_432"), val = tensor<int32, [3]>([6, -1, 64])];
            tensor<fp16, [1, 6, 3, 64]> var_430_cast_fp16 = transpose(perm = var_430_perm_0, x = var_429_cast_fp16)[name = tensor<string, []>("transpose_13")];
            tensor<fp16, [6, 3, 64]> query_states_9_cast_fp16 = reshape(shape = var_432, x = var_430_cast_fp16)[name = tensor<string, []>("query_states_9_cast_fp16")];
            tensor<int32, [3]> var_434 = const()[name = tensor<string, []>("op_434"), val = tensor<int32, [3]>([6, -1, 64])];
            tensor<fp16, [1, 6, 3, 64]> var_414_cast_fp16 = transpose(perm = var_414_perm_0, x = var_413_cast_fp16)[name = tensor<string, []>("transpose_15")];
            tensor<fp16, [6, 3, 64]> key_states_19_cast_fp16 = reshape(shape = var_434, x = var_414_cast_fp16)[name = tensor<string, []>("key_states_19_cast_fp16")];
            tensor<int32, [3]> var_436 = const()[name = tensor<string, []>("op_436"), val = tensor<int32, [3]>([6, -1, 64])];
            tensor<fp16, [1, 6, 3, 64]> var_421_cast_fp16 = transpose(perm = var_421_perm_0, x = var_420_cast_fp16)[name = tensor<string, []>("transpose_14")];
            tensor<fp16, [6, 3, 64]> value_states_19_cast_fp16 = reshape(shape = var_436, x = var_421_cast_fp16)[name = tensor<string, []>("value_states_19_cast_fp16")];
            tensor<bool, []> attn_weights_21_transpose_x_1 = const()[name = tensor<string, []>("attn_weights_21_transpose_x_1"), val = tensor<bool, []>(false)];
            tensor<bool, []> attn_weights_21_transpose_y_1 = const()[name = tensor<string, []>("attn_weights_21_transpose_y_1"), val = tensor<bool, []>(true)];
            tensor<fp16, [6, 3, 3]> attn_weights_21_cast_fp16 = matmul(transpose_x = attn_weights_21_transpose_x_1, transpose_y = attn_weights_21_transpose_y_1, x = query_states_9_cast_fp16, y = key_states_19_cast_fp16)[name = tensor<string, []>("attn_weights_21_cast_fp16")];
            tensor<int32, [4]> var_441 = const()[name = tensor<string, []>("op_441"), val = tensor<int32, [4]>([1, 6, 3, 3])];
            tensor<fp16, [1, 6, 3, 3]> var_442_cast_fp16 = reshape(shape = var_441, x = attn_weights_21_cast_fp16)[name = tensor<string, []>("op_442_cast_fp16")];
            tensor<fp16, [1, 6, 3, 3]> attn_weights_23_cast_fp16 = add(x = var_442_cast_fp16, y = var_59_to_fp16)[name = tensor<string, []>("attn_weights_23_cast_fp16")];
            tensor<int32, [3]> var_447 = const()[name = tensor<string, []>("op_447"), val = tensor<int32, [3]>([6, 3, 3])];
            tensor<fp16, [6, 3, 3]> input_67_cast_fp16 = reshape(shape = var_447, x = attn_weights_23_cast_fp16)[name = tensor<string, []>("input_67_cast_fp16")];
            tensor<fp16, [6, 3, 3]> input_69_cast_fp16 = softmax(axis = var_22, x = input_67_cast_fp16)[name = tensor<string, []>("input_69_cast_fp16")];
            tensor<bool, []> attn_output_25_transpose_x_0 = const()[name = tensor<string, []>("attn_output_25_transpose_x_0"), val = tensor<bool, []>(false)];
            tensor<bool, []> attn_output_25_transpose_y_0 = const()[name = tensor<string, []>("attn_output_25_transpose_y_0"), val = tensor<bool, []>(false)];
            tensor<fp16, [6, 3, 64]> attn_output_25_cast_fp16 = matmul(transpose_x = attn_output_25_transpose_x_0, transpose_y = attn_output_25_transpose_y_0, x = input_69_cast_fp16, y = value_states_19_cast_fp16)[name = tensor<string, []>("attn_output_25_cast_fp16")];
            tensor<int32, [4]> var_452 = const()[name = tensor<string, []>("op_452"), val = tensor<int32, [4]>([1, 6, 3, 64])];
            tensor<fp16, [1, 6, 3, 64]> attn_output_27_cast_fp16 = reshape(shape = var_452, x = attn_output_25_cast_fp16)[name = tensor<string, []>("attn_output_27_cast_fp16")];
            tensor<int32, [4]> attn_output_29_perm_0 = const()[name = tensor<string, []>("attn_output_29_perm_0"), val = tensor<int32, [4]>([0, 2, 1, 3])];
            tensor<int32, [3]> var_455 = const()[name = tensor<string, []>("op_455"), val = tensor<int32, [3]>([1, 3, 384])];
            tensor<fp16, [1, 3, 6, 64]> attn_output_29_cast_fp16 = transpose(perm = attn_output_29_perm_0, x = attn_output_27_cast_fp16)[name = tensor<string, []>("transpose_12")];
            tensor<fp16, [1, 3, 384]> input_71_cast_fp16 = reshape(shape = var_455, x = attn_output_29_cast_fp16)[name = tensor<string, []>("input_71_cast_fp16")];
            tensor<fp16, [384, 384]> decoder_layers_2_self_attn_out_proj_weight_to_fp16 = const()[name = tensor<string, []>("decoder_layers_2_self_attn_out_proj_weight_to_fp16"), val = tensor<fp16, [384, 384]>(BLOBFILE(path = tensor<string, []>("@model_path/weights/weight.bin"), offset = tensor<uint64, []>(50190272)))];
            tensor<fp16, [384]> decoder_layers_2_self_attn_out_proj_bias_to_fp16 = const()[name = tensor<string, []>("decoder_layers_2_self_attn_out_proj_bias_to_fp16"), val = tensor<fp16, [384]>(BLOBFILE(path = tensor<string, []>("@model_path/weights/weight.bin"), offset = tensor<uint64, []>(50485248)))];
            tensor<fp16, [1, 3, 384]> linear_23_cast_fp16 = linear(bias = decoder_layers_2_self_attn_out_proj_bias_to_fp16, weight = decoder_layers_2_self_attn_out_proj_weight_to_fp16, x = input_71_cast_fp16)[name = tensor<string, []>("linear_23_cast_fp16")];
            tensor<fp16, [1, 3, 384]> input_75_cast_fp16 = add(x = input_65_cast_fp16, y = linear_23_cast_fp16)[name = tensor<string, []>("input_75_cast_fp16")];
            tensor<int32, [1]> hidden_states_25_axes_0 = const()[name = tensor<string, []>("hidden_states_25_axes_0"), val = tensor<int32, [1]>([-1])];
            tensor<fp16, [384]> decoder_layers_2_encoder_attn_layer_norm_weight_to_fp16 = const()[name = tensor<string, []>("decoder_layers_2_encoder_attn_layer_norm_weight_to_fp16"), val = tensor<fp16, [384]>(BLOBFILE(path = tensor<string, []>("@model_path/weights/weight.bin"), offset = tensor<uint64, []>(50486080)))];
            tensor<fp16, [384]> decoder_layers_2_encoder_attn_layer_norm_bias_to_fp16 = const()[name = tensor<string, []>("decoder_layers_2_encoder_attn_layer_norm_bias_to_fp16"), val = tensor<fp16, [384]>(BLOBFILE(path = tensor<string, []>("@model_path/weights/weight.bin"), offset = tensor<uint64, []>(50486912)))];
            tensor<fp16, [1, 3, 384]> hidden_states_25_cast_fp16 = layer_norm(axes = hidden_states_25_axes_0, beta = decoder_layers_2_encoder_attn_layer_norm_bias_to_fp16, epsilon = var_8_to_fp16, gamma = decoder_layers_2_encoder_attn_layer_norm_weight_to_fp16, x = input_75_cast_fp16)[name = tensor<string, []>("hidden_states_25_cast_fp16")];
            tensor<fp16, [384, 384]> decoder_layers_2_encoder_attn_q_proj_weight_to_fp16 = const()[name = tensor<string, []>("decoder_layers_2_encoder_attn_q_proj_weight_to_fp16"), val = tensor<fp16, [384, 384]>(BLOBFILE(path = tensor<string, []>("@model_path/weights/weight.bin"), offset = tensor<uint64, []>(50487744)))];
            tensor<fp16, [384]> decoder_layers_2_encoder_attn_q_proj_bias_to_fp16 = const()[name = tensor<string, []>("decoder_layers_2_encoder_attn_q_proj_bias_to_fp16"), val = tensor<fp16, [384]>(BLOBFILE(path = tensor<string, []>("@model_path/weights/weight.bin"), offset = tensor<uint64, []>(50782720)))];
            tensor<fp16, [1, 3, 384]> linear_24_cast_fp16 = linear(bias = decoder_layers_2_encoder_attn_q_proj_bias_to_fp16, weight = decoder_layers_2_encoder_attn_q_proj_weight_to_fp16, x = hidden_states_25_cast_fp16)[name = tensor<string, []>("linear_24_cast_fp16")];
            tensor<fp16, []> var_480_to_fp16 = const()[name = tensor<string, []>("op_480_to_fp16"), val = tensor<fp16, []>(0x1p-3)];
            tensor<fp16, [1, 3, 384]> tensor_35_cast_fp16 = mul(x = linear_24_cast_fp16, y = var_480_to_fp16)[name = tensor<string, []>("tensor_35_cast_fp16")];
            tensor<fp16, [384, 384]> decoder_layers_2_encoder_attn_k_proj_weight_to_fp16 = const()[name = tensor<string, []>("decoder_layers_2_encoder_attn_k_proj_weight_to_fp16"), val = tensor<fp16, [384, 384]>(BLOBFILE(path = tensor<string, []>("@model_path/weights/weight.bin"), offset = tensor<uint64, []>(50783552)))];
            tensor<fp16, [1, 1500, 384]> linear_25_cast_fp16 = linear(bias = linear_1_bias_0_to_fp16, weight = decoder_layers_2_encoder_attn_k_proj_weight_to_fp16, x = encoder_output)[name = tensor<string, []>("linear_25_cast_fp16")];
            tensor<int32, [4]> var_484 = const()[name = tensor<string, []>("op_484"), val = tensor<int32, [4]>([1, -1, 6, 64])];
            tensor<fp16, [1, 1500, 6, 64]> var_485_cast_fp16 = reshape(shape = var_484, x = linear_25_cast_fp16)[name = tensor<string, []>("op_485_cast_fp16")];
            tensor<int32, [4]> var_486_perm_0 = const()[name = tensor<string, []>("op_486_perm_0"), val = tensor<int32, [4]>([0, 2, 1, 3])];
            tensor<fp16, [384, 384]> decoder_layers_2_encoder_attn_v_proj_weight_to_fp16 = const()[name = tensor<string, []>("decoder_layers_2_encoder_attn_v_proj_weight_to_fp16"), val = tensor<fp16, [384, 384]>(BLOBFILE(path = tensor<string, []>("@model_path/weights/weight.bin"), offset = tensor<uint64, []>(51078528)))];
            tensor<fp16, [384]> decoder_layers_2_encoder_attn_v_proj_bias_to_fp16 = const()[name = tensor<string, []>("decoder_layers_2_encoder_attn_v_proj_bias_to_fp16"), val = tensor<fp16, [384]>(BLOBFILE(path = tensor<string, []>("@model_path/weights/weight.bin"), offset = tensor<uint64, []>(51373504)))];
            tensor<fp16, [1, 1500, 384]> linear_26_cast_fp16 = linear(bias = decoder_layers_2_encoder_attn_v_proj_bias_to_fp16, weight = decoder_layers_2_encoder_attn_v_proj_weight_to_fp16, x = encoder_output)[name = tensor<string, []>("linear_26_cast_fp16")];
            tensor<int32, [4]> var_491 = const()[name = tensor<string, []>("op_491"), val = tensor<int32, [4]>([1, -1, 6, 64])];
            tensor<fp16, [1, 1500, 6, 64]> var_492_cast_fp16 = reshape(shape = var_491, x = linear_26_cast_fp16)[name = tensor<string, []>("op_492_cast_fp16")];
            tensor<int32, [4]> var_493_perm_0 = const()[name = tensor<string, []>("op_493_perm_0"), val = tensor<int32, [4]>([0, 2, 1, 3])];
            tensor<int32, [4]> var_500 = const()[name = tensor<string, []>("op_500"), val = tensor<int32, [4]>([1, 3, 6, 64])];
            tensor<fp16, [1, 3, 6, 64]> var_501_cast_fp16 = reshape(shape = var_500, x = tensor_35_cast_fp16)[name = tensor<string, []>("op_501_cast_fp16")];
            tensor<int32, [4]> var_502_perm_0 = const()[name = tensor<string, []>("op_502_perm_0"), val = tensor<int32, [4]>([0, 2, 1, 3])];
            tensor<int32, [3]> var_504 = const()[name = tensor<string, []>("op_504"), val = tensor<int32, [3]>([6, -1, 64])];
            tensor<fp16, [1, 6, 3, 64]> var_502_cast_fp16 = transpose(perm = var_502_perm_0, x = var_501_cast_fp16)[name = tensor<string, []>("transpose_9")];
            tensor<fp16, [6, 3, 64]> query_states_11_cast_fp16 = reshape(shape = var_504, x = var_502_cast_fp16)[name = tensor<string, []>("query_states_11_cast_fp16")];
            tensor<int32, [3]> var_506 = const()[name = tensor<string, []>("op_506"), val = tensor<int32, [3]>([6, -1, 64])];
            tensor<fp16, [1, 6, 1500, 64]> var_486_cast_fp16 = transpose(perm = var_486_perm_0, x = var_485_cast_fp16)[name = tensor<string, []>("transpose_11")];
            tensor<fp16, [6, 1500, 64]> key_states_23_cast_fp16 = reshape(shape = var_506, x = var_486_cast_fp16)[name = tensor<string, []>("key_states_23_cast_fp16")];
            tensor<int32, [3]> var_508 = const()[name = tensor<string, []>("op_508"), val = tensor<int32, [3]>([6, -1, 64])];
            tensor<fp16, [1, 6, 1500, 64]> var_493_cast_fp16 = transpose(perm = var_493_perm_0, x = var_492_cast_fp16)[name = tensor<string, []>("transpose_10")];
            tensor<fp16, [6, 1500, 64]> value_states_23_cast_fp16 = reshape(shape = var_508, x = var_493_cast_fp16)[name = tensor<string, []>("value_states_23_cast_fp16")];
            tensor<bool, []> attn_weights_27_transpose_x_1 = const()[name = tensor<string, []>("attn_weights_27_transpose_x_1"), val = tensor<bool, []>(false)];
            tensor<bool, []> attn_weights_27_transpose_y_1 = const()[name = tensor<string, []>("attn_weights_27_transpose_y_1"), val = tensor<bool, []>(true)];
            tensor<fp16, [6, 3, 1500]> attn_weights_27_cast_fp16 = matmul(transpose_x = attn_weights_27_transpose_x_1, transpose_y = attn_weights_27_transpose_y_1, x = query_states_11_cast_fp16, y = key_states_23_cast_fp16)[name = tensor<string, []>("attn_weights_27_cast_fp16")];
            tensor<fp16, [6, 3, 1500]> input_77_cast_fp16 = softmax(axis = var_22, x = attn_weights_27_cast_fp16)[name = tensor<string, []>("input_77_cast_fp16")];
            tensor<bool, []> attn_output_31_transpose_x_0 = const()[name = tensor<string, []>("attn_output_31_transpose_x_0"), val = tensor<bool, []>(false)];
            tensor<bool, []> attn_output_31_transpose_y_0 = const()[name = tensor<string, []>("attn_output_31_transpose_y_0"), val = tensor<bool, []>(false)];
            tensor<fp16, [6, 3, 64]> attn_output_31_cast_fp16 = matmul(transpose_x = attn_output_31_transpose_x_0, transpose_y = attn_output_31_transpose_y_0, x = input_77_cast_fp16, y = value_states_23_cast_fp16)[name = tensor<string, []>("attn_output_31_cast_fp16")];
            tensor<int32, [4]> var_515 = const()[name = tensor<string, []>("op_515"), val = tensor<int32, [4]>([1, 6, 3, 64])];
            tensor<fp16, [1, 6, 3, 64]> attn_output_33_cast_fp16 = reshape(shape = var_515, x = attn_output_31_cast_fp16)[name = tensor<string, []>("attn_output_33_cast_fp16")];
            tensor<int32, [4]> attn_output_35_perm_0 = const()[name = tensor<string, []>("attn_output_35_perm_0"), val = tensor<int32, [4]>([0, 2, 1, 3])];
            tensor<int32, [3]> var_518 = const()[name = tensor<string, []>("op_518"), val = tensor<int32, [3]>([1, 3, 384])];
            tensor<fp16, [1, 3, 6, 64]> attn_output_35_cast_fp16 = transpose(perm = attn_output_35_perm_0, x = attn_output_33_cast_fp16)[name = tensor<string, []>("transpose_8")];
            tensor<fp16, [1, 3, 384]> input_79_cast_fp16 = reshape(shape = var_518, x = attn_output_35_cast_fp16)[name = tensor<string, []>("input_79_cast_fp16")];
            tensor<fp16, [384, 384]> decoder_layers_2_encoder_attn_out_proj_weight_to_fp16 = const()[name = tensor<string, []>("decoder_layers_2_encoder_attn_out_proj_weight_to_fp16"), val = tensor<fp16, [384, 384]>(BLOBFILE(path = tensor<string, []>("@model_path/weights/weight.bin"), offset = tensor<uint64, []>(51374336)))];
            tensor<fp16, [384]> decoder_layers_2_encoder_attn_out_proj_bias_to_fp16 = const()[name = tensor<string, []>("decoder_layers_2_encoder_attn_out_proj_bias_to_fp16"), val = tensor<fp16, [384]>(BLOBFILE(path = tensor<string, []>("@model_path/weights/weight.bin"), offset = tensor<uint64, []>(51669312)))];
            tensor<fp16, [1, 3, 384]> linear_27_cast_fp16 = linear(bias = decoder_layers_2_encoder_attn_out_proj_bias_to_fp16, weight = decoder_layers_2_encoder_attn_out_proj_weight_to_fp16, x = input_79_cast_fp16)[name = tensor<string, []>("linear_27_cast_fp16")];
            tensor<fp16, [1, 3, 384]> input_83_cast_fp16 = add(x = input_75_cast_fp16, y = linear_27_cast_fp16)[name = tensor<string, []>("input_83_cast_fp16")];
            tensor<int32, [1]> input_85_axes_0 = const()[name = tensor<string, []>("input_85_axes_0"), val = tensor<int32, [1]>([-1])];
            tensor<fp16, [384]> decoder_layers_2_final_layer_norm_weight_to_fp16 = const()[name = tensor<string, []>("decoder_layers_2_final_layer_norm_weight_to_fp16"), val = tensor<fp16, [384]>(BLOBFILE(path = tensor<string, []>("@model_path/weights/weight.bin"), offset = tensor<uint64, []>(51670144)))];
            tensor<fp16, [384]> decoder_layers_2_final_layer_norm_bias_to_fp16 = const()[name = tensor<string, []>("decoder_layers_2_final_layer_norm_bias_to_fp16"), val = tensor<fp16, [384]>(BLOBFILE(path = tensor<string, []>("@model_path/weights/weight.bin"), offset = tensor<uint64, []>(51670976)))];
            tensor<fp16, [1, 3, 384]> input_85_cast_fp16 = layer_norm(axes = input_85_axes_0, beta = decoder_layers_2_final_layer_norm_bias_to_fp16, epsilon = var_8_to_fp16, gamma = decoder_layers_2_final_layer_norm_weight_to_fp16, x = input_83_cast_fp16)[name = tensor<string, []>("input_85_cast_fp16")];
            tensor<fp16, [1536, 384]> decoder_layers_2_fc1_weight_to_fp16 = const()[name = tensor<string, []>("decoder_layers_2_fc1_weight_to_fp16"), val = tensor<fp16, [1536, 384]>(BLOBFILE(path = tensor<string, []>("@model_path/weights/weight.bin"), offset = tensor<uint64, []>(51671808)))];
            tensor<fp16, [1536]> decoder_layers_2_fc1_bias_to_fp16 = const()[name = tensor<string, []>("decoder_layers_2_fc1_bias_to_fp16"), val = tensor<fp16, [1536]>(BLOBFILE(path = tensor<string, []>("@model_path/weights/weight.bin"), offset = tensor<uint64, []>(52851520)))];
            tensor<fp16, [1, 3, 1536]> linear_28_cast_fp16 = linear(bias = decoder_layers_2_fc1_bias_to_fp16, weight = decoder_layers_2_fc1_weight_to_fp16, x = input_85_cast_fp16)[name = tensor<string, []>("linear_28_cast_fp16")];
            tensor<string, []> input_89_mode_0 = const()[name = tensor<string, []>("input_89_mode_0"), val = tensor<string, []>("EXACT")];
            tensor<fp16, [1, 3, 1536]> input_89_cast_fp16 = gelu(mode = input_89_mode_0, x = linear_28_cast_fp16)[name = tensor<string, []>("input_89_cast_fp16")];
            tensor<fp16, [384, 1536]> decoder_layers_2_fc2_weight_to_fp16 = const()[name = tensor<string, []>("decoder_layers_2_fc2_weight_to_fp16"), val = tensor<fp16, [384, 1536]>(BLOBFILE(path = tensor<string, []>("@model_path/weights/weight.bin"), offset = tensor<uint64, []>(52854656)))];
            tensor<fp16, [384]> decoder_layers_2_fc2_bias_to_fp16 = const()[name = tensor<string, []>("decoder_layers_2_fc2_bias_to_fp16"), val = tensor<fp16, [384]>(BLOBFILE(path = tensor<string, []>("@model_path/weights/weight.bin"), offset = tensor<uint64, []>(54034368)))];
            tensor<fp16, [1, 3, 384]> linear_29_cast_fp16 = linear(bias = decoder_layers_2_fc2_bias_to_fp16, weight = decoder_layers_2_fc2_weight_to_fp16, x = input_89_cast_fp16)[name = tensor<string, []>("linear_29_cast_fp16")];
            tensor<fp16, [1, 3, 384]> input_95_cast_fp16 = add(x = input_83_cast_fp16, y = linear_29_cast_fp16)[name = tensor<string, []>("input_95_cast_fp16")];
            tensor<int32, [1]> hidden_states_31_axes_0 = const()[name = tensor<string, []>("hidden_states_31_axes_0"), val = tensor<int32, [1]>([-1])];
            tensor<fp16, [384]> decoder_layers_3_self_attn_layer_norm_weight_to_fp16 = const()[name = tensor<string, []>("decoder_layers_3_self_attn_layer_norm_weight_to_fp16"), val = tensor<fp16, [384]>(BLOBFILE(path = tensor<string, []>("@model_path/weights/weight.bin"), offset = tensor<uint64, []>(54035200)))];
            tensor<fp16, [384]> decoder_layers_3_self_attn_layer_norm_bias_to_fp16 = const()[name = tensor<string, []>("decoder_layers_3_self_attn_layer_norm_bias_to_fp16"), val = tensor<fp16, [384]>(BLOBFILE(path = tensor<string, []>("@model_path/weights/weight.bin"), offset = tensor<uint64, []>(54036032)))];
            tensor<fp16, [1, 3, 384]> hidden_states_31_cast_fp16 = layer_norm(axes = hidden_states_31_axes_0, beta = decoder_layers_3_self_attn_layer_norm_bias_to_fp16, epsilon = var_8_to_fp16, gamma = decoder_layers_3_self_attn_layer_norm_weight_to_fp16, x = input_95_cast_fp16)[name = tensor<string, []>("hidden_states_31_cast_fp16")];
            tensor<fp16, [384, 384]> decoder_layers_3_self_attn_q_proj_weight_to_fp16 = const()[name = tensor<string, []>("decoder_layers_3_self_attn_q_proj_weight_to_fp16"), val = tensor<fp16, [384, 384]>(BLOBFILE(path = tensor<string, []>("@model_path/weights/weight.bin"), offset = tensor<uint64, []>(54036864)))];
            tensor<fp16, [384]> decoder_layers_3_self_attn_q_proj_bias_to_fp16 = const()[name = tensor<string, []>("decoder_layers_3_self_attn_q_proj_bias_to_fp16"), val = tensor<fp16, [384]>(BLOBFILE(path = tensor<string, []>("@model_path/weights/weight.bin"), offset = tensor<uint64, []>(54331840)))];
            tensor<fp16, [1, 3, 384]> linear_30_cast_fp16 = linear(bias = decoder_layers_3_self_attn_q_proj_bias_to_fp16, weight = decoder_layers_3_self_attn_q_proj_weight_to_fp16, x = hidden_states_31_cast_fp16)[name = tensor<string, []>("linear_30_cast_fp16")];
            tensor<fp16, []> var_564_to_fp16 = const()[name = tensor<string, []>("op_564_to_fp16"), val = tensor<fp16, []>(0x1p-3)];
            tensor<fp16, [1, 3, 384]> tensor_41_cast_fp16 = mul(x = linear_30_cast_fp16, y = var_564_to_fp16)[name = tensor<string, []>("tensor_41_cast_fp16")];
            tensor<fp16, [384, 384]> decoder_layers_3_self_attn_k_proj_weight_to_fp16 = const()[name = tensor<string, []>("decoder_layers_3_self_attn_k_proj_weight_to_fp16"), val = tensor<fp16, [384, 384]>(BLOBFILE(path = tensor<string, []>("@model_path/weights/weight.bin"), offset = tensor<uint64, []>(54332672)))];
            tensor<fp16, [1, 3, 384]> linear_31_cast_fp16 = linear(bias = linear_1_bias_0_to_fp16, weight = decoder_layers_3_self_attn_k_proj_weight_to_fp16, x = hidden_states_31_cast_fp16)[name = tensor<string, []>("linear_31_cast_fp16")];
            tensor<int32, [4]> var_568 = const()[name = tensor<string, []>("op_568"), val = tensor<int32, [4]>([1, -1, 6, 64])];
            tensor<fp16, [1, 3, 6, 64]> var_569_cast_fp16 = reshape(shape = var_568, x = linear_31_cast_fp16)[name = tensor<string, []>("op_569_cast_fp16")];
            tensor<int32, [4]> var_570_perm_0 = const()[name = tensor<string, []>("op_570_perm_0"), val = tensor<int32, [4]>([0, 2, 1, 3])];
            tensor<fp16, [384, 384]> decoder_layers_3_self_attn_v_proj_weight_to_fp16 = const()[name = tensor<string, []>("decoder_layers_3_self_attn_v_proj_weight_to_fp16"), val = tensor<fp16, [384, 384]>(BLOBFILE(path = tensor<string, []>("@model_path/weights/weight.bin"), offset = tensor<uint64, []>(54627648)))];
            tensor<fp16, [384]> decoder_layers_3_self_attn_v_proj_bias_to_fp16 = const()[name = tensor<string, []>("decoder_layers_3_self_attn_v_proj_bias_to_fp16"), val = tensor<fp16, [384]>(BLOBFILE(path = tensor<string, []>("@model_path/weights/weight.bin"), offset = tensor<uint64, []>(54922624)))];
            tensor<fp16, [1, 3, 384]> linear_32_cast_fp16 = linear(bias = decoder_layers_3_self_attn_v_proj_bias_to_fp16, weight = decoder_layers_3_self_attn_v_proj_weight_to_fp16, x = hidden_states_31_cast_fp16)[name = tensor<string, []>("linear_32_cast_fp16")];
            tensor<int32, [4]> var_575 = const()[name = tensor<string, []>("op_575"), val = tensor<int32, [4]>([1, -1, 6, 64])];
            tensor<fp16, [1, 3, 6, 64]> var_576_cast_fp16 = reshape(shape = var_575, x = linear_32_cast_fp16)[name = tensor<string, []>("op_576_cast_fp16")];
            tensor<int32, [4]> var_577_perm_0 = const()[name = tensor<string, []>("op_577_perm_0"), val = tensor<int32, [4]>([0, 2, 1, 3])];
            tensor<int32, [4]> var_584 = const()[name = tensor<string, []>("op_584"), val = tensor<int32, [4]>([1, 3, 6, 64])];
            tensor<fp16, [1, 3, 6, 64]> var_585_cast_fp16 = reshape(shape = var_584, x = tensor_41_cast_fp16)[name = tensor<string, []>("op_585_cast_fp16")];
            tensor<int32, [4]> var_586_perm_0 = const()[name = tensor<string, []>("op_586_perm_0"), val = tensor<int32, [4]>([0, 2, 1, 3])];
            tensor<int32, [3]> var_588 = const()[name = tensor<string, []>("op_588"), val = tensor<int32, [3]>([6, -1, 64])];
            tensor<fp16, [1, 6, 3, 64]> var_586_cast_fp16 = transpose(perm = var_586_perm_0, x = var_585_cast_fp16)[name = tensor<string, []>("transpose_5")];
            tensor<fp16, [6, 3, 64]> query_states_13_cast_fp16 = reshape(shape = var_588, x = var_586_cast_fp16)[name = tensor<string, []>("query_states_13_cast_fp16")];
            tensor<int32, [3]> var_590 = const()[name = tensor<string, []>("op_590"), val = tensor<int32, [3]>([6, -1, 64])];
            tensor<fp16, [1, 6, 3, 64]> var_570_cast_fp16 = transpose(perm = var_570_perm_0, x = var_569_cast_fp16)[name = tensor<string, []>("transpose_7")];
            tensor<fp16, [6, 3, 64]> key_states_27_cast_fp16 = reshape(shape = var_590, x = var_570_cast_fp16)[name = tensor<string, []>("key_states_27_cast_fp16")];
            tensor<int32, [3]> var_592 = const()[name = tensor<string, []>("op_592"), val = tensor<int32, [3]>([6, -1, 64])];
            tensor<fp16, [1, 6, 3, 64]> var_577_cast_fp16 = transpose(perm = var_577_perm_0, x = var_576_cast_fp16)[name = tensor<string, []>("transpose_6")];
            tensor<fp16, [6, 3, 64]> value_states_27_cast_fp16 = reshape(shape = var_592, x = var_577_cast_fp16)[name = tensor<string, []>("value_states_27_cast_fp16")];
            tensor<bool, []> attn_weights_31_transpose_x_1 = const()[name = tensor<string, []>("attn_weights_31_transpose_x_1"), val = tensor<bool, []>(false)];
            tensor<bool, []> attn_weights_31_transpose_y_1 = const()[name = tensor<string, []>("attn_weights_31_transpose_y_1"), val = tensor<bool, []>(true)];
            tensor<fp16, [6, 3, 3]> attn_weights_31_cast_fp16 = matmul(transpose_x = attn_weights_31_transpose_x_1, transpose_y = attn_weights_31_transpose_y_1, x = query_states_13_cast_fp16, y = key_states_27_cast_fp16)[name = tensor<string, []>("attn_weights_31_cast_fp16")];
            tensor<int32, [4]> var_597 = const()[name = tensor<string, []>("op_597"), val = tensor<int32, [4]>([1, 6, 3, 3])];
            tensor<fp16, [1, 6, 3, 3]> var_598_cast_fp16 = reshape(shape = var_597, x = attn_weights_31_cast_fp16)[name = tensor<string, []>("op_598_cast_fp16")];
            tensor<fp16, [1, 6, 3, 3]> attn_weights_33_cast_fp16 = add(x = var_598_cast_fp16, y = var_59_to_fp16)[name = tensor<string, []>("attn_weights_33_cast_fp16")];
            tensor<int32, [3]> var_603 = const()[name = tensor<string, []>("op_603"), val = tensor<int32, [3]>([6, 3, 3])];
            tensor<fp16, [6, 3, 3]> input_97_cast_fp16 = reshape(shape = var_603, x = attn_weights_33_cast_fp16)[name = tensor<string, []>("input_97_cast_fp16")];
            tensor<fp16, [6, 3, 3]> input_99_cast_fp16 = softmax(axis = var_22, x = input_97_cast_fp16)[name = tensor<string, []>("input_99_cast_fp16")];
            tensor<bool, []> attn_output_37_transpose_x_0 = const()[name = tensor<string, []>("attn_output_37_transpose_x_0"), val = tensor<bool, []>(false)];
            tensor<bool, []> attn_output_37_transpose_y_0 = const()[name = tensor<string, []>("attn_output_37_transpose_y_0"), val = tensor<bool, []>(false)];
            tensor<fp16, [6, 3, 64]> attn_output_37_cast_fp16 = matmul(transpose_x = attn_output_37_transpose_x_0, transpose_y = attn_output_37_transpose_y_0, x = input_99_cast_fp16, y = value_states_27_cast_fp16)[name = tensor<string, []>("attn_output_37_cast_fp16")];
            tensor<int32, [4]> var_608 = const()[name = tensor<string, []>("op_608"), val = tensor<int32, [4]>([1, 6, 3, 64])];
            tensor<fp16, [1, 6, 3, 64]> attn_output_39_cast_fp16 = reshape(shape = var_608, x = attn_output_37_cast_fp16)[name = tensor<string, []>("attn_output_39_cast_fp16")];
            tensor<int32, [4]> attn_output_41_perm_0 = const()[name = tensor<string, []>("attn_output_41_perm_0"), val = tensor<int32, [4]>([0, 2, 1, 3])];
            tensor<int32, [3]> var_611 = const()[name = tensor<string, []>("op_611"), val = tensor<int32, [3]>([1, 3, 384])];
            tensor<fp16, [1, 3, 6, 64]> attn_output_41_cast_fp16 = transpose(perm = attn_output_41_perm_0, x = attn_output_39_cast_fp16)[name = tensor<string, []>("transpose_4")];
            tensor<fp16, [1, 3, 384]> input_101_cast_fp16 = reshape(shape = var_611, x = attn_output_41_cast_fp16)[name = tensor<string, []>("input_101_cast_fp16")];
            tensor<fp16, [384, 384]> decoder_layers_3_self_attn_out_proj_weight_to_fp16 = const()[name = tensor<string, []>("decoder_layers_3_self_attn_out_proj_weight_to_fp16"), val = tensor<fp16, [384, 384]>(BLOBFILE(path = tensor<string, []>("@model_path/weights/weight.bin"), offset = tensor<uint64, []>(54923456)))];
            tensor<fp16, [384]> decoder_layers_3_self_attn_out_proj_bias_to_fp16 = const()[name = tensor<string, []>("decoder_layers_3_self_attn_out_proj_bias_to_fp16"), val = tensor<fp16, [384]>(BLOBFILE(path = tensor<string, []>("@model_path/weights/weight.bin"), offset = tensor<uint64, []>(55218432)))];
            tensor<fp16, [1, 3, 384]> linear_33_cast_fp16 = linear(bias = decoder_layers_3_self_attn_out_proj_bias_to_fp16, weight = decoder_layers_3_self_attn_out_proj_weight_to_fp16, x = input_101_cast_fp16)[name = tensor<string, []>("linear_33_cast_fp16")];
            tensor<fp16, [1, 3, 384]> input_105_cast_fp16 = add(x = input_95_cast_fp16, y = linear_33_cast_fp16)[name = tensor<string, []>("input_105_cast_fp16")];
            tensor<int32, [1]> hidden_states_35_axes_0 = const()[name = tensor<string, []>("hidden_states_35_axes_0"), val = tensor<int32, [1]>([-1])];
            tensor<fp16, [384]> decoder_layers_3_encoder_attn_layer_norm_weight_to_fp16 = const()[name = tensor<string, []>("decoder_layers_3_encoder_attn_layer_norm_weight_to_fp16"), val = tensor<fp16, [384]>(BLOBFILE(path = tensor<string, []>("@model_path/weights/weight.bin"), offset = tensor<uint64, []>(55219264)))];
            tensor<fp16, [384]> decoder_layers_3_encoder_attn_layer_norm_bias_to_fp16 = const()[name = tensor<string, []>("decoder_layers_3_encoder_attn_layer_norm_bias_to_fp16"), val = tensor<fp16, [384]>(BLOBFILE(path = tensor<string, []>("@model_path/weights/weight.bin"), offset = tensor<uint64, []>(55220096)))];
            tensor<fp16, [1, 3, 384]> hidden_states_35_cast_fp16 = layer_norm(axes = hidden_states_35_axes_0, beta = decoder_layers_3_encoder_attn_layer_norm_bias_to_fp16, epsilon = var_8_to_fp16, gamma = decoder_layers_3_encoder_attn_layer_norm_weight_to_fp16, x = input_105_cast_fp16)[name = tensor<string, []>("hidden_states_35_cast_fp16")];
            tensor<fp16, [384, 384]> decoder_layers_3_encoder_attn_q_proj_weight_to_fp16 = const()[name = tensor<string, []>("decoder_layers_3_encoder_attn_q_proj_weight_to_fp16"), val = tensor<fp16, [384, 384]>(BLOBFILE(path = tensor<string, []>("@model_path/weights/weight.bin"), offset = tensor<uint64, []>(55220928)))];
            tensor<fp16, [384]> decoder_layers_3_encoder_attn_q_proj_bias_to_fp16 = const()[name = tensor<string, []>("decoder_layers_3_encoder_attn_q_proj_bias_to_fp16"), val = tensor<fp16, [384]>(BLOBFILE(path = tensor<string, []>("@model_path/weights/weight.bin"), offset = tensor<uint64, []>(55515904)))];
            tensor<fp16, [1, 3, 384]> linear_34_cast_fp16 = linear(bias = decoder_layers_3_encoder_attn_q_proj_bias_to_fp16, weight = decoder_layers_3_encoder_attn_q_proj_weight_to_fp16, x = hidden_states_35_cast_fp16)[name = tensor<string, []>("linear_34_cast_fp16")];
            tensor<fp16, []> var_636_to_fp16 = const()[name = tensor<string, []>("op_636_to_fp16"), val = tensor<fp16, []>(0x1p-3)];
            tensor<fp16, [1, 3, 384]> tensor_cast_fp16 = mul(x = linear_34_cast_fp16, y = var_636_to_fp16)[name = tensor<string, []>("tensor_cast_fp16")];
            tensor<fp16, [384, 384]> decoder_layers_3_encoder_attn_k_proj_weight_to_fp16 = const()[name = tensor<string, []>("decoder_layers_3_encoder_attn_k_proj_weight_to_fp16"), val = tensor<fp16, [384, 384]>(BLOBFILE(path = tensor<string, []>("@model_path/weights/weight.bin"), offset = tensor<uint64, []>(55516736)))];
            tensor<fp16, [1, 1500, 384]> linear_35_cast_fp16 = linear(bias = linear_1_bias_0_to_fp16, weight = decoder_layers_3_encoder_attn_k_proj_weight_to_fp16, x = encoder_output)[name = tensor<string, []>("linear_35_cast_fp16")];
            tensor<int32, [4]> var_640 = const()[name = tensor<string, []>("op_640"), val = tensor<int32, [4]>([1, -1, 6, 64])];
            tensor<fp16, [1, 1500, 6, 64]> var_641_cast_fp16 = reshape(shape = var_640, x = linear_35_cast_fp16)[name = tensor<string, []>("op_641_cast_fp16")];
            tensor<int32, [4]> var_642_perm_0 = const()[name = tensor<string, []>("op_642_perm_0"), val = tensor<int32, [4]>([0, 2, 1, 3])];
            tensor<fp16, [384, 384]> decoder_layers_3_encoder_attn_v_proj_weight_to_fp16 = const()[name = tensor<string, []>("decoder_layers_3_encoder_attn_v_proj_weight_to_fp16"), val = tensor<fp16, [384, 384]>(BLOBFILE(path = tensor<string, []>("@model_path/weights/weight.bin"), offset = tensor<uint64, []>(55811712)))];
            tensor<fp16, [384]> decoder_layers_3_encoder_attn_v_proj_bias_to_fp16 = const()[name = tensor<string, []>("decoder_layers_3_encoder_attn_v_proj_bias_to_fp16"), val = tensor<fp16, [384]>(BLOBFILE(path = tensor<string, []>("@model_path/weights/weight.bin"), offset = tensor<uint64, []>(56106688)))];
            tensor<fp16, [1, 1500, 384]> linear_36_cast_fp16 = linear(bias = decoder_layers_3_encoder_attn_v_proj_bias_to_fp16, weight = decoder_layers_3_encoder_attn_v_proj_weight_to_fp16, x = encoder_output)[name = tensor<string, []>("linear_36_cast_fp16")];
            tensor<int32, [4]> var_647 = const()[name = tensor<string, []>("op_647"), val = tensor<int32, [4]>([1, -1, 6, 64])];
            tensor<fp16, [1, 1500, 6, 64]> var_648_cast_fp16 = reshape(shape = var_647, x = linear_36_cast_fp16)[name = tensor<string, []>("op_648_cast_fp16")];
            tensor<int32, [4]> var_649_perm_0 = const()[name = tensor<string, []>("op_649_perm_0"), val = tensor<int32, [4]>([0, 2, 1, 3])];
            tensor<int32, [4]> var_656 = const()[name = tensor<string, []>("op_656"), val = tensor<int32, [4]>([1, 3, 6, 64])];
            tensor<fp16, [1, 3, 6, 64]> var_657_cast_fp16 = reshape(shape = var_656, x = tensor_cast_fp16)[name = tensor<string, []>("op_657_cast_fp16")];
            tensor<int32, [4]> var_658_perm_0 = const()[name = tensor<string, []>("op_658_perm_0"), val = tensor<int32, [4]>([0, 2, 1, 3])];
            tensor<int32, [3]> var_660 = const()[name = tensor<string, []>("op_660"), val = tensor<int32, [3]>([6, -1, 64])];
            tensor<fp16, [1, 6, 3, 64]> var_658_cast_fp16 = transpose(perm = var_658_perm_0, x = var_657_cast_fp16)[name = tensor<string, []>("transpose_1")];
            tensor<fp16, [6, 3, 64]> query_states_cast_fp16 = reshape(shape = var_660, x = var_658_cast_fp16)[name = tensor<string, []>("query_states_cast_fp16")];
            tensor<int32, [3]> var_662 = const()[name = tensor<string, []>("op_662"), val = tensor<int32, [3]>([6, -1, 64])];
            tensor<fp16, [1, 6, 1500, 64]> var_642_cast_fp16 = transpose(perm = var_642_perm_0, x = var_641_cast_fp16)[name = tensor<string, []>("transpose_3")];
            tensor<fp16, [6, 1500, 64]> key_states_cast_fp16 = reshape(shape = var_662, x = var_642_cast_fp16)[name = tensor<string, []>("key_states_cast_fp16")];
            tensor<int32, [3]> var_664 = const()[name = tensor<string, []>("op_664"), val = tensor<int32, [3]>([6, -1, 64])];
            tensor<fp16, [1, 6, 1500, 64]> var_649_cast_fp16 = transpose(perm = var_649_perm_0, x = var_648_cast_fp16)[name = tensor<string, []>("transpose_2")];
            tensor<fp16, [6, 1500, 64]> value_states_cast_fp16 = reshape(shape = var_664, x = var_649_cast_fp16)[name = tensor<string, []>("value_states_cast_fp16")];
            tensor<bool, []> attn_weights_37_transpose_x_1 = const()[name = tensor<string, []>("attn_weights_37_transpose_x_1"), val = tensor<bool, []>(false)];
            tensor<bool, []> attn_weights_37_transpose_y_1 = const()[name = tensor<string, []>("attn_weights_37_transpose_y_1"), val = tensor<bool, []>(true)];
            tensor<fp16, [6, 3, 1500]> attn_weights_37_cast_fp16 = matmul(transpose_x = attn_weights_37_transpose_x_1, transpose_y = attn_weights_37_transpose_y_1, x = query_states_cast_fp16, y = key_states_cast_fp16)[name = tensor<string, []>("attn_weights_37_cast_fp16")];
            tensor<fp16, [6, 3, 1500]> input_107_cast_fp16 = softmax(axis = var_22, x = attn_weights_37_cast_fp16)[name = tensor<string, []>("input_107_cast_fp16")];
            tensor<bool, []> attn_output_43_transpose_x_0 = const()[name = tensor<string, []>("attn_output_43_transpose_x_0"), val = tensor<bool, []>(false)];
            tensor<bool, []> attn_output_43_transpose_y_0 = const()[name = tensor<string, []>("attn_output_43_transpose_y_0"), val = tensor<bool, []>(false)];
            tensor<fp16, [6, 3, 64]> attn_output_43_cast_fp16 = matmul(transpose_x = attn_output_43_transpose_x_0, transpose_y = attn_output_43_transpose_y_0, x = input_107_cast_fp16, y = value_states_cast_fp16)[name = tensor<string, []>("attn_output_43_cast_fp16")];
            tensor<int32, [4]> var_671 = const()[name = tensor<string, []>("op_671"), val = tensor<int32, [4]>([1, 6, 3, 64])];
            tensor<fp16, [1, 6, 3, 64]> attn_output_45_cast_fp16 = reshape(shape = var_671, x = attn_output_43_cast_fp16)[name = tensor<string, []>("attn_output_45_cast_fp16")];
            tensor<int32, [4]> attn_output_perm_0 = const()[name = tensor<string, []>("attn_output_perm_0"), val = tensor<int32, [4]>([0, 2, 1, 3])];
            tensor<int32, [3]> var_674 = const()[name = tensor<string, []>("op_674"), val = tensor<int32, [3]>([1, 3, 384])];
            tensor<fp16, [1, 3, 6, 64]> attn_output_cast_fp16 = transpose(perm = attn_output_perm_0, x = attn_output_45_cast_fp16)[name = tensor<string, []>("transpose_0")];
            tensor<fp16, [1, 3, 384]> input_109_cast_fp16 = reshape(shape = var_674, x = attn_output_cast_fp16)[name = tensor<string, []>("input_109_cast_fp16")];
            tensor<fp16, [384, 384]> decoder_layers_3_encoder_attn_out_proj_weight_to_fp16 = const()[name = tensor<string, []>("decoder_layers_3_encoder_attn_out_proj_weight_to_fp16"), val = tensor<fp16, [384, 384]>(BLOBFILE(path = tensor<string, []>("@model_path/weights/weight.bin"), offset = tensor<uint64, []>(56107520)))];
            tensor<fp16, [384]> decoder_layers_3_encoder_attn_out_proj_bias_to_fp16 = const()[name = tensor<string, []>("decoder_layers_3_encoder_attn_out_proj_bias_to_fp16"), val = tensor<fp16, [384]>(BLOBFILE(path = tensor<string, []>("@model_path/weights/weight.bin"), offset = tensor<uint64, []>(56402496)))];
            tensor<fp16, [1, 3, 384]> linear_37_cast_fp16 = linear(bias = decoder_layers_3_encoder_attn_out_proj_bias_to_fp16, weight = decoder_layers_3_encoder_attn_out_proj_weight_to_fp16, x = input_109_cast_fp16)[name = tensor<string, []>("linear_37_cast_fp16")];
            tensor<fp16, [1, 3, 384]> input_113_cast_fp16 = add(x = input_105_cast_fp16, y = linear_37_cast_fp16)[name = tensor<string, []>("input_113_cast_fp16")];
            tensor<int32, [1]> input_115_axes_0 = const()[name = tensor<string, []>("input_115_axes_0"), val = tensor<int32, [1]>([-1])];
            tensor<fp16, [384]> decoder_layers_3_final_layer_norm_weight_to_fp16 = const()[name = tensor<string, []>("decoder_layers_3_final_layer_norm_weight_to_fp16"), val = tensor<fp16, [384]>(BLOBFILE(path = tensor<string, []>("@model_path/weights/weight.bin"), offset = tensor<uint64, []>(56403328)))];
            tensor<fp16, [384]> decoder_layers_3_final_layer_norm_bias_to_fp16 = const()[name = tensor<string, []>("decoder_layers_3_final_layer_norm_bias_to_fp16"), val = tensor<fp16, [384]>(BLOBFILE(path = tensor<string, []>("@model_path/weights/weight.bin"), offset = tensor<uint64, []>(56404160)))];
            tensor<fp16, [1, 3, 384]> input_115_cast_fp16 = layer_norm(axes = input_115_axes_0, beta = decoder_layers_3_final_layer_norm_bias_to_fp16, epsilon = var_8_to_fp16, gamma = decoder_layers_3_final_layer_norm_weight_to_fp16, x = input_113_cast_fp16)[name = tensor<string, []>("input_115_cast_fp16")];
            tensor<fp16, [1536, 384]> decoder_layers_3_fc1_weight_to_fp16 = const()[name = tensor<string, []>("decoder_layers_3_fc1_weight_to_fp16"), val = tensor<fp16, [1536, 384]>(BLOBFILE(path = tensor<string, []>("@model_path/weights/weight.bin"), offset = tensor<uint64, []>(56404992)))];
            tensor<fp16, [1536]> decoder_layers_3_fc1_bias_to_fp16 = const()[name = tensor<string, []>("decoder_layers_3_fc1_bias_to_fp16"), val = tensor<fp16, [1536]>(BLOBFILE(path = tensor<string, []>("@model_path/weights/weight.bin"), offset = tensor<uint64, []>(57584704)))];
            tensor<fp16, [1, 3, 1536]> linear_38_cast_fp16 = linear(bias = decoder_layers_3_fc1_bias_to_fp16, weight = decoder_layers_3_fc1_weight_to_fp16, x = input_115_cast_fp16)[name = tensor<string, []>("linear_38_cast_fp16")];
            tensor<string, []> input_119_mode_0 = const()[name = tensor<string, []>("input_119_mode_0"), val = tensor<string, []>("EXACT")];
            tensor<fp16, [1, 3, 1536]> input_119_cast_fp16 = gelu(mode = input_119_mode_0, x = linear_38_cast_fp16)[name = tensor<string, []>("input_119_cast_fp16")];
            tensor<fp16, [384, 1536]> decoder_layers_3_fc2_weight_to_fp16 = const()[name = tensor<string, []>("decoder_layers_3_fc2_weight_to_fp16"), val = tensor<fp16, [384, 1536]>(BLOBFILE(path = tensor<string, []>("@model_path/weights/weight.bin"), offset = tensor<uint64, []>(57587840)))];
            tensor<fp16, [384]> decoder_layers_3_fc2_bias_to_fp16 = const()[name = tensor<string, []>("decoder_layers_3_fc2_bias_to_fp16"), val = tensor<fp16, [384]>(BLOBFILE(path = tensor<string, []>("@model_path/weights/weight.bin"), offset = tensor<uint64, []>(58767552)))];
            tensor<fp16, [1, 3, 384]> linear_39_cast_fp16 = linear(bias = decoder_layers_3_fc2_bias_to_fp16, weight = decoder_layers_3_fc2_weight_to_fp16, x = input_119_cast_fp16)[name = tensor<string, []>("linear_39_cast_fp16")];
            tensor<fp16, [1, 3, 384]> input_125_cast_fp16 = add(x = input_113_cast_fp16, y = linear_39_cast_fp16)[name = tensor<string, []>("input_125_cast_fp16")];
            tensor<int32, [1]> input_axes_0 = const()[name = tensor<string, []>("input_axes_0"), val = tensor<int32, [1]>([-1])];
            tensor<fp16, [384]> decoder_layer_norm_weight_to_fp16 = const()[name = tensor<string, []>("decoder_layer_norm_weight_to_fp16"), val = tensor<fp16, [384]>(BLOBFILE(path = tensor<string, []>("@model_path/weights/weight.bin"), offset = tensor<uint64, []>(58768384)))];
            tensor<fp16, [384]> decoder_layer_norm_bias_to_fp16 = const()[name = tensor<string, []>("decoder_layer_norm_bias_to_fp16"), val = tensor<fp16, [384]>(BLOBFILE(path = tensor<string, []>("@model_path/weights/weight.bin"), offset = tensor<uint64, []>(58769216)))];
            tensor<fp16, [1, 3, 384]> input_cast_fp16 = layer_norm(axes = input_axes_0, beta = decoder_layer_norm_bias_to_fp16, epsilon = var_8_to_fp16, gamma = decoder_layer_norm_weight_to_fp16, x = input_125_cast_fp16)[name = tensor<string, []>("input_cast_fp16")];
            tensor<fp16, [51865]> linear_40_bias_0_to_fp16 = const()[name = tensor<string, []>("linear_40_bias_0_to_fp16"), val = tensor<fp16, [51865]>(BLOBFILE(path = tensor<string, []>("@model_path/weights/weight.bin"), offset = tensor<uint64, []>(58770048)))];
            tensor<fp16, [1, 3, 51865]> logits = linear(bias = linear_40_bias_0_to_fp16, weight = decoder_embed_tokens_weight_to_fp16, x = input_cast_fp16)[name = tensor<string, []>("linear_40_cast_fp16")];
            tensor<int32, []> var_741 = const()[name = tensor<string, []>("op_741"), val = tensor<int32, []>(2)];
            tensor<bool, []> var_742_interleave_0 = const()[name = tensor<string, []>("op_742_interleave_0"), val = tensor<bool, []>(false)];
            tensor<fp16, [1, 6, 5, 64]> pad_1_to_fp16 = const()[name = tensor<string, []>("pad_1_to_fp16"), val = tensor<fp16, [1, 6, 5, 64]>(BLOBFILE(path = tensor<string, []>("@model_path/weights/weight.bin"), offset = tensor<uint64, []>(58873856)))];
            tensor<fp16, [1, 6, 8, 64]> pk0 = concat(axis = var_741, interleave = var_742_interleave_0, values = (var_102_cast_fp16, pad_1_to_fp16))[name = tensor<string, []>("op_742_cast_fp16")];
            tensor<int32, []> var_769 = const()[name = tensor<string, []>("op_769"), val = tensor<int32, []>(2)];
            tensor<bool, []> var_770_interleave_0 = const()[name = tensor<string, []>("op_770_interleave_0"), val = tensor<bool, []>(false)];
            tensor<fp16, [1, 6, 8, 64]> pv0 = concat(axis = var_769, interleave = var_770_interleave_0, values = (var_109_cast_fp16, pad_1_to_fp16))[name = tensor<string, []>("op_770_cast_fp16")];
            tensor<int32, []> var_797 = const()[name = tensor<string, []>("op_797"), val = tensor<int32, []>(2)];
            tensor<bool, []> var_798_interleave_0 = const()[name = tensor<string, []>("op_798_interleave_0"), val = tensor<bool, []>(false)];
            tensor<fp16, [1, 6, 8, 64]> pk1 = concat(axis = var_797, interleave = var_798_interleave_0, values = (var_258_cast_fp16, pad_1_to_fp16))[name = tensor<string, []>("op_798_cast_fp16")];
            tensor<int32, []> var_825 = const()[name = tensor<string, []>("op_825"), val = tensor<int32, []>(2)];
            tensor<bool, []> var_826_interleave_0 = const()[name = tensor<string, []>("op_826_interleave_0"), val = tensor<bool, []>(false)];
            tensor<fp16, [1, 6, 8, 64]> pv1 = concat(axis = var_825, interleave = var_826_interleave_0, values = (var_265_cast_fp16, pad_1_to_fp16))[name = tensor<string, []>("op_826_cast_fp16")];
            tensor<int32, []> var_853 = const()[name = tensor<string, []>("op_853"), val = tensor<int32, []>(2)];
            tensor<bool, []> var_854_interleave_0 = const()[name = tensor<string, []>("op_854_interleave_0"), val = tensor<bool, []>(false)];
            tensor<fp16, [1, 6, 8, 64]> pk2 = concat(axis = var_853, interleave = var_854_interleave_0, values = (var_414_cast_fp16, pad_1_to_fp16))[name = tensor<string, []>("op_854_cast_fp16")];
            tensor<int32, []> var_881 = const()[name = tensor<string, []>("op_881"), val = tensor<int32, []>(2)];
            tensor<bool, []> var_882_interleave_0 = const()[name = tensor<string, []>("op_882_interleave_0"), val = tensor<bool, []>(false)];
            tensor<fp16, [1, 6, 8, 64]> pv2 = concat(axis = var_881, interleave = var_882_interleave_0, values = (var_421_cast_fp16, pad_1_to_fp16))[name = tensor<string, []>("op_882_cast_fp16")];
            tensor<int32, []> var_909 = const()[name = tensor<string, []>("op_909"), val = tensor<int32, []>(2)];
            tensor<bool, []> var_910_interleave_0 = const()[name = tensor<string, []>("op_910_interleave_0"), val = tensor<bool, []>(false)];
            tensor<fp16, [1, 6, 8, 64]> pk3 = concat(axis = var_909, interleave = var_910_interleave_0, values = (var_570_cast_fp16, pad_1_to_fp16))[name = tensor<string, []>("op_910_cast_fp16")];
            tensor<int32, []> var_937 = const()[name = tensor<string, []>("op_937"), val = tensor<int32, []>(2)];
            tensor<bool, []> var_938_interleave_0 = const()[name = tensor<string, []>("op_938_interleave_0"), val = tensor<bool, []>(false)];
            tensor<fp16, [1, 6, 8, 64]> pv3 = concat(axis = var_937, interleave = var_938_interleave_0, values = (var_577_cast_fp16, pad_1_to_fp16))[name = tensor<string, []>("op_938_cast_fp16")];
        } -> (logits, pk0, pv0, pk1, pv1, pk2, pv2, pk3, pv3);
}